scripts/tiny_heads/pe.pt (torch, 168808 bytes, 4 tensors)

layers.0.weight f4 [128, 320]
0	0x3c89f7f7	0.016841872
1	0x3d48474c	0.04889612
2	0x3d1417e8	0.03615561
3	0x3bb964e0	0.005657777
4	0xbc1e7a62	-0.009672733
5	0x3c42e929	0.01189641
6	0x3d4b0e53	0.049574208
7	0x3d412299	0.047152136
8	0x3b1068ea	0.002203519
9	0xbbb3eafe	-0.0054906597
10	0xbd047c0e	-0.03234487
11	0x3cc6c89c	0.02426558
12	0x3d181036	0.037124835
13	0xbced05fc	-0.028933518
14	0x3d2190ff	0.03944492
15	0x3c23392c	0.009962361
16	0xbb50bf99	-0.0031852482
17	0xbd398956	-0.04529699
18	0x3d31734b	0.043322843
19	0xbcfc3362	-0.03078622
20	0xbc8727e3	-0.016498512
21	0xbbb4216e	-0.005497149
22	0x3bfbd1eb	0.0076849363
23	0x3cbb8a85	0.0228932
24	0x3c90d3a6	0.017679047
25	0xbcb5beae	-0.02218565
26	0x3c9df6fd	0.019282812
27	0x3d383f2a	0.044982113
28	0x3d36e592	0.04465253
29	0x3d19808a	0.0374761
30	0xbce61b68	-0.02808924
31	0xbbfa42d1	-0.0076373597
32	0x3c980241	0.018555762
33	0xbcdc7f18	-0.026916072
34	0xbc00502f	-0.007831617
35	0x3d4f3222	0.05058492
36	0x3c42d267	0.011890984
37	0xbcb02c67	-0.021505548
38	0xbc023547	-0.007947273
39	0xbd04b282	-0.0323968
40	0x3ce1cf4c	0.027564667
41	0xbd0597f3	-0.032615613
42	0x3d0ae9b9	0.0339143
43	0xbd208b52	-0.039195366
44	0x3d0d37a7	0.034476902
45	0x3ca37546	0.019953381
46	0x3be4e109	0.006984834
47	0xbc744d5a	-0.01491102
48	0xbc9cb8d8	-0.01913111
49	0x3d4370eb	0.04771511
50	0xbc1e1a28	-0.009649791
51	0x3d3fabc4	0.046794668
52	0x3d154262	0.03644026
53	0xbd5de2b5	-0.054171283
54	0xbc0d9868	-0.0086422935
55	0x3b850815	0.0040598013
56	0x3d4d20f6	0.050080262
57	0x3d435d18	0.047696203
58	0x3c8d6ee1	0.017264785
59	0x3d680e72	0.0566544
60	0x3bef55b8	0.0073039196
61	0xbd303581	-0.043019775
62	0x3ca3414d	0.019928599
63	0xbd0836f4	-0.033255532
64	0x3d5c9d37	0.05386087
65	0x3cef6dcc	0.02922716
66	0xbd5c9f6c	-0.053862974
67	0x3d109e27	0.035307076
68	0x3c1c4498	0.009537838
69	0xbbdf9308	-0.0068229474
70	0xbd1a5a79	-0.037683938
71	0x3d2b632f	0.041842636
72	0xbcdba2bc	-0.026810996
73	0xbc52090e	-0.012819542
74	0xbc902009	-0.0175934
75	0xbcca8866	-0.024723243
76	0x3d1b5a9c	0.03792821
77	0x3d48ed2a	0.049054302
78	0xbd212479	-0.039341424
79	0xbd528876	-0.05139967
80	0xbbea604b	-0.0071525923
81	0x3bc6356f	0.0060488502
82	0xbc260547	-0.010133094
83	0xbc1f915a	-0.009739244
84	0x3c725bea	0.014792422
85	0xbcb83b42	-0.022489194
86	0xbd22d751	-0.039756123
87	0x3d6cd3cb	0.05781917
88	0x3bc78b34	0.0060895924
89	0x3d1926df	0.037390586
90	0xbd510165	-0.05102672
91	0xbd1ed29e	-0.03877508
92	0x3a494e3a	0.0007679198
93	0x3d1254be	0.035725348
94	0x3d6883b4	0.056766227
95	0xbbc29830	-0.0059385523
96	0xbd270bd8	-0.04078278
97	0xbbad75b5	-0.005293573
98	0x3b99ec16	0.004697333
99	0xbb6c78a1	-0.0036082643
100	0x3ac9c3e0	0.0015393458
101	0xbce1188c	-0.027477525
102	0x3bbec093	0.0058212965
103	0x3c20f181	0.009823204
104	0xbc596603	-0.01326895
105	0xbd631fdb	-0.0554503
106	0xbd5018a7	-0.05080476
107	0xbd3ad944	-0.045617357
108	0xbc92e384	-0.017930754
109	0xbcfcd0f4	-0.030861355
110	0x3d37543a	0.04475806
111	0xbd6d294c	-0.057900712
112	0xbd0a2b07	-0.03373244
113	0xbcdc81f6	-0.026917439
114	0xbd71036a	-0.058841147
115	0xbd1a7467	-0.037708666
116	0x3d067858	0.032829612
117	0x3c6ca0b6	0.014442613
118	0xbaac7030	-0.0013155993
119	0xbd07d2f7	-0.033160176
120	0xbc8ebb3d	-0.017423267
121	0xbcc67a0a	-0.024228115
122	0xbd3637b0	-0.0444867
123	0x3d0fb3e8	0.03508368
124	0xbce25611	-0.02762893
125	0xbd1cea74	-0.03830953
126	0x3d4abb5a	0.04949508
127	0xbd0226fd	-0.031775463
128	0xbcdfb929	-0.02730997
129	0x3d128069	0.035766993
130	0x3b0a99f8	0.0021148901
131	0x3ccc78f8	0.024960026
132	0xbd0331dc	-0.03202997
133	0x3cade9e9	0.021229701
134	0x3cee24bb	0.029070249
135	0x3c4a2c7e	0.012339709
136	0xbd3fa291	-0.046785895
137	0x3d116c2e	0.03550356
138	0xbcf00145	-0.02929748
139	0xbcae1ecc	-0.02125492
140	0xbcbc8f96	-0.023017686
141	0x3d1c2b47	0.03812721
142	0xbc8e31f4	-0.017357804
143	0x3d4c2174	0.04983659
144	0xbd1c539c	-0.038165674
145	0x3ca79395	0.020456115
146	0xbd493ba3	-0.04912914
147	0x3ccc289b	0.024921706
148	0x3b8b1ce8	0.0042453893
149	0x3c55eb7a	0.01305663
150	0xb96020e0	-0.00021374552
151	0xbd4a93ac	-0.049457237
152	0x3d0eaae9	0.03483096
153	0xbc78dcbd	-0.015189347
154	0x3d64108f	0.055679854
155	0xbd08649e	-0.03329908
156	0xbc37acde	-0.011210648
157	0xbcab7e4d	-0.020934248
158	0x3b052bc5	0.0020320278
159	0xbb06f982	-0.0020595496
160	0x3c46337e	0.012097238
161	0x3d2d79a8	0.04235235
162	0xbd368f16	-0.04457005
163	0xbd0d07c0	-0.03443122
164	0xbd142a6b	-0.036173265
165	0x3d516e87	0.051130798
166	0x3ca07cc2	0.01959074
167	0x3d5d212e	0.05398672
168	0x3b68fed3	0.0035552278
169	0x3d456804	0.0481949
170	0xbcff4cec	-0.031164609
171	0x3cd76a34	0.026295759
172	0x3d29141e	0.04127895
173	0xbd32649b	-0.043552976
174	0xbd10ae5d	-0.035322536
175	0xbcc16b9e	-0.023610886
176	0xbcc0d517	-0.02353911
177	0xbcf94d37	-0.030432327
178	0xbbf034fe	-0.007330536
179	0xbb60eb02	-0.0034319763
180	0xbd2b0ac2	-0.041758306
181	0xbb0cae54	-0.0021466212
182	0x3d0da89a	0.03458462
183	0xbd5a3285	-0.053270835
184	0x3d4dfe73	0.05029149
185	0xbd431e82	-0.047636516
186	0xbcc0f12a	-0.023552496
187	0xbcd4938d	-0.025949264
188	0xbd4eaec7	-0.05045965
189	0xbd2b7438	-0.04185888
190	0x3cca8b2e	0.02472457
191	0xbc10facc	-0.008848857
192	0xbd55964c	-0.052145287
193	0x3d06fe94	0.03295763
194	0xbd1411cf	-0.036149796
195	0x3d3ffc04	0.0468712
196	0xbd2bbecf	-0.041930016
197	0xbd4e076b	-0.050300043
198	0xbca7645a	-0.020433594
199	0xbc083bce	-0.00831504
200	0xbd1c8bea	-0.03821937
201	0xbc1e699e	-0.009668736
202	0x3b9e21d6	0.004825811
203	0x3d4e303b	0.050338965
204	0xbbeb4c7d	-0.007180749
205	0x3c801679	0.015635716
206	0xbccd1677	-0.025035126
207	0x3d5baa87	0.053629424
208	0xbd3c96be	-0.046042196
209	0x3d2771b9	0.04087994
210	0x3a9624ea	0.0011455093
211	0xbd1ce7a3	-0.038306843
212	0x3c13c739	0.009019666
213	0x3c8e405c	0.017364673
214	0x3d09f5ca	0.03368167
215	0xbd06ba1c	-0.03289233
216	0x3cda88e9	0.026676612
217	0x3c944201	0.01809788
218	0x3b2758ea	0.0025535175
219	0xbc6ee953	-0.014581996
220	0xbd120a8a	-0.035654582
221	0xbc5edd0a	-0.0136025045
222	0x3ce3b1c4	0.027794726
223	0xbcfde55a	-0.030993152
224	0x3c42a70a	0.0118806455
225	0xba54182a	-0.0008090759
226	0xbc9a0fe7	-0.018806411
227	0x3d1e126a	0.03859178
228	0x3d0e8b5a	0.034800865
229	0x3cbe8bd3	0.023260033
230	0xbceb7a2d	-0.028744781
231	0xbd0010e6	-0.031266116
232	0xbd0acc3f	-0.03388619
233	0xbc35e0f9	-0.011101001
234	0x3d47e701	0.048804287
235	0xbd06a5d8	-0.032873005
236	0x3d489150	0.048966706
237	0x3cad0d38	0.021124467
238	0xbcb8b226	-0.022545885
239	0x3d4457e8	0.047935396
240	0x3d6ac68a	0.057318248
241	0x3ccf692a	0.0253187
242	0xbbb07b62	-0.005385802
243	0x3cc69303	0.024240023
244	0xbcd47de9	-0.025938945
245	0xba3c92bc	-0.0007193496
246	0xbd471fbc	-0.04861425
247	0x3c181249	0.009281703
248	0x3c4f5a74	0.012655843
249	0xbc3c9ed1	-0.011512474
250	0x3a036392	0.00050120906
251	0xbb33d842	-0.0027442132
252	0xbc8e6090	-0.017380029
253	0x3bbd36b0	0.0057743415
254	0xbd017161	-0.031602267
255	0xbd2635cc	-0.04057865

layers.0.bias f4 [128]
0	0x3bb758be	0.0055952957
1	0xbd39d49c	-0.045368776
2	0x3ca734cc	0.020410918
3	0x3b748342	0.003730968
4	0xbafc2acf	-0.0019238832
5	0x3d76129b	0.060076337
6	0x3cff5187	0.031166805
7	0x3cb918c7	0.022594823
8	0x3d00eb6b	0.031474512
9	0xbd56bdb7	-0.05242702
10	0x3d309d1b	0.043118577
11	0x3cfecdf2	0.031104062
12	0x3c5f5825	0.013631855
13	0xbd567ecf	-0.052367028
14	0xbc9f8d06	-0.019476425
15	0xbc0f0d5e	-0.008731214
16	0xbd6f4f53	-0.05842526
17	0xbcb8425b	-0.022492578
18	0xbd0e6ef0	-0.034773767
19	0x3d24ee34	0.04026623
20	0xbd26f59a	-0.040761568
21	0xbd0e79be	-0.03478407
22	0x3bb5c4ce	0.0055471426
23	0x3d6a962d	0.057272125
24	0xbc16d040	-0.009204924
25	0xbb76e77a	-0.0037674592
26	0x39cd760e	0.00039188605
27	0xbcc2e221	-0.023789467
28	0x3d2da6b5	0.042395312
29	0x3ca94f60	0.020667732
30	0xbc86afdf	-0.016441284
31	0xbd0efeba	-0.034910895
32	0xbd525104	-0.051346794
33	0x3d557051	0.052109066
34	0x3c741fc4	0.014900152
35	0x39d9e73a	0.00041561743
36	0xbc59e81c	-0.013299968
37	0xbd18936c	-0.037249967
38	0xbcf12520	-0.029436648
39	0xbc77db64	-0.01512799
40	0xbd3be0f2	-0.04586882
41	0xbd1ed192	-0.03877408
42	0x3d1490f3	0.036271047
43	0x3d83a00a	0.064270094
44	0xbc9ce1d5	-0.019150654
45	0xbceaccba	-0.028662074
46	0x3d852956	0.06502025
47	0xbcd1aa0a	-0.025593776
48	0xbcaf7ca2	-0.021421734
49	0x3d107e33	0.035276603
50	0xbbbba856	-0.0057268543
51	0xbce1a85d	-0.027546102
52	0x3d69302c	0.056930706
53	0x3d2b5c71	0.041836206
54	0xbba94de8	-0.005166758
55	0xbcc0f750	-0.023555428
56	0x3c861eb4	0.016372062
57	0xbc8613ca	-0.016366858
58	0x3c8ddf18	0.017318293
59	0xbb84ba92	-0.004050561
60	0xbc7d2f68	-0.015453197
61	0x3d307d48	0.043088228
62	0xbca7c03e	-0.02047741
63	0x3d02edfa	0.031965233
64	0xbc19d976	-0.009390226
65	0x3d561ef8	0.052275628
66	0xbb147490	-0.0022652484
67	0xbd2a5afb	-0.041590672
68	0xbd32229c	-0.043490037
69	0xbc87a70c	-0.016559146
70	0xbcbedfe7	-0.023300124
71	0x3c8d0388	0.017213598
72	0x3c474120	0.012161523
73	0x3b599f39	0.0033206476
74	0x3c47c824	0.012193713
75	0xbc8423f5	-0.016130427
76	0x3cda4e97	0.026648803
77	0xbca9e47e	-0.020738836
78	0x3cb902be	0.022584315
79	0x3cc35260	0.02384299
80	0xbcc0af56	-0.023521107
81	0xbc53f319	-0.012936377
82	0xbc2d2434	-0.0105677135
83	0x3c900f90	0.017585546
84	0x3d10c875	0.03534742
85	0xbd391972	-0.045190282
86	0x3bf0fa08	0.007354025
87	0x3bf834d1	0.0075746556
88	0xbb02812c	-0.0019913418
89	0x3d484ef8	0.048903435
90	0xbcb59798	-0.022167012
91	0xbd1798fb	-0.037011128
92	0xbd337949	-0.04381684
93	0x3cff0047	0.031128062
94	0xbd23974c	-0.03993921
95	0xbc373883	-0.011182907
96	0xbceb9376	-0.028756838
97	0xbcbcaf1f	-0.023032723
98	0xbc96e064	-0.018417545
99	0x3b920271	0.0044558574
100	0x3d010793	0.031501364
101	0xbcbcdeb6	-0.023055416
102	0x3d406747	0.046973493
103	0xbd1dcf79	-0.03852794
104	0xbbd529bb	-0.006505219
105	0xbd381aa2	-0.044947274
106	0xbca25827	-0.019817425
107	0xbd7bdc9d	-0.06148969
108	0xbd091bc1	-0.033473734
109	0x3d3902bc	0.045168623
110	0x3cdff12d	0.027336681
111	0xbcccb8bc	-0.024990432
112	0x3d0f3eb8	0.034971923
113	0xbd3d873a	-0.04627154
114	0xbcca7a01	-0.02471638
115	0xbc27fbf7	-0.010252944
116	0x3d34ca2e	0.044138126
117	0x3ca7dff8	0.020492539
118	0x3d1187e7	0.035529997
119	0xbb83fbb5	-0.0040278086
120	0x3d3b3acd	0.045710374
121	0x3ce5a4e6	0.028032731
122	0x3c08b1d4	0.008343179
123	0x3be7f9ce	0.0070793396
124	0x3d4d835a	0.050174095
125	0x3d044161	0.032288913
126	0xbbf9fa46	-0.007628712
127	0xbd32403a	-0.043518282

layers.2.weight f4 [5, 128]
0	0xbcae37ef	-0.021266906
1	0xbd0f2303	-0.0349455
2	0x3dbdc8b4	0.09266797
3	0xbcaaf384	-0.02086807
4	0x3c2fcdd8	0.010730229
5	0x3dac51a2	0.08414008
6	0x3b812519	0.00394119
7	0x3c3c2209	0.011482724
8	0xbd8c189c	-0.06840631
9	0xbca14e43	-0.019690638
10	0x3d92495b	0.07142898
11	0x3bfcbd38	0.0077129863
12	0x3cf1a8d6	0.029499453
13	0xbdb80243	-0.089848064
14	0xbd0a3eb3	-0.0337512
15	0xbd96ec19	-0.07369251
16	0xbd03b5a2	-0.03215564
17	0x3dad3cdc	0.08458874
18	0xbd2beb89	-0.04197267
19	0x3dc8b733	0.098005675
20	0xbcd0145b	-0.025400331
21	0xbd38f9e0	-0.045160174
22	0x3d09ba70	0.033625066
23	0x3d7d4a82	0.061838634
24	0xbc9d5cf0	-0.019209355
25	0xbd68758a	-0.05675272
26	0xbadd89a8	-0.0016901987
27	0x3d9d3b9c	0.07677385
28	0x3ccd44cd	0.02505722
29	0x3d087208	0.033311874
30	0xbd219a05	-0.039453525
31	0x3ce25c1a	0.027631808
32	0xbd4804e4	-0.04883279
33	0x3d4f8f9d	0.05067407
34	0x3d8f3107	0.06991773
35	0x3cb4da2e	0.022076692
36	0xbd7ae23b	-0.061250906
37	0x3953288a	0.0002013763
38	0xbd76c5a2	-0.06024707
39	0x3c8a61b4	0.016892292
40	0xbd9c231c	-0.07623884
41	0xbd5490d1	-0.05189592
42	0x3d4c4ebd	0.04987978
43	0x3c90543a	0.017618287
44	0x3be6c728	0.0070427842
45	0x3d89ff6a	0.067381695
46	0x3dac7273	0.08420267
47	0x3cd31ffa	0.025772084
48	0x3d8257c4	0.06364396
49	0x3d914ef6	0.07095139
50	0xbd1e76ed	-0.038687635
51	0x3d98f834	0.07469216
52	0x3d0b7efa	0.03405664
53	0xbbf75256	-0.007547657
54	0xbd2c0f6f	-0.042006906
55	0xbbe353f1	-0.006937497
56	0x3d6563ae	0.056003265
57	0x3ccc50fd	0.024940962
58	0x3cecc61e	0.028903063
59	0x3d0ac4e9	0.033879194
60	0x3d8566e5	0.06513766
61	0x3dbb3d10	0.09142506
62	0x3dc00493	0.093758725
63	0xbd2842dc	-0.041079387
64	0xbcbb0b81	-0.022832634
65	0x3d3df2b6	0.046374045
66	0x3cfd7913	0.030941522
67	0xbd9917b1	-0.07475222
68	0xba7005ae	-0.000915612
69	0x3c59094b	0.0132468445
70	0xbd9512d9	-0.072789855
71	0xbd1d1cc9	-0.03835753
72	0x3dbc1445	0.091835536
73	0xbce8c3be	-0.02841365
74	0xbcab0259	-0.020875143
75	0xbd69d232	-0.057085223
76	0xbd9495d4	-0.0725514
77	0x3d8e57ad	0.069503166
78	0x3d883b94	0.066519886
79	0x3d905c1d	0.07048819
80	0xbd9e840b	-0.07740029
81	0x3bf740de	0.0075455746
82	0x3d9250ae	0.07144295
83	0x3dc64ddd	0.0968282
84	0xbcf7bbfd	-0.030241007
85	0xbd9662a5	-0.07343034
86	0x3c4b4b78	0.01240813
87	0xb990fdea	-0.00027655
88	0xbd8f4b3a	-0.0699677
89	0xbcd8ea8d	-0.02647903
90	0x3da2356a	0.07920344
91	0x3d866260	0.06561732
92	0x3db2ff77	0.08740132
93	0x3d9e25bc	0.07722041
94	0xbd4bb743	-0.04973532
95	0x3c100bb4	0.008791853
96	0x3d0c082b	0.034187477
97	0x3dc17906	0.094469115
98	0x3daee7d1	0.08540309
99	0xbb5b1d34	-0.0033434154
100	0x3d39554a	0.045247354
101	0xbd999e6f	-0.07500922
102	0xbc24cbe5	-0.010058378
103	0x3d6f3523	0.058400284
104	0xbcb2b2fe	-0.021813866
105	0xbd0ca156	-0.03433355
106	0xbc98e59f	-0.01866418
107	0x3c051dad	0.008124751
108	0x3da57acb	0.080800615
109	0x3bf0b6d9	0.007346016
110	0x3db7596f	0.08952605
111	0xbd1242f3	-0.03570838
112	0x3d16a80a	0.03678135
113	0xbcf6c1b9	-0.030121671
114	0x3d6dc8d2	0.058052845
115	0xbd78f807	-0.060783412
116	0xbb6fe1d7	-0.0036603117
117	0x3c6efb8c	0.014586341
118	0x3dbc1a4d	0.09184704
119	0xbcedbf38	-0.029021844
120	0xbd157f43	-0.03649832
121	0xbc85555a	-0.01627605
122	0xbd27fe1e	-0.04101383
123	0x3d85382c	0.065048546
124	0x3da286b1	0.079358466
125	0x3d43b536	0.047780238
126	0xbd34568f	-0.04402786
127	0xbc5f44a4	-0.013627205
128	0xbcd64638	-0.02615653
129	0x3d15d492	0.036579676
130	0x3cb4455e	0.022005733
131	0x3d11e946	0.035622858
132	0xbd03ca88	-0.03217557
133	0x3c8ff7a2	0.017574135
134	0x3d93c6f6	0.07215683
135	0xbdacada1	-0.084315546
136	0xbc778424	-0.015107188
137	0x3d231429	0.039814148
138	0xbd2a31fe	-0.041551583
139	0xba7b5b0f	-0.0009588459
140	0x3cbd23d9	0.023088383
141	0x3ce00764	0.027347274
142	0x3d233aea	0.039851107
143	0x3d7a1a08	0.06105998
144	0x3d36f97c	0.04467152
145	0xbd587468	-0.05284539
146	0x3d2befed	0.041976858
147	0x3c957a24	0.018246718
148	0x3c8bc402	0.017061237
149	0xbd1e7660	-0.03868711
150	0x3ca06cf5	0.019583205
151	0x3d985488	0.07437998
152	0x3d829e4d	0.0637785
153	0x3d55aaa9	0.052164707
154	0x3d2ebe68	0.042662054
155	0x3bfaba71	0.00765162
156	0x3d09d1e3	0.03364743
157	0xbd8b87f2	-0.06813039
158	0xbd97a1af	-0.074038856
159	0x3d9b03ea	0.07569106
160	0x3d9cb800	0.07652283
161	0xbd9f914e	-0.077913865
162	0x3d68c669	0.056829844
163	0xbc121c96	-0.008917948
164	0xbcc3fce0	-0.023924291
165	0xbc0b8b32	-0.0085170735
166	0xbc0cb6e2	-0.008588525
167	0x3d9318f2	0.07182492
168	0x3c8b58a6	0.017010044
169	0xbbc0f7d9	-0.0058889207
170	0x3d214172	0.039369054
171	0xbd0f52a1	-0.03499091
172	0xbd855eab	-0.06512197
173	0x3d263d02	0.040585525
174	0xbba4dffd	-0.0050315843
175	0xbd8e67ee	-0.06953417
176	0x3d5fa608	0.0546017
177	0x3c600e05	0.0136752175
178	0xbdc5035d	-0.09619782
179	0xbce29504	-0.027658947
180	0x3daaeb74	0.0834569
181	0x3d250170	0.040284574
182	0xbda086c6	-0.07838206
183	0xbcef032d	-0.029176319
184	0x3d9607f2	0.07325734
185	0x3d40266d	0.046911646
186	0x3bb3930b	0.0054801754
187	0x3cb330e5	0.0218739
188	0x3c1e2d9b	0.009654428
189	0x3d8ee750	0.06977713
190	0xbdc43938	-0.09581226
191	0xba57d81e	-0.0008233803
192	0x3d1aa83f	0.03775811
193	0xbd8b42df	-0.06799864
194	0xbda71c95	-0.081597485
195	0x3d871dd4	0.06597486
196	0x3d2ccfd3	0.042190384
197	0x3ca14b46	0.019689213
198	0xbc6e6692	-0.014550822
199	0xbd147c99	-0.036251638
200	0x3cd3cf58	0.025855705
201	0x3d85becf	0.065305345
202	0xbd8848a9	-0.06654484
203	0x3c81ef04	0.015861042
204	0x3b3c4fbc	0.0028734049
205	0x3c786d0e	0.015162719
206	0xbd2a8921	-0.041634683
207	0xbd25436a	-0.040347494
208	0x3d48bf77	0.04901072
209	0x3dac1906	0.0840321
210	0xbd5fba18	-0.054620832
211	0x3caa8577	0.020815594
212	0xbd5056b0	-0.05086392
213	0x3d993308	0.074804366
214	0x3d884634	0.06654015
215	0xbc983af9	-0.018582808
216	0x3daf1155	0.08548228
217	0xbd8ebcc7	-0.069696
218	0x3bf4ef7d	0.0074748383
219	0x3d060b31	0.032725517
220	0xbd944bb1	-0.072409995
221	0x3b836828	0.004010219
222	0x3d894424	0.0670245
223	0x3d530065	0.051514048
224	0xbc84b9fd	-0.016201967
225	0x3a608316	0.0008564455
226	0xbd9b1579	-0.07572455
227	0xbd27ba01	-0.04094887
228	0xbd944581	-0.07239819
229	0xbd6ce5f4	-0.057836488
230	0x3b192021	0.0023365098
231	0x3d4a320f	0.049364146
232	0x3d5522f2	0.05203528
233	0x3c7c4fe8	0.0153999105
234	0xbdbb5f7b	-0.09149071
235	0xbcfab183	-0.030602222
236	0xbda8b892	-0.08238329
237	0x3da4160b	0.08012017
238	0x3d0ca481	0.03433657
239	0xbc720502	-0.014771702
240	0xbd15c563	-0.036565196
241	0x3d922584	0.07136062
242	0xbcf56c2a	-0.029958803
243	0x3cff283e	0.031147119
244	0xbd81ed9a	-0.06344147
245	0x3d4d248d	0.050083686
246	0xbd99f2ad	-0.0751699
247	0x3d896345	0.06708387
248	0xbd9ea3b2	-0.07746066
249	0xbc4afd98	-0.012389563
250	0x3d7e59ea	0.062097467
251	0xbd263b06	-0.040583633
252	0xbd9d9070	-0.07693565
253	0x3d6f558d	0.058431197
254	0xbd380290	-0.04492432
255	0xbbee78f4	-0.0072776023

layers.2.bias f4 [5]
0	0x3ccd226c	0.025040828
1	0x3d8d1364	0.06888464
2	0x3cc76981	0.0243423
3	0xbd9ba3c0	-0.07599592
4	0xbd1a0564	-0.037602797
