scripts/tiny_heads/pe.pt (torch, 168808 bytes, 4 tensors)

layers.0.weight f4 [128, 320]
00000000: 1f3c 2c3d 4dc5 3b3d 6d5e 8f3c 3c4a a33c
00000010: 4fb8 f1bc 36b2 d5bc 03d5 59bd 9068 16bd
00000020: 7634 82bb 916c e33c fe61 cfbc 03a7 043d
00000030: a776 12bc 9893 f53c cf3e 8bbc 985c 0cbd
00000040: 200a 683c e405 b6bc e6e0 45bc aaf1 5abd
00000050: 2637 8cbc 23eb 64bc dab9 4d3d 8f8e cdbc
00000060: 5c54 8f3d c35b 85bd 547f a83c 3aed e5bb
00000070: e215 ca3c 9c22 36bd be97 5f3c a00a 5c3c
00000080: 8452 8bbd bf55 bfbb bc4a b6bb 99fc 8ebb
00000090: 214f 79bd a77a 9bbd 6b5b 36bc f9b3 a3bc
000000a0: cfc4 35bd a335 37bd 290f 7fbd b35d 073d
000000b0: 3e74 47bc 9ffd 81bd 65b8 ba3c a740 5fbd
000000c0: 7ccf ad3c 65dd babc a7ad 96bb 0593 073d
000000d0: d56a 7e3d 5b55 09bc 3229 8a3c 86e6 473b
000000e0: 5afe 51bd 1855 2ebc 5aff 94bd 4e9e 843d
000000f0: 1bf8 c93b 9a06 cf3c 91fe 04bd 85da 253b
00000100: f390 f23b 2880 12bd 31c0 e43b ab35 2bbc
00000110: 5d7f 91ba 9c8d 3b3c 5c1c ccbb 9076 113d
00000120: b590 ac3c 5d63 c9bc c821 a03c 338c 06bd
00000130: 9542 2bbd b3f0 16bd 6cd4 463d 5d58 81bc
00000140: 78c7 c53b 25c1 73bd 00cc b63b 0fef 7abd
00000150: 3c04 a9bc 46f0 f9bc c224 29bb c476 183d
00000160: 56a5 0fbd 5b6e 923c cc81 923d 35ff 863d
00000170: 624d f33c e487 823b 1d0b 7f3d 8344 82bd
00000180: c093 603c 1ee2 9d3c 1f3d 7fbd a723 fb3c
00000190: dd27 26bd ec0a 723c d5c1 723d 16a9 f53c
000001a0: e5be d83a 76ef 71bd dfd2 363c bcf9 883b
000001b0: 2070 51bc cfd4 923d bcd0 f93c 4b35 ee3b
000001c0: 8e2a 493b 1771 1ebc e2fc 6cbd 5643 3bbd
000001d0: d6fb 1d3d 318a 11bd 219e 193d 2c77 ecbc
000001e0: cdf4 40bd 1b4c d2bb 2f8d 91bc a193 11bd
000001f0: 0d8d cbbc 3b70 493d f0bb f33c e161 543c
00000200: 1ccc 6d3d 3f09 e43c 20a3 9a3c 1711 f23c
00000210: 93ca 763d 7b19 633c 56ea bbbc 313d 3c3d
00000220: 3916 d9bc 2dce cdbc e0ce d73a 5c18 283d
00000230: 0e4e 7abd 54dd 973d 71fe 71bd b03d 51bd
00000240: 8c56 4b3d 412c a0bc 359d 753d fa6e 61bc
00000250: b9ff 0cbd 3699 ffbc 0733 75bd 7d71 1ebc
00000260: f120 d63c 3361 19bc 27fd f93c c60d 1e3c
00000270: c132 d6bc 0054 d13b 08e9 303c 1613 dbbc
00000280: 2cda 663d 5090 6a3d 4a20 82bd 53bc c73c
00000290: c0e4 06bd 4e6a 663d a890 7fbb c22a f7ba
000002a0: 74e0 cb3c fd4d 23bc 3609 89bc c4a7 293c
000002b0: b521 8abd 00e3 33bd 1164 94bd 150d 8b3c
000002c0: dc15 95bc 50bb 963d 56f9 1b3d f6af 79bb
000002d0: 4287 83bd fb4e 3abb 8178 01bd fa0b be3c
000002e0: d7d5 6a3d 66f5 fe3b 7cb2 293d 778d 5fbd
000002f0: 9582 62ba e361 bfbb 7b7a 893d 9aea 3b3c
00000300: 9cb4 23bd 37ac a438 ff5d 52bc 05d8 79bd
00000310: dfdf 743d 08e4 7e3c 1f5d 2aba cae9 a83c
00000320: 5ea2 7d3d f8ba ae3c cdaf 073d ba40 56bd
00000330: 110e 603d 7589 2bbd 6a8b 6b3d d5c5 dfbc
00000340: f7e4 21bc ccad aa3c 41bd 693c 5eac d839
00000350: ca19 2d3d 1f0a 66bd 04f2 08bd 38d6 7f3c
00000360: 8232 bdbc 0cab 003b 7417 3d3d 6a1e 5e3c
00000370: 3b1b 253c ca70 c03b 30bb 1cbd a550 dd3c
00000380: 40c7 143d d7bf 6cbc d31c 413d f173 94bc
00000390: ee31 2abb 6388 8a3d 2e51 3cbc 0601 1bbc
000003a0: c2ee 0b3d 8b9f a8bc 8ec8 b43c 2239 b1bc
000003b0: 521d b33b 57c6 2fbc 5328 5fbc aad3 3fbd
000003c0: ce75 583c 8a71 123d f30c 67bc 7194 77ba
000003d0: f461 17bd 0dbc 92bc b9a4 2b3c a4ed 04bd
000003e0: ba9b 7e38 9a40 a8bc a1a9 f83a 7731 8cbc
000003f0: f491 ea3c 6a23 c8bc 6818 b2bc b447 21bd
0.042049523 0.045842458 0.01750108 0.019932859 -0.02950683 -0.026085954 -0.05318166 -0.036720812
-0.003973539 0.02776173 -0.025315281 0.032385837 -0.008939422 0.029977605 -0.016997723 -0.03426799
0.01416257 -0.022219606 -0.012077546 -0.053453125 -0.01711614 -0.013972077 0.05022607 -0.025092391
0.06998512 -0.06511643 0.020568527 -0.007016805 0.024668638 -0.0444666 0.013647018 0.013430268
-0.06802848 -0.005839079 -0.0055631083 -0.004363608 -0.06086648 -0.075917535 -0.011130194 -0.019983279
-0.044377144 -0.044728886 -0.062270317 0.033048343 -0.01217371 -0.063472025 0.022793004 -0.054505017
0.0212171 -0.022810647 -0.0045983377 0.033099193 0.0621136 -0.008382167 0.016865347 0.0030502393
-0.05126796 -0.010640405 -0.07275267 0.06475507 0.0061636097 0.025271703 -0.032469336 0.002530725
0.007402533 -0.03576675 0.006980919 -0.010449807 -0.0011100579 0.0114473365 -0.0062289666 0.03551346
0.021065095 -0.024583513 0.019547358 -0.03284855 -0.041811544 -0.036850642 0.048542425 -0.015789205
0.0060357414 -0.05951037 0.005578518 -0.06126314 -0.020631902 -0.03051008 -0.0025809263 0.03722264
-0.035069786 0.017874887 0.07153663 0.06591646 0.029699985 0.0039834846 0.062266458 -0.06360724
0.013707101 0.01927286 -0.06231415 0.030656649 -0.04056536 0.014773112 0.059266884 0.029987853
0.0016536383 -0.05906626 0.011158674 0.0041801613 -0.01278308 0.07169496 0.03049504 0.0072695366
0.003069553 -0.009670517 -0.057858355 -0.045718513 0.038570248 -0.03553218 0.03750432 -0.02886542
-0.04710846 -0.006417764 -0.017767517 -0.03554118 -0.024847532 0.049179297 0.029752702 0.012962789
0.058055982 0.02783644 0.018876612 0.029549165 0.060251784 0.0138610555 -0.022938889 0.045956794
-0.026499854 -0.025122726 0.0016464852 0.041038856 -0.061109595 0.07415262 -0.059080545 -0.05108422
0.049643084 -0.019552352 0.059964377 -0.013759369 -0.034423564 -0.031200986 -0.059863117 -0.009670612
0.026138755 -0.009361553 0.03051622 0.0096468385 -0.026147248 0.0063881874 0.0107977465 -0.0267425
0.05636041 0.057266533 -0.06353815 0.024381792 -0.032932997 0.056253724 -0.0038996134 -0.0018857347
0.024887301 -0.009967324 -0.016728025 0.01035494 -0.0674471 -0.043917656 -0.07245649 0.016974011
-0.0181989 0.07359946 0.038079582 -0.0038099266 -0.06422283 -0.0028428424 -0.031609062 0.02319907
0.05733284 0.0077807186 0.04142998 -0.05457827 -0.0008640674 -0.0058405264 0.067128144 0.011469508
-0.039967164 7.852207e-05 -0.012839793 -0.060997028 0.059783813 0.015557297 -0.00064988615 0.020619292
0.061922424 0.021329388 0.03312664 -0.05230782 0.054700915 -0.041879136 0.057506002 -0.027316013
-0.00988125 0.020834826 0.014266313 0.00041327154 0.042260922 -0.056161996 -0.03343393 0.015615039
-0.023095373 0.0019633202 0.046164945 0.013557056 0.010077293 0.0058728205 -0.038264453 0.027015993
0.036322832 -0.014450035 0.04714663 -0.018121691 -0.0025969702 0.06764295 -0.011493964 -0.009460693
0.034163244 -0.020583889 0.022068288 -0.021633688 0.0054661417 -0.01072844 -0.013620454 -0.046832718
0.013211681 0.03575281 -0.014102208 -0.0009444422 -0.03695865 -0.017911935 0.010476285 -0.032453194
6.070335e-05 -0.020538617 0.0018971452 -0.01711343 0.028634049 -0.02443095 -0.021740153 -0.039375022

layers.0.bias f4 [128]
00000000: c3b3 24bd d8d3 513d 5f10 ab3c c024 813d
00000010: 7f73 993d 0ebe 0fbd f541 8d3c 9a5d 213c
00000020: e7a4 df3b db6f cd3c a686 373d e46c fc3c
00000030: 6261 b53d b468 abbc e2f3 4a3d 6979 083e
00000040: 1b20 8b3c 6dfa 613d bfc9 06bd 79b5 a7bb
00000050: b1f2 ff3c 22e6 a83c 9859 6e3c 82e7 253d
00000060: 2f38 703d 2ddd a03d 8d38 3c3d 4d13 1f3c
00000070: 4ad0 793d da41 73bd d976 163d f265 b6bc
00000080: cf57 d9bb efc9 a8bb c5bd 4c3d 6cc1 d43b
00000090: 491f be3c d21b 543d e6d8 4f3d 3757 0d3d
000000a0: cbbe fb3c 57b2 7fbd 88c5 943d 5b13 48bd
000000b0: fd91 a53d 6c89 b63c 88ac b83d bf42 8cbc
000000c0: bf98 be3c 5e69 893c 55f2 b3bc 3373 15bd
000000d0: 7e12 043d 0eab 4b3d 4486 39bd ab78 443d
000000e0: a95d 993c 2ba6 aabb 9f97 6d3a f798 7fbd
000000f0: 77a8 53bd c3b3 493d c603 afbc 58be 103c
00000100: 8ad6 9d3d bd8e 553d 2c30 2fbc 3229 87bc
00000110: 6b1b 19bc 382f 86bd be13 bd3b ff32 d3bc
00000120: cdf8 923c cc14 933b e007 b63c 41c0 993d
00000130: 71ff 153b 662e 2d3c 1a91 813c 2e74 3ebc
00000140: f324 0d3d c44a 993d eed2 41bd 841c 9b3d
00000150: 7360 b03d 3fba 243d 863e 0cbb 45f2 1c3d
00000160: cd46 81bc 2b58 513b 8c7b a4bb b070 083d
00000170: 3c26 96bb 4fae 4f3e 836e a4bc 3192 f43c
00000180: b3ea 073d 20cc c03c 0cd3 063d 9afc 13bc
00000190: bcfa f8bb 5e1e fe3b 6554 a23d 5bef 013d
000001a0: 239b 7c3d c46d 733d 5d2d 363d 6890 673c
000001b0: 115b 9d3d 6106 793c 4680 aabb 6225 b13d
000001c0: f3ef debb 7408 e13c 626f 0abd 128f 0a3d
000001d0: 1d6e 5bbd ea76 c83c 3a6f d3bc 98d8 0fbd
000001e0: 597c 67bc f0a9 e5bb bd11 1a3c 059b bdbc
000001f0: b60b 8b3c b3a9 e23c 6129 223b 94f4 003d
-0.040210497 0.05122742 0.02088183 0.06305838 0.07492732 -0.03509336 0.017243365 0.0098489765
0.006825078 0.02507775 0.044806145 0.030813642 0.08856465 -0.02092395 0.04954899 0.13327564
0.016983083 0.055170465 -0.032907244 -0.005118069 0.031243654 0.020617548 0.014547728 0.040503986
0.05864733 0.07854686 0.04595237 0.0097091915 0.060989656 -0.059388973 0.036734436 -0.022265408
-0.006632782 -0.0051510255 0.049985666 0.0064927842 0.023208277 0.051784344 0.05074396 0.034507003
0.030730626 -0.062425938 0.072642386 -0.048846584 0.08084486 0.022282325 0.09017283 -0.01712167
0.023266194 0.016773876 -0.021966139 -0.036486816 0.032244198 0.049723677 -0.04529406 0.04796664
0.018721418 -0.005207797 0.0009063426 -0.062401738 -0.051674332 0.0492437 -0.021364104 0.008834444
0.07706936 0.05213808 -0.010692637 -0.016499136 -0.009344916 -0.06551975 0.0057701757 -0.025781153
0.017940903 0.004488563 0.022220552 0.07507373 0.002288785 0.010570144 0.01581626 -0.011624379
0.034459066 0.074849635 -0.0473203 0.07573798 0.08612146 0.04021668 -0.0021399572 0.038316984
-0.01578083 0.0031943421 -0.0050196107 0.033310592 -0.0045821946 0.20281337 -0.020072227 0.029854866
0.03318281 0.023534834 0.032916114 -0.009032393 -0.0075982492 0.007755085 0.07926253 0.031722408
0.061671387 0.059430853 0.044476856 0.01413355 0.07683385 0.015199275 -0.0052032797 0.08649708
-0.0068035065 0.027469851 -0.03379763 0.03382785 -0.05357181 0.024470765 -0.025809873 -0.03511867
-0.014128768 -0.0070087835 0.009403643 -0.023145208 0.016973358 0.02766881 0.0024743902 0.031483248

layers.2.weight f4 [5, 128]
00000000: 013b 58bd c126 3a3d d2c1 623d fff6 13be
00000010: 3523 c13d 3ce5 3abd 93d0 e03c 3de4 523d
00000020: 9c19 7e3d ec68 983c b106 36bd 7250 f73b
00000030: 92ae 063d bc76 62bd 43b0 de3d 3b6d 1a3f
00000040: fe2c c93d 5dfa 543d c70d 4ebd 8b6f 4c3d
00000050: f186 043f 7204 cfbc 6002 c33c a2ce 8fbd
00000060: 725c 643d 210f b23d 9e74 e63d 21ac 923d
00000070: 4635 01bd 07a3 57bd 34f5 663d e62d 843b
00000080: 2add 9cbe 6859 e53d 42ab c23d 9b97 af3d
00000090: b963 6bbd fa50 cc3d f569 da3d ece0 86bd
000000a0: 53dd e23d 8a7c 66bd 6991 763d 04bc 2fbd
000000b0: 5427 913d 9e23 b33d 0669 de3c 53fb c83d
000000c0: 8cd2 b43d 6636 71bd b2e8 5cbd c467 2dbd
000000d0: 5708 4bbd 84aa ac3d cbe4 083c 768a 933e
000000e0: 8b14 c03a f09d 42bd e104 22bd 12bf 00bd
000000f0: 3afe 37bc 77e6 283d 4ae5 9fbd 3729 233d
00000100: 46e5 403d 7465 a93d dd78 b03d c6a1 043e
00000110: 8ba7 f53c e63e 9cbd a859 8e3d 62a2 f1bc
00000120: 0cae ab3d a406 4c3d 6f4c dfbc a7cc 01bc
00000130: eaba a4bc fc5c 953c b6f4 d0bc 661a 603d
00000140: 7e6f ca3c 4703 aa3e 0997 90be f2cf 6e3d
00000150: afd5 c43d 74b6 f93d d51c 8dbd 68ab 82bd
00000160: 0bf4 67bc 42af 3f3f 9715 b43b ce4d dd3c
00000170: 1f60 053d e996 7fbe 34c0 9fbd e18c 313d
00000180: 3a2b 43be 7a73 b93d f8e5 b53d 2832 d03d
00000190: c3f5 da3d 25ae 94bd cd26 cb3d 739c e03c
000001a0: 0dfc 1a3e 9170 cb3d 6926 69bd b22a e03c
000001b0: 7382 3a3d 5aa8 ee3d 3f8e 6fbc d4a6 8e3b
000001c0: 9a68 0cbd d882 8cbd 80f3 3fbd 59be a03e
000001d0: d345 bbbb a97d 93bd 43bb 93bd a9b5 96bc
000001e0: a34a 8f3d fef3 e93d 6e6f 85bd 411c 73bd
000001f0: c788 a43c 8bed 91bd 5f0b aa3e 751e 96bd
00000200: 4146 673d 5027 23bc e9c3 8ebe b212 d93e
00000210: a383 063d 35dd 81bd 3872 283d 956b 63bc
00000220: 8e8c 853d 6b21 84be af9f d53d 8f21 5b3c
00000230: 9f5b d43b 8402 8a3c b8f5 b1bc b61b 2dbf
00000240: ef6c a03d 0066 18bd fdbd 1f3d dfcf 1c3c
00000250: f0e5 a4be 936e 8a3d 8cd2 38be dc56 8b3d
00000260: 5b01 843d 608f 0e3d 54d5 82bd 44e1 863d
00000270: ae46 f73d 7d58 913d 0338 93bd e9d7 4a3d
00000280: 015c 633d 184f b3bd 1702 f7bb 0acf 873d
00000290: 325f f639 c1af fe3c 989e 34bc 9c6d b4bd
000002a0: 0b57 8b39 ee10 5f3d 676f 84bd 9f7a d7bc
000002b0: 0d9e 81bc 4a1a f6bd e403 c63c 2236 94bd
000002c0: 7f01 a73d 9525 bf3c 6dba c2bd 27d0 d43c
000002d0: 8c29 413d 7373 9b3d 00ab 3a3b e145 65bf
000002e0: a3b9 1cbd a8d8 87bd 09ee bcbb 7afb 363d
000002f0: 52b0 493d ccac 1b3d 781c 423e 266b 283d
00000300: ecaf c8bc 4d82 9abd 1e1d c33d 6d8a 85bd
00000310: 21ca f73d 68cd 8cbd ce90 e93d dae7 16bb
00000320: f9c8 963d d1a7 0abc 545d aabd 0a42 9b3d
00000330: 1e9e c23c 15b5 31bc a1d7 d93b 6983 363b
00000340: b52c b53d 34ee 66bd 40ea 503f 8221 d83c
00000350: 9888 993d 25bd afbc 3acc f0bb 80fc c93c
00000360: 6751 793e 22be 14bf 9fbe 863d 2c1e 9ebc
00000370: e72a 09bd 2da2 2f3e 889a 943d c59a 6f3c
00000380: 216c 723d 7282 cfbd 8b7f f8bc 6d0b 82bd
00000390: 4744 84bd 91de 813c 4769 b93d 9ea7 23bf
000003a0: a27d 803d 89c4 c5bc acab 163d 6fe3 18bc
000003b0: bf05 7bbc af2a cc3d fd99 883c b316 e0bb
000003c0: 9514 29be 6224 763d 3d71 89bd 79d0 1cbf
000003d0: 7c0b 6d3d 855c 66bd 5ca9 ecbb aadc 84bd
000003e0: 1729 c83d db5d 55bc 72b8 a7bd b206 3a3d
000003f0: e992 233c 7bf6 83bc 4a81 bebe 7430 7d3d
-0.052790646 0.045447115 0.055360623 -0.1444969 0.09430543 -0.04562877 0.027443206 0.051487196
0.06203614 0.018604718 -0.044439975 0.0075474316 0.032881327 -0.055289015 0.10873463 0.6032292
0.09823035 0.051996578 -0.050306108 0.049911063 0.51768404 -0.025270674 0.023804843 -0.07021834
0.055752225 0.08694292 0.11252712 0.07161737 -0.031544946 -0.05264571 0.056386188 0.004033792
-0.30637485 0.111986935 0.09505321 0.08573838 -0.05746815 0.099763826 0.10664741 -0.06585869
0.110773705 -0.056271113 0.060197268 -0.042903915 0.07087579 0.08747028 0.027149688 0.09813561
0.08829221 -0.05888977 -0.053932853 -0.042335287 -0.0495685 0.08430961 0.00835533 0.28816575
0.001465456 -0.047513902 -0.039555434 -0.03143222 -0.011230046 0.041235413 -0.07807405 0.039834227
0.047093652 0.08271304 0.08616803 0.12952337 0.029987117 -0.076291844 0.06950694 -0.029496375
0.08382806 0.04981102 -0.027258126 -0.007922328 -0.020108659 0.018232815 -0.025507312 0.054712676
0.024711367 0.33205625 -0.2824023 0.05830378 0.096110694 0.12193003 -0.06890265 -0.063803494
-0.0141573055 0.748768 0.005495738 0.02701464 0.03256237 -0.24959911 -0.07800332 0.043347243
-0.19059458 0.090552285 0.08881754 0.101658165 0.106914066 -0.07259778 0.0991951 0.02741835
0.15135212 0.0993358 -0.056921396 0.027364109 0.045534562 0.11653204 -0.014621316 0.0043533836
-0.034279443 -0.06860894 -0.04686308 0.31395224 -0.005715111 -0.07201702 -0.07213452 -0.01839717
0.06996658 0.11423491 -0.06515394 -0.059353117 0.020084752 -0.07125386 0.332118 -0.07330028
0.056463484 -0.009958103 -0.27883843 0.42397076 0.032840382 -0.0634102 0.041124552 -0.01388063
0.06520949 -0.25806746 0.10430848 0.0133747 0.0064806486 0.016846903 -0.021723613 -0.6762041
0.078332774 -0.03720665 0.038999546 0.009571045 -0.32206678 0.067593716 -0.18049067 0.068036765
0.06445571 0.0348047 -0.06388345 0.06585935 0.12074028 0.07096956 -0.07188418 0.049522314
0.055507664 -0.0875532 -0.007538091 0.066312864 0.00046991702 0.031089665 -0.01102414 -0.08809969
0.00026576998 0.054459505 -0.06466561 -0.026303587 -0.015822435 -0.12016733 0.024171777 -0.072368875
0.08154582 0.02333335 -0.09508214 0.025978161 0.047158763 0.075903796 0.0028483272 -0.8955975
-0.038262974 -0.06633121 -0.0057656807 0.04467342 0.049240418 0.03800659 0.18956172 0.04111781
-0.024497949 -0.07544384 0.09527038 -0.06520543 0.120991 -0.06875116 0.114045724 -0.0023026378
0.07362551 -0.008462862 -0.08318582 0.07580955 0.023757037 -0.010846396 0.0066480194 0.0027849323
0.08846418 -0.056379512 0.8160744 0.026383165 0.07496756 -0.021452496 -0.0073485645 0.024656534
0.24347459 -0.5810262 0.06579327 -0.019301496 -0.03348818 0.17151709 0.07256037 0.014624302
0.05918515 -0.10132302 -0.030334255 -0.063498355 -0.06458335 0.015853198 0.09053283 -0.6392764
0.062739626 -0.024141567 0.036784813 -0.009331568 -0.015321194 0.09969079 0.01667499 -0.0068386435
-0.16511758 0.06009329 -0.067110516 -0.61255604 0.05787228 -0.056240577 -0.0072223376 -0.06487401
0.09773462 -0.013022865 -0.08189477 0.04541654 0.009983757 -0.016108742 -0.37208015 0.061813787

layers.2.bias f4 [5]
00000000: bde5 bd3d 04d9 b0bd a157 e5bc 9576 25bd
00000010: deb9 233d
0.09272335 -0.086351424 -0.027995886 -0.04039629 0.03997218
