scripts/tiny_heads/pe.pt (torch, 168808 bytes, 4 tensors)

layers.0.weight f4 [128, 320]
-0.006896253 -0.04271145 -0.021010946 0.05730922 -0.014075287 0.013164117 -0.01178323 -0.011365715
0.013710527 0.05382505 -0.032475542 0.018503295 0.028344877 0.03613283 -0.01005983 -0.008836375
0.04244768 -0.044449393 0.006681759 0.0011643205 0.05139418 -0.01801685 0.050080433 0.008474195
0.029361067 -0.03186663 0.014330607 0.05175542 -0.01716126 -0.05065061 0.013265893 0.023160756
-0.0028089522 -0.025398917 0.027137034 -0.0005693269 -0.0032240269 -0.028286984 -0.013999266 0.0041542705
0.025081927 -0.009509195 -0.0022508365 0.003927644 -0.037239544 0.057092123 -0.034748554 0.06491572
0.0063624904 -0.041888323 -0.00357592 -0.034155313 0.009638702 0.034286782 -0.022892555 0.03168248
0.01667246 0.04647783 0.060889482 0.03475153 -0.019772148 0.021590559 0.017993053 0.030509138
0.02005396 -0.029135918 0.023271479 -0.033542443 -0.014114597 0.006464304 -0.015495939 -0.02389626
-0.022722218 -0.043696746 -0.053688277 -0.03860354 0.039778516 0.054544445 -0.022858962 -3.184982e-05
0.015756486 0.032234907 -0.035806373 -0.019761417 -0.015800536 0.011274382 0.02380758 -0.025983244
-0.051637076 0.012541245 0.03566088 0.042221162 0.012595944 0.0041376185 -0.04919523 0.007913772
0.0049958774 -0.000503115 -0.01643073 -0.026865251 0.05179061 0.044201296 0.059748024 0.000997653
-0.014432469 0.046698056 -0.04411759 -0.04332899 0.0068514626 0.04388175 0.013635371 -0.023242498
-0.008299891 0.061585676 -0.02480097 0.033307657 0.06211105 0.013916833 -0.030195907 0.03627973
-0.046109788 -0.011338883 -0.055830408 -0.04176732 0.03302017 -0.043893415 -0.024246313 0.041467283
0.017642817 -0.022600325 -0.05260895 -0.020706063 0.04296293 -0.0044310098 0.054518975 -0.05336138
0.010441967 0.06266254 -0.009513592 0.040420648 0.04314332 -0.0029779407 0.037279543 0.052724686
-0.0644807 0.0040115044 0.018599736 0.0069914116 0.024115793 -0.022608327 0.017737942 -0.038064618
0.019673126 0.015617384 0.016134292 0.034458194 -0.033802375 0.0318815 0.03153729 -0.033066057
-0.003690079 -0.032034032 -0.020260159 0.022182524 0.026249945 0.0036795475 0.008974908 0.037882004
0.018422369 -0.03121648 -0.04290118 -0.0441484 -0.04347578 0.0629528 -0.038596008 -0.012819748
-0.060718648 0.00816968 0.0042429296 0.03433242 0.023870436 -0.046915308 -0.05089864 0.035039455
0.032671638 -0.041290097 -0.040911905 0.06327192 -0.04935674 0.033804126 0.038348507 -0.036954217
-0.042899244 -0.007682361 -0.031583454 -0.05182848 -0.011937474 0.026516467 -0.03459828 0.0027768952
0.06472461 0.049437698 -0.0564734 -0.04492577 0.013369238 0.029088398 -0.015875397 -0.008711988
0.0119139785 -0.020731224 -0.049872402 0.032501906 -0.022468304 0.0010302472 0.036439564 -0.00027786643
-0.047015384 0.021234313 -0.005594826 0.017029684 0.0028645287 -0.033085115 0.030191164 0.05187428
0.037667464 0.04160337 0.003533542 -0.015582643 -0.014188622 0.007525161 -0.031794716 -0.013152259
0.053068265 0.023839958 -0.011435407 -0.0065402333 -0.015629988 0.04771851 0.046784513 0.012713307
-0.00606456 -0.018702209 0.049427047 -0.01702842 -0.06056173 -0.023673704 -0.009135023 0.025752954
0.016287342 -0.0012903429 0.037260022 -0.004916226 -0.020318253 0.018180113 -0.04456899 0.00965187
00000000: f7f9 e1bb 34f2 2ebd 261f acbc 13bd 6a3d
00000010: 089c 66bc 4fae 573c 730e 41bc 4437 3abc
00000020: 1ea2 603c a877 5c3d 1305 05bd 3994 973c
00000030: 8433 e83c 0500 143d fcd1 24bc 71c6 10bc
00000040: 9edd 2d3d 9110 36bd a8f2 da3b 1d9c 983a
00000050: b482 523d 1398 93bc 2421 4d3d 5ad7 0a3c
00000060: 9f86 f03c 9586 02bd ecca 6a3c 7efd 533d
00000070: c595 8cbc 0477 4fbd 3059 593c a0bb bd3c
00000080: 6616 38bb 6411 d0bc 7c4e de3c e23e 15ba
00000090: 324a 53bb 1bba e7bc 2d5d 65bc 8c20 883b
000000a0: 9d78 cd3c 74cc 1bbc c582 13bb 77b3 803b
000000b0: 7e88 18bd 6ed9 693d 8054 0ebd 88f2 843d
000000c0: 707c d03b 1793 2bbd fb59 6abb 71e6 0bbd
000000d0: a5eb 1d3c 4c70 0c3d 2b89 bbbc 7dc5 013d
000000e0: af94 883c 895f 3e3d 4067 793d 9f57 0e3d
000000f0: 33f9 a1bc afde b03c 2b66 933c 4dee f93c
00000100: 3448 a43c 73ae eebc d4a3 be3c cd63 09bd
00000110: e940 67bc 83d2 d33b aee2 7dbc 17c2 c3bc
00000120: f223 babc 5cfb 32bd 3de8 5bbd bf1e 1ebd
00000130: ccee 223d ff69 5f3d b842 bbbc 7c96 05b8
00000140: bf13 813c c008 043d b4a9 12bd b2e2 a1bc
00000150: 2070 81bc 2fb8 383c 1d08 c33c d0da d4bc
00000160: 6681 53bd cb79 4d3c 2511 123d 19f0 2c3d
00000170: 385f 4e3c dc94 873b f080 49bd c4a8 013c
00000180: 75b4 a33b 7ae3 03ba bd99 86bc 8414 dcbc
00000190: 6422 543d 6b0c 353d 58ba 743d aec3 823a
000001a0: 2a76 6cbc 7646 3f3d a5b4 34bd bd79 31bd
000001b0: 3c82 e03b 5abd 333d e466 5f3c 0d67 bebc
000001c0: 44fc 07bc 4341 7c3d 672b cbbc 9c6d 083d
000001d0: 2868 7e3d 6e03 643c 685d f7bc 0e9a 143d
000001e0: 9edd 3cbd b9c6 39bc 6dae 64bd 3614 2bbd
000001f0: 2840 073d 95c9 33bd 34a0 c6bc 99d9 293d
00000200: ab87 903c 5124 b9bc 7b7c 57bd c39f a9bc
00000210: e6f9 2f3d 0132 91bb 4a4f 5f3d 7691 5abd
00000220: c914 2b3c 3855 803d e6de 1bbc 1f90 253d
00000230: 0db7 303d 8e29 43bb 6fb2 183d d7f5 573d
00000240: 750e 84bd f072 833b 795e 983c 3618 e53b
00000250: 7c8e c53c 1935 b9bc 294f 913c a5e9 1bbd
00000260: 8929 a13c 0ee0 7f3c 102c 843c 0924 0d3d
00000270: 5c74 0abd 2d96 023d 3f2d 013d 4670 07bd
00000280: 41d5 71bb 1e36 03bd a2f8 a5bc 20b8 b53c
00000290: 200a d73c 9024 713b 7e0b 133c 292a 1b3d
000002a0: 82ea 963c b4b9 ffbc 26b9 2fbd f4d4 34bd
000002b0: a913 32bd 66ed 803d d916 1ebd ec09 52bc
000002c0: 1eb4 78bd 1fda 053c 4608 8b3b 27a0 0c3d
000002d0: ef8b c33c 442a 40bd 187b 50bd 8885 0f3d
000002e0: b2d2 053d ce1f 29bd 3e93 27bd b594 813d
000002f0: 4b2a 4abd 3276 0a3d 5313 1d3d 4e5d 17bd
00000300: 1eb7 2fbd 51bc fbbb a75d 01bd 1a4a 54bd
00000310: 6595 43bc 1039 d93c edb6 0dbd 92fc 353b
00000320: 568e 843d 2f7f 4a3d a750 67bd 1604 38bd
00000330: a60a 5b3c cb4a ee3c 1f0d 82bc babc 0ebc
00000340: d932 433c 87d4 a9bc 0147 4cbd b820 053d
00000350: 730f b8bc 5c09 873a a741 153d 9aae 91b9
00000360: 3493 40bd 95f3 ad3c cd54 b7bb d681 8b3c
00000370: d1ba 3b3b 4284 07bd 7653 f73c 207a 543d
00000380: 3349 1a3d 4c68 2a3d ff92 673b 584e 7fbc
00000390: 6577 68bc a095 f63b 2d3b 02bd 937c 57bc
000003a0: 1c5e 593d 044c c33c 935b 3bbc 744f d6bb
000003b0: 760a 80bc 7c74 433d 1ea1 3f3d 794b 503c
000003c0: 37b9 c6bb 6035 99bc 0474 4a3d 2f7f 8bbc
000003d0: 940f 78bd 5bef c1bc 10ab 15bc dcf7 d23c
000003e0: 086d 853c b920 a9ba f79d 183d 4b18 a1bb
000003f0: 7772 a6bc 76ee 943c f98d 36bd e022 1e3c

layers.0.bias f4 [128]
0.0017484754 -0.017972039 -0.030888617 -0.03784987 0.06360958 -0.06145559 0.054514423 0.014407434
-0.0030351458 0.03091449 -0.015614413 -0.037380718 -0.033887915 -0.009008908 0.041141156 -0.019677022
0.028975941 -0.026056308 -0.014734755 -0.022077348 0.06361372 0.016806504 0.018519681 -0.034250252
-0.05179358 -0.040250644 -0.016523438 0.0074974126 -0.033700854 0.00490868 0.013645277 -0.026168743
0.0013549079 -0.03515463 0.031715013 -0.004110951 0.0049330313 0.039383 -0.005151143 0.041224476
0.0037312743 -0.03158226 0.024921184 -0.008634087 0.0011407299 -0.0068129473 -0.013393584 0.027350148
0.030405328 0.05640486 0.021592215 0.05995454 -0.003511934 0.019115787 -0.01594761 0.04931397
-0.0013375026 0.055783246 -0.050849315 -0.034611788 -0.03566026 -0.0019181158 0.033118352 -0.03478677
-0.04268287 0.041508377 -0.038464017 0.03389839 0.04349297 -0.033469006 -0.038731523 -0.012527874
0.034406487 0.033040594 -0.005004467 -0.037368763 0.06214285 0.056299806 0.01111785 -0.052338254
-0.0007625646 -0.039694604 -0.047052078 0.027320873 0.06380003 0.053598545 0.0018247619 -0.01195672
0.013736987 -0.060892463 -0.05268885 0.06315301 -0.006882654 -0.016250463 0.024694815 -0.029543865
0.051477667 0.045267656 -0.03251224 0.046354868 0.02067718 0.022654098 -0.016830724 -0.04270227
-0.044924203 0.044961415 0.011858758 0.025791291 -0.00010067463 0.03201353 -0.04396715 0.037033938
-0.035643987 -0.01762134 0.04320572 -0.03813615 0.020549592 -0.0053368397 0.019087477 0.0036837081
0.008990644 -0.038309094 -0.01717829 -0.0110723935 -0.0461961 -0.041039087 -0.06260337 0.018322324
00000000: 192d e53a 193a 93bc 200a fdbc 7708 1bbd
00000010: bd45 823d dbb8 7bbd 844a 5f3d 280d 6c3c
00000020: 4ce9 46bb 6240 fd3c 98d3 7fbc 861c 19bd
00000030: 0ece 0abd 199a 13bc a183 283d b531 a1bc
00000040: f45e ed3c 0a74 d5bc 0b6a 71bc 8edb b4bc
00000050: e947 823d cbad 893c 96b6 973c fe49 0cbd
00000060: 8125 54bd dcdd 24bd 295c 87bc dbac f53b
00000070: e809 0abd fed8 a03b 7190 5f3c d55f d6bc
00000080: 2a97 b13a 4dfe 0fbd 9ae7 013d 28b5 86bb
00000090: 44a5 a13b 1250 213d ebca a8bb ffda 283d
000000a0: 6588 743b 665c 01bd 8327 cc3c fc75 0dbc
000000b0: 8b84 953a 253f dfbb c370 5bbc 6b0d e03c
000000c0: 9814 f93c c808 673d 28e2 b03c e492 753d
000000d0: 7a28 66bb b698 9c3c 90a4 82bc 72fd 493d
000000e0: 244f afba f97c 643d 5f47 50bd 17c5 0dbd
000000f0: 7e10 12bd 4969 fbba 1ca7 073d 927c 0ebd
00000100: 3cd4 2ebd b004 2a3d 728c 1dbd 0ad9 0a3d
00000110: af25 323d cc16 09bd f2a4 1ebd b641 4dbc
00000120: d1ed 0c3d 9355 073d 83fc a3bb fd0f 19bd
00000130: 8089 7e3d a09a 663d a527 363c a360 56bd
00000140: d8e6 47ba cf96 22bd aeb9 40bd 06d0 df3c
00000150: 97a9 823d 268a 5b3d d92c ef3a 1ee6 43bc
00000160: 1911 613c 606a 79bd 43d0 57bd 5e56 813d
00000170: e387 e1bb b11f 85bc c84c ca3c fa05 f2bc
00000180: 3fda 523d 946a 393d 8e2b 05bd 9ade 3d3d
00000190: 3063 a93c 1695 b93c 96e0 89bc 93e8 2ebd
000001a0: 7102 38bd 7629 383d 3c4b 423c 4248 d33c
000001b0: 4821 d3b8 9f20 033d e616 34bd e6b0 173d
000001c0: 6eff 11bd a15a 90bc 7bf8 303d a734 1cbd
000001d0: 9e57 a83c a8e0 aebb 575d 9c3c 5e6a 713b
000001e0: 7e4d 133c ffe9 1cbd 7cb9 8cbc fc68 35bc
000001f0: 1f38 3dbd 9a18 28bd 3236 80bd b318 963c

layers.2.weight f4 [5, 128]
0.04009805 0.063519396 0.04790056 -0.03241247 0.048928276 0.003143848 0.01521107 0.010439636
-0.042472966 -0.0465085 0.0071616136 0.034829043 0.05135128 -0.019099453 0.046437073 0.008574342
0.02365441 -0.00070903514 0.031934626 0.039988127 -0.007727389 -0.01232778 0.052068565 0.02389118
-0.021904623 0.02879646 0.08426596 -0.049000192 0.09292749 0.05575965 0.035711274 -0.080132335
0.040040642 0.08081059 -0.022549562 0.01045288 0.055130903 -0.03915222 -0.0540819 0.010156762
-0.044701274 -0.050971746 -0.0022338298 -0.062473934 -0.02585619 0.07262911 0.012827401 -0.03792187
-0.05747115 0.05356047 -0.033053696 0.08013887 -0.017049557 0.055581257 -0.048008192 0.073656276
-0.030948741 0.070842706 -0.012267852 0.06906579 0.022143198 0.07419113 0.020504352 -0.02604029
-0.06948478 -0.022794476 -0.03819545 -0.056069866 -0.017229067 -0.059501246 0.04040683 0.024830515
-0.0015396796 0.0776182 -0.0147696575 0.029259032 0.09400515 -0.020207036 -0.07955712 -0.016925637
-0.058730684 0.026954295 -0.024706822 -0.046067234 0.06566378 0.013196697 0.028064385 0.09379716
0.06333006 -0.01872402 -0.052031774 0.05810803 -0.037946213 0.06909325 -0.0107857315 0.020430837
0.08166412 -0.05991746 -0.01585081 0.0952534 0.017880242 0.052047595 -0.051415406 0.018564291
0.0117438445 -0.05009447 0.036169928 -0.07103235 0.05314472 0.025849588 0.09560075 0.08498247
-0.053784776 -0.032171562 -0.0791018 0.035740167 0.09707841 -0.03198904 0.015692135 -0.06695118
-0.050393026 0.09344658 0.057850353 0.060480535 0.02868502 0.035109393 -0.06239239 0.07823961
-0.054004196 0.05300598 0.017332722 0.050928567 -0.007207603 0.06784876 -0.053785972 -0.04608438
-0.07205238 0.024149042 0.022120083 0.023616845 0.08987853 0.059669174 -0.033258386 -0.017998615
-0.054296136 0.055379175 0.06731473 -0.096018344 -0.04005211 -0.020860242 -0.0072335405 -0.06528376
-0.02518427 0.06262333 -0.057062604 -0.026235389 -0.05646731 0.06282464 -0.02037846 0.049711157
0.03680225 0.070255816 -0.06834763 0.0121800965 0.05530444 0.07805137 0.07951792 0.030007139
0.08995056 0.023600424 0.018395329 0.050526503 -0.07773859 0.009950168 -0.085822135 -0.00010193192
0.003906438 -0.054511692 -0.027888594 -0.031172879 -0.027062548 0.06306465 0.07609566 0.05359521
-0.08076014 -0.03892109 0.06506008 0.07051654 -0.0027250862 0.07127255 0.055229012 0.014595827
0.06890397 -0.05563703 0.033262245 -0.07299715 0.062011126 -0.07977238 -0.048234623 -0.0055071693
0.0322438 0.065969884 -0.04965969 -0.009110027 0.029876594 -0.029481702 0.01642938 -0.059983604
0.06503077 -0.05785001 0.017526517 0.04121623 -0.09027568 0.07441862 -0.05531329 -0.059417106
0.032067854 0.016419495 0.066975094 -0.015151236 0.029511621 -0.07449847 0.049781572 0.009004299
-0.025298357 0.01877213 -0.074398905 -0.03627852 0.030081484 0.03362553 0.015987396 -0.08302377
-0.021624258 -0.08333562 0.0150069585 -0.06043738 0.07318058 -0.014047441 0.056893878 -0.052553605
0.043207098 0.07931942 -0.0057593035 -0.08092862 -0.095649555 0.04624148 -0.013084427 0.020971302
-0.06428421 0.054290757 0.095010094 0.0300629 0.060071528 0.045192905 0.060248125 -0.083913945
00000000: da3d 243d 7516 823d 6133 443d f0c2 04bd
00000010: 0469 483d 0409 4e3b da37 793c 020b 2b3c
00000020: 22f8 2dbd b27f 3ebd f8ab ea3b e6a8 0e3d
00000030: b855 523d 7576 9cbc cd34 3e3d 667b 0c3c
00000040: e5c6 c13c 8bde 39ba e2cd 023d 97ca 233d
00000050: 0a36 fdbb 75fa 49bc d945 553d 70b7 c33c
00000060: 5371 b3bc 8ee6 eb3c a293 ac3d 6db4 48bd
00000070: c550 be3d 3b64 643d fc45 123d 6c1c a4bd
00000080: a801 243d 0680 a53d dcb9 b8bc 8e42 2b3c
00000090: f1d0 613d 145e 20bd fb84 5dbd 8c68 263c
000000a0: af18 37bd c0c7 50bd 7265 12bb abe4 7fbd
000000b0: 5cd0 d3bc 92be 943d 052a 523c f653 1bbd
000000c0: de66 6bbd 3962 5b3d 5063 07bd d91f a43d
000000d0: 83ab 8bbc 2ca9 633d 3da4 44bd 1ad9 963d
000000e0: 3788 fdbc fb15 913d 1aff 48bc 5d72 8d3d
000000f0: a765 b53c 85f1 973d bef8 a73c 7252 d5bc
00000100: 094e 8ebd 7bbb babc d572 1cbd 84a9 65bd
00000110: f923 8dbc 94b7 73bd a281 253d 5d69 cb3c
00000120: 13cf c9ba 4af6 9e3d 6ffc 71bc a3b0 ef3c
00000130: c685 c03d 3a89 a5bc d8ee a2bd a2a7 8abc
00000140: 968f 70bd 41cf dc3c f665 cabc ffb0 3cbd
00000150: bb7a 863d f636 583c 48e7 e53c ba18 c03d
00000160: 31b3 813d 1e63 99bc 451f 55bd b002 6e3d
00000170: 7d6d 1bbd c380 8d3d a3b6 30bc 925e a73c
00000180: 853f a73d 036c 75bd 8fd9 81bc 3714 c33d
00000190: 9679 923c dc2f 553d f698 52bd 2414 983c
000001a0: 4169 403c dc2f 4dbd eb26 143d 6979 91bd
000001b0: 47ae 593d 84c2 d33c 53ca c33d 4a0b ae3d
000001c0: 6d4d 5cbd 54c6 03bd 2000 a2bd 4864 123d
000001d0: 0cd1 c63d f106 03bd cb8c 803c b31d 89bd
000001e0: eb68 4ebd ec60 bf3d 7ef4 6c3d 70ba 773d
000001f0: d9fc ea3c dece 0f3d 2a8f 7fbd 173c a03d
00000200: 8133 5dbd cc1c 593d 5afd 8d3c 799a 503d
00000210: c22d ecbb 4af4 8a3d ae4e 5cbd fac2 3cbd
00000220: 3390 93bd 36d4 c53c 2d35 b53c 1d78 c13c
00000230: 3c12 b83d aa67 743d f239 08bd d571 93bc
00000240: a065 5ebd 46d5 623d 4edc 893d 44a5 c4bd
00000250: ae0d 24bd 19e3 aabc 5607 edbb 7eb3 85bd
00000260: 3e4f cebc a940 803d 7aba 69bd 99eb d6bc
00000270: 444a 67bd 34aa 803d baf0 a6bc ed9d 4b3d
00000280: f5bd 163d 48e2 8f3d d8f9 8bbd 078f 473c
00000290: e986 623d 66d9 9f3d 4bda a23d 88d1 f53c
000002a0: 0038 b83d ad55 c13c cdb1 963c e1f4 4e3d
000002b0: 6935 9fbd 0806 233c 84c3 afbd 48c4 d5b8
000002c0: 9401 803b a747 5fbd 9f76 e4bc 445e ffbc
000002d0: 47b2 ddbc 0a28 813d 0bd8 9b3d a786 5b3d
000002e0: 9365 a5bd b96b 1fbd 383e 853d fa6a 903d
000002f0: 5c97 32bb 58f7 913d d137 623d 5623 6f3c
00000300: 861d 8d3d a8e3 63bd fe3d 083d 887f 95bd
00000310: 61ff 7d3d b45f a3bd ab91 45bd 7c75 b4bb
00000320: 1312 043d 381b 873d f667 4bbd 3942 15bc
00000330: c2bf f43c 9c83 f1bc e896 863c 5eb1 75bd
00000340: da2e 853d 22f4 6cbd c593 8f3c 59d2 283d
00000350: 75e2 b8bd ca68 983d 3090 62bd 5a5f 73bd
00000360: 9559 033d 2d82 863c 3d2a 893d e43c 78bc
00000370: 5bc2 f13c a792 98bd c3e7 4b3d c486 133c
00000380: 803e cfbc 03c8 993c 745e 98bd c998 14bd
00000390: 726d f63c ecba 093d 00f8 823c 5e08 aabd
000003a0: 5b25 b1bc deab aabd bfdf 753c 308d 77bd
000003b0: b3df 953d 3d27 66bc 8e09 693d 7342 57bd
000003c0: edf9 303d 3872 a23d 8ab8 bcbb e8bd a5bd
000003d0: eae3 c3bd b567 3d3d 1160 56bc 02cc ab3c
000003e0: 71a7 83bd fc5f 5e3d a794 c23d 7946 f63c
000003f0: 900d 763d 321c 393d bdc6 763d 13db abbd

layers.2.bias f4 [5]
-0.05457158 0.021423424 0.052601963 -0.0776159 -0.026886575
00000000: 7386 5fbd 2d80 af3c 2875 573d 16f5 9ebd
00000010: 3c41 dcbc
