scripts/tiny_heads/ptm.pt (torch, 166768 bytes, 3 tensors)

layers.0.weight f4 [128, 320]
000000 41 ca 2d 3c 98 c2 2f bd 12 82 ca bc 4c 45 9b bc
       0.010607303 -0.04291019 -0.024720225 -0.018953942
000010 26 7a 02 bd af 4d 04 3b 47 aa 09 3c 6f 41 2b bd
       -0.03185477 0.0020187905 0.008402414 -0.04181045
000020 9b 4a be bb 59 ea d4 3c 80 6e 8c bc 5d 25 55 bb
       -0.0058072335 0.025990652 -0.017142534 -0.003252349
000030 63 44 25 bc 79 9f 60 bd 27 b4 86 bc 02 5d 93 3a
       -0.010087105 -0.054839585 -0.016443325 0.0011242928
000040 fa f1 1e 3d 21 cc 16 3d 54 2d 1b bc af 8e 46 ba
       0.038804986 0.036815766 -0.009471256 -0.0007574362
000050 fe 20 ba bc 2f ae be bc fb 22 16 bd f3 c8 4d 3d
       -0.02272081 -0.023276417 -0.036654454 0.05024047
000060 9b 55 ff 3c a6 95 f2 bc 05 65 52 bc df 2a 1d bd
       0.03116875 -0.029612374 -0.012841468 -0.038370963
000070 ad f4 ca bc 1e 8f 9b bc e2 e9 8d bc 28 e4 1f 3d
       -0.024774874 -0.018989142 -0.017323438 0.039035946
000080 7a 2b d0 bc dc cf 54 3d 2c 75 62 bd 5f 28 71 bc
       -0.025411356 0.051956043 -0.055287525 -0.014719098
000090 53 41 d0 bc d9 01 04 bd 10 21 f1 bc 11 77 1f bd
       -0.025421774 -0.032228325 -0.02943471 -0.03893191
0000a0 24 a9 cc bb 4b a4 d4 bc 1a d7 2e 3d 0e 51 63 3c
       -0.006245749 -0.025957247 0.042685606 0.013874305
0000b0 6a e8 d3 bc 2e c7 ce bc d4 c3 31 3d 34 25 15 3c
       -0.02586766 -0.02524146 0.043399647 0.009103108
0000c0 d4 4e fb bc 3d 2c 6c 3d 1e b0 42 3d 32 18 30 bd
       -0.030677237 0.057659376 0.04753124 -0.042991824
0000d0 52 61 b2 3b ed 5a 4e bc 3a a7 23 bd c9 c1 6e bb
       0.0054437304 -0.012594921 -0.0399544 -0.0036431423
0000e0 fa 30 20 3d 7e a3 1e 3d ec c0 f7 3c b5 bf 39 3d
       0.039109208 0.038730137 0.03024336 0.04534884
0000f0 e0 70 7a 3d c4 9d d6 3b 71 af 03 bd a1 ec 20 bd
       0.061142802 0.006549569 -0.032149736 -0.039288167
000100 4e 95 f4 bc d5 44 56 3d 7b ea f8 3c f5 73 2f bd
       -0.02985635 0.052311737 0.030385247 -0.042835195
000110 5c 23 67 3d c0 d9 8a bb 5e 63 de 3c 4c 26 f2 bc
       0.056430206 -0.0042373836 0.027146991 -0.029559277
000120 94 c1 70 bc 64 8f 35 3d 14 19 f4 3c 75 e8 8c bc
       -0.01469459 0.0443262 0.029797114 -0.017200688
000130 6a e3 9b bc 22 8e f4 bc dd 08 30 3c 2a da 11 3c
       -0.019029338 -0.02985293 0.010744301 0.008902112
000140 87 9b 11 bd 3e 74 30 bd 25 0d 57 bd 58 d4 8c bc
       -0.035548713 -0.043079607 -0.05250277 -0.017191097
000150 7a 80 0d bc 4f b6 1c bd 85 5f 4b bd 98 64 60 3d
       -0.008636588 -0.0382598 -0.04965164 0.054783434
000160 bf 36 94 bc 77 f2 1b 3d 4d b8 ee bc d7 e8 cc bc
       -0.018092511 0.03807303 -0.029140616 -0.02501337
000170 08 6d 06 3d ee d5 fd 3c 2e a8 12 bd 78 38 8e 3c
       0.032818824 0.030985799 -0.03580492 0.01736091
000180 86 41 40 bd 29 0e c8 3c 18 40 64 bd d4 94 d3 3c
       -0.046937488 0.024420815 -0.055725187 0.025827803
000190 dc 7d 0c 3d 3c 46 81 3c 81 f2 54 3d 1c 02 41 bd
       0.034299716 0.01578056 0.051989082 -0.047121152
0001a0 a6 6e 01 bd 1c a0 bb 3c 3b 31 d2 bc 03 3c 48 3d
       -0.031599663 0.022903495 -0.02565824 0.048885357
0001b0 22 dc cf bc 8c b7 35 bd 0d db d9 3c fb de 4b 3d
       -0.025373522 -0.044364497 0.02659371 0.049773198
0001c0 32 8b 71 bd d4 85 e9 3c c0 85 42 bd c0 f7 61 3c
       -0.058970638 0.028506197 -0.047490835 0.013791978
0001d0 b9 fa e5 bb bc 9b da 3c 9f c2 15 3d a7 d1 79 bd
       -0.007018414 0.026685588 0.03656256 -0.060990956
0001e0 b8 7c eb 3a 32 cc 3a bd 76 4a e0 bc d2 32 3b 3d
       0.0017966246 -0.045604892 -0.027379256 0.045702763
0001f0 16 24 35 bc b1 67 65 3d e7 21 33 3d 16 a2 1c bd
       -0.011055967 0.05600709 0.043733504 -0.038240515
000200 9a c2 f3 bc 8c a5 08 bd 2d 9c fb 3c 35 9b 74 3d
       -0.02975588 -0.033361003 0.030714119 0.05971833
000210 bd f9 df 3c 1e fc 47 bb 61 2f 69 bd 91 40 e5 bc
       0.027340764 -0.0030515264 -0.05692995 -0.02798489
000220 b3 45 2b bc 15 24 15 bd d8 0e 87 b8 0b c6 b1 bc
       -0.010453629 -0.036411364 -6.4400665e-05 -0.02170088
000230 b9 82 4d bd 89 8d 0e 3b 1c a2 76 bc ef 2f 29 3c
       -0.050173495 0.0021751842 -0.015053298 0.01032637
000240 48 c5 3d bd 6b d1 aa 3b d9 3d 3c bd ef 64 eb bc
       -0.04633072 0.005212953 -0.04595742 -0.028734652
000250 e3 d2 26 bc f9 6b 37 3c 99 22 9c bc 12 bd 82 bc
       -0.010182115 0.011195176 -0.019059466 -0.015959296
000260 e3 ba bb 3c 34 f1 41 3c fe c0 49 bc d5 ba c0 3c
       0.022916263 0.011837292 -0.012314079 0.023526588
000270 b7 66 d4 3c 8d 8d 3c bd 64 29 38 bd bd 4d 65 3c
       0.025927885 -0.04603343 -0.04496135 0.013995585
000280 48 d0 05 bd ad 35 70 3d d6 37 c8 3c 2e 0d 98 3c
       -0.032669336 0.05864494 0.024440687 0.018560972
000290 2e 6a 74 bc 95 f0 05 bd 13 be 02 3d 5a a5 1b bd
       -0.014917893 -0.03270014 0.03191955 -0.03799949
0002a0 f2 c9 15 bc b8 b5 33 3d 01 47 e5 3b 27 bc 45 3d
       -0.009142386 0.043874472 0.0069969897 0.04827514
0002b0 44 57 02 3d 45 23 54 bd cc 91 1f bc b1 d1 27 bd
       0.031821504 -0.05179145 -0.0097393505 -0.04097146
0002c0 2a c6 0c bc 78 6f 0e 3d e1 e1 24 bd 74 be 4e 3c
       -0.008592168 0.034774274 -0.040254477 0.01261865
0002d0 15 89 d5 3c 3f 29 9e bc 0e 1a d3 ba 06 f5 41 bc
       0.026066342 -0.019306777 -0.0016105787 -0.011838203
0002e0 6a ab fa 3c 5f 2d f0 bc 8c 1f 39 bd 88 e0 54 bd
       0.030599315 -0.02931851 -0.0451961 -0.051971942
0002f0 cb 43 23 3b 38 53 91 3c f9 8b d9 bc c9 55 1d bc
       0.0024912234 0.017739877 -0.026556002 -0.009602972
000300 52 44 34 bd 55 d0 48 3d 15 24 1f 3d 2f f8 b0 3c
       -0.044010468 0.049026806 0.03885277 0.021602718
000310 dd 46 c0 bc 50 37 49 bd be 00 35 bc 48 6b 49 3d
       -0.02347129 -0.049125016 -0.01104754 0.049174577
000320 f3 06 46 3d 21 04 3d 3d 44 31 f0 3c f5 10 52 bc
       0.04834647 0.046146516 0.029320367 -0.012821426
000330 56 ed 93 bc 18 d8 d1 3c 76 d5 35 3d 7e 25 e6 3b
       -0.018057507 0.025615737 0.044393025 0.0070235124
000340 ea a1 85 3b de f2 3c 3d aa 38 76 bb ac ff 9f 3c
       0.0040781396 0.046130054 -0.0037570396 0.019531094
000350 55 f4 c1 3c 2c dd 4a 3d e0 84 b5 3c 32 3b ac 3b
       0.023676077 0.049527332 0.022158086 0.00525608
000360 b9 bb df 3c 33 4a 56 3c 0a 6e 0a 3d bf a5 03 bd
       0.027311193 0.013079214 0.033796348 -0.03214049
000370 f5 91 44 3d be 15 18 3c f9 71 c0 bc dd 01 3d bd
       0.047990758 0.0092825275 -0.023491846 -0.046144355
000380 05 a2 7b bd 95 00 89 3c 75 4d a2 3c b3 15 db bc
       -0.06143381 0.01672391 0.019812325 -0.026743745
000390 67 32 ed 3c 7c ad b6 b9 1a 7f 31 bc 3c 90 39 3d
       0.028954698 -0.00034843 -0.010833526 0.04530357
0003a0 7c 12 11 3d ba 30 24 3d c7 00 a7 3c 80 94 92 bc
       0.03541802 0.04008553 0.020386113 -0.017893076
0003b0 95 ef 3e bd 3a 09 9a 3c ed 25 8b 3c c6 db ce 3c
       -0.046615202 0.018803228 0.016985858 0.02525128
0003c0 c8 64 31 3c 4a 7c 0f bc dd ae 2a 3c a7 31 0b 3d
       0.010827251 -0.00875766 0.010417667 0.0339829
0003d0 20 1f 99 bc b1 3a 80 bc 77 7a 14 bd e4 4e 4a 3d
       -0.0186916 -0.015652986 -0.036249604 0.049391642
0003e0 19 94 ae 3c 29 82 44 3d aa f8 a7 3c 78 fe 24 3d
       0.021310853 0.047975693 0.020504314 0.040281743
0003f0 e6 ff 56 3d 46 55 c1 bc 99 0a 3d bd fe 6d 46 3d
       0.052490138 -0.023600232 -0.046152685 0.04844474

layers.0.bias f4 [128]
000000 0f 38 e6 3c 08 94 91 bc 20 c6 3c 3d 3e 79 a8 3b
       0.028102903 -0.017770782 0.046087384 0.0051414063
000010 34 8e 98 bc ad b4 1c bd 14 fc 18 3d b0 3f 43 bd
       -0.018622495 -0.038258243 0.037349775 -0.04766816
000020 92 fa d1 bc 7f 3b 01 bd 6c 02 33 3d c2 b1 39 3d
       -0.025632177 -0.03155088 0.04370348 0.04533554
000030 4b a8 06 bc 49 4e 33 3a c3 c8 19 bc ea 9b 59 bd
       -0.008218835 0.00068399735 -0.009386244 -0.053127207
000040 12 c1 75 bc 56 8f 3e 3d 01 78 57 3d fd d5 34 3d
       -0.014999645 0.046523415 0.05260468 0.044149388
000050 84 a9 14 3d 2c 92 04 3d 2a af 78 3d b0 c4 29 3c
       0.036294475 0.032365963 0.060713924 0.010361835
000060 45 44 82 3c 17 75 19 bc a2 46 59 3d 3c c7 5a bc
       0.015901694 -0.009366295 0.053045876 -0.013353165
000070 c0 21 24 bd be f0 37 bc c4 9d e4 bc d7 a8 14 bd
       -0.04007125 -0.011226831 -0.02790726 -0.03629383
000080 8b 4b 58 bc 5b b1 bb 3b 5c 04 76 bb cd 25 3b bd
       -0.013201605 0.0057279295 -0.003753922 -0.045690347
000090 42 07 72 bd c7 49 76 3d af a3 ef bc 93 d8 eb bc
       -0.059088953 0.060128953 -0.029252855 -0.028789794
0000a0 7c 26 ad bc 13 d3 ad bb e8 93 39 bd 84 8c ae bb
       -0.021136515 -0.005304703 -0.04530707 -0.0053268094
0000b0 c7 81 42 3d f4 a9 eb bc d0 a1 8e 3c 83 53 eb bc
       0.047487047 -0.028767563 0.017411143 -0.028726345
0000c0 ee 24 ce 3c 8d b6 df bc 9c 94 a4 3c 49 b5 85 3c
       0.025164094 -0.027308727 0.020090394 0.016321795
0000d0 09 00 4d bc 17 e9 8a 3c bd 2d e6 bc 95 40 44 3d
       -0.012512215 0.016956849 -0.028097982 0.047913153
0000e0 00 c0 4e 3d 50 22 3b 3d 47 16 8d ba 23 79 1b 3d
       0.050476074 0.04568702 -0.0010764085 0.03795732
0000f0 e9 db 29 bc 90 3d e7 bb 08 80 47 3d a5 17 22 3d
       -0.010367372 -0.0070568994 0.048706084 0.03957333
000100 70 b9 4d bd 88 1e 1d 3c 24 62 1b 3d 6d 05 33 3d
       -0.050225675 0.009589799 0.03793539 0.043706346
000110 34 b6 40 bd 23 f7 ea 3c dd b6 f1 3c cc e7 50 bd
       -0.047048762 0.028682297 0.029506141 -0.05100231
000120 15 70 41 bd 32 dc 87 bc 09 a0 8a bc 60 b7 a3 3c
       -0.04722603 -0.01658449 -0.016922014 0.019984901
000130 8a 16 3d bd a1 12 58 bd f8 80 0f 3a 35 3a 9b 3b
       -0.046164073 -0.05275214 0.0005474235 0.0047371634
000140 ea 0a e3 bc 17 87 ac bc 6a 91 08 3d ab 6f 11 bc
       -0.027715165 -0.02106051 0.033341803 -0.008876721
000150 6a 5d bd bc 8e 46 45 3d 2a df 12 3c 23 eb 60 3d
       -0.023115832 0.04816299 0.008964339 0.054911744
000160 17 f1 4f bd 56 07 2b bd 8a 5c 31 bd 2f 00 ff 3c
       -0.05076703 -0.041755043 -0.043301143 0.031128017
000170 99 8f 38 bd 59 ea 32 3d ae 4c 11 bd dd 32 2b 3d
       -0.04505882 0.043680523 -0.035473518 0.041796554
000180 54 e4 a6 bc 88 ab a0 bb d0 d4 08 bd 91 4a 26 bd
       -0.020372547 -0.0049032606 -0.03340608 -0.040598456
000190 89 22 53 bc 57 d1 24 bc 8c 93 63 3d 63 0a 1b 3c
       -0.012886652 -0.010059676 0.055560634 0.009462926
0001a0 27 03 2a bd 3f 3a ef 3b e8 db 3c bc 94 16 11 bd
       -0.041506913 0.0073006446 -0.011527039 -0.035421923
0001b0 12 bb 4e bd 41 01 57 bd 69 97 20 3d c3 f6 08 bd
       -0.050471373 -0.05249143 0.039206896 -0.033438455
0001c0 ec 73 8a bc ed 51 94 3c 76 44 9e 3c 3e 73 07 3d
       -0.016900979 0.018105472 0.019319754 0.033068888
0001d0 15 d3 4e bd 1d 5e 3d 3d 8a 86 e0 bc 78 a5 8b 39
       -0.050494272 0.04623233 -0.027407903 0.0002663543
0001e0 04 20 79 bc a1 43 27 3d bf 60 37 bd d4 35 4f bd
       -0.015205387 0.04083598 -0.04477 -0.050588444
0001f0 14 b8 e4 bc 4f 26 43 bd a5 5a 14 bd 3c 94 ce 3c
       -0.027919807 -0.047643956 -0.036219258 0.025217168

layers.2.weight f4 [1, 128]
000000 79 46 a0 bd b7 50 15 3c ab 8e f5 ba f1 36 37 3c
       -0.078259416 0.009113482 -0.0018734535 0.011182533
000010 78 c3 a8 3d 7f fc a6 3d 1a 9a e9 bc 7c 66 4e 3c
       0.08240408 0.081536286 -0.028515864 0.012597676
000020 2b 31 bb 3d b7 63 e1 3c 89 92 c0 3d 51 b8 36 3d
       0.091402374 0.027513368 0.09402949 0.04460937
000030 58 e7 61 bd 46 64 f0 3c 8c d5 a7 bc e3 8d d9 bc
       -0.055152267 0.02934469 -0.02048757 -0.026556915
000040 23 37 4b 3d 26 7a 8b bd 67 11 52 3d 13 bb e3 3b
       0.04961313 -0.06810407 0.051286127 0.006949791
000050 40 73 d1 bb 51 45 aa bd d3 db 42 3d 5f 8e 21 3c
       -0.0063919127 -0.08314002 0.047572922 0.009860604
000060 bd 7c 73 bd 3f 74 3c bc ca 76 89 3d 20 04 34 3d
       -0.05944513 -0.011502325 0.0671211 0.043949246
000070 aa f1 80 bd 66 ea 8c 39 1c 76 30 3d 98 7a d9 ba
       -0.06296094 0.0002687752 0.043081388 -0.0016592322
000080 44 31 9f bc fb a6 19 3d 9a ab 81 bb c4 04 2e bd
       -0.019432671 0.03751276 -0.003957224 -0.042485014
000090 73 ca 4a bd 71 0a 2f 3d f4 fb e3 3c e9 f5 b6 3d
       -0.049509477 0.042734567 0.027830102 0.089336224
0000a0 da e3 99 bc aa 34 d6 3c 3c 24 3b bd d2 b5 33 3d
       -0.018785406 0.026148159 -0.045688853 0.04387457
0000b0 f0 e0 25 bc 43 b2 6f bd 10 cf bc 3d fb 3c 52 bc
       -0.01012443 -0.058519613 0.092191815 -0.012831922
0000c0 8e eb 9a bc db 92 be 3d 95 f1 86 bd d8 a2 8f bd
       -0.01891115 0.09305354 -0.06589047 -0.07013482
0000d0 3b 74 e7 bc a3 fd 86 bb 15 23 7c 3d c5 d5 af 3d
       -0.028253665 -0.0041195913 0.061556894 0.08585695
0000e0 5a 50 8e 3d 73 4e 58 3c 94 47 37 bc a9 d9 d2 3c
       0.069489196 0.0132022975 -0.011186499 0.025738554
0000f0 43 df 79 3c 49 90 fb 3c f5 45 68 bd 00 3e 36 bd
       0.015250984 0.030708449 -0.05670734 -0.04449272
000100 17 74 51 3d 48 a6 2f bd c9 64 a7 3c 9a dd ea 3c
       0.051136103 -0.042883188 0.0204338 0.028670121
000110 bd fa 9c 3d 85 41 d5 bb 13 0a 0a bd 02 1c 08 bd
       0.07665012 -0.0065080547 -0.033701014 -0.033229835
000120 c8 f2 bb 3d f8 9f ab 3b 55 35 a7 3d b1 fb 8b bd
       0.09177166 0.0052375756 0.08164469 -0.06835116
000130 85 dc 4b 3d 3c 2e a1 bd 5f bf e2 bb 6c 4a 9a bd
       0.04977085 -0.07870147 -0.006919786 -0.07533726
000140 77 47 0a bd ff 7e 58 bc 35 04 e6 3c af c2 2c bd
       -0.03375956 -0.013213872 0.028078178 -0.042177852
000150 79 26 54 bd b1 b6 3b bd 66 e5 6e bd 6b d7 53 3d
       -0.051794503 -0.045828525 -0.05832424 0.05171911
000160 ac 59 a3 bd 44 03 35 3d 3a c1 87 bd 12 0c a2 bd
       -0.07976088 0.044192567 -0.06628652 -0.079124585
000170 9e ce f0 3c 08 01 a4 3d 98 57 89 bd fb 5a 6c 3d
       0.029395398 0.08008009 -0.0670616 0.057703953
000180 bb dd 91 bd 23 f7 50 bc ea e1 e1 ba c5 f9 86 39
       -0.0712237 -0.0127542345 -0.0017233465 0.00025744564
000190 53 51 13 3d b9 f9 b9 3d ff 1b 1c 3d 99 c6 f1 bc
       0.03596623 0.09080834 0.038112637 -0.029513644
0001a0 34 3b 8e bd 90 80 d6 3c f6 41 a6 bd 9e b8 8a bd
       -0.06944886 0.02618435 -0.0811805 -0.06773494
0001b0 72 7c 29 bc 04 ce e4 bc 5c 6a 10 bc b4 16 ad 3d
       -0.0103446115 -0.027930267 -0.008814421 0.08451596
0001c0 d3 ba b2 3d 32 5b 06 3d 3a 11 9b 3d 0c db b1 3d
       0.0872704 0.032801814 0.07571645 0.08684358
0001d0 cc 8c 99 3a 7b fd 6c 3b 6b df 2e 3c 24 f7 59 3c
       0.0011714934 0.0036161828 0.010673384 0.013303552
0001e0 ed 3e c5 bb 77 d4 8e bd 58 4f 37 bd 1f 43 cb bb
       -0.006019464 -0.06974118 -0.044753402 -0.00620307
0001f0 cf 6d 9f bc 25 a8 ac 3c a2 a0 ea 3c 36 2d 04 3d
       -0.01946154 0.021076271 0.028641049 0.03226968
