scripts/tiny_heads/ptm.pt (torch, 166768 bytes, 3 tensors)

layers.0.weight f4 [128, 320]
0.021123772 0.0041468423 -0.07762198 -0.18893206 0.057319265 0.019506868 -0.2428969 -0.109579116
-0.14944072 -0.16914156 0.03499929 -0.0066627585 -0.03631536 0.09782996 -0.11757294 0.05577049
0.058991093 0.25092557 0.13399431 0.002147081 -0.16431475 -0.19892232 0.25213078 0.48802817
-0.3942032 -0.05132594 0.10094278 0.12678713 -0.12896217 -0.22455452 -0.08951822 0.060277652
-0.14918435 -0.213859 -0.07563322 0.0076656933 0.2494404 0.17201145 0.13453647 -0.22247045
-0.040293492 -0.018011233 -0.08977804 -0.026067456 -0.18561967 0.09728761 0.021895293 -0.026371097
-0.034763504 0.16267006 0.1691578 0.31634638 -0.061142974 -0.085875906 0.16796145 -0.0064849523
0.030940676 -0.0541397 0.013812701 0.30288506 0.4176677 -0.14254019 -0.018460967 -0.06625128
0.03827154 0.1664976 -0.2432499 0.008196127 0.19578324 -0.16310479 -0.0656784 -0.15344557
-0.02953974 0.010374851 -0.1534917 -0.035418272 -0.06837733 0.4693626 0.5122991 0.34335268
-0.27623466 0.27496076 -0.3762961 -0.012075045 0.0845813 0.037832618 -0.033129435 0.1187024
-0.00097650493 0.052561812 0.050291866 -0.10503188 -0.054912634 -0.11848327 0.028816374 0.14493863
0.18093884 0.0013332377 -0.29711956 0.12483657 -0.064513795 0.33398485 0.05299024 -0.04522468
0.13375974 -0.0070440783 0.07870943 -0.027231732 -0.1333456 0.17946857 0.203506 0.14279696
-0.15242313 -0.43079847 -0.3240132 -0.008246726 0.24206921 0.11234141 -0.025082035 -0.0690344
0.06419973 -0.06657012 0.19245936 -0.3150132 0.03099243 -0.0995338 -0.02731968 0.018372187
0.030408857 -0.06390968 0.10809789 0.4849151 -0.056859877 -0.01052073 0.055316556 -0.12333042
-0.32719806 -0.14823215 0.03889499 0.00076292455 0.1031387 0.16274644 -0.071125425 -0.06470502
0.081238255 -0.2273194 0.024084687 -0.04638356 0.14339773 0.03347768 0.08839122 -0.094111696
-0.0731474 -0.015737604 -0.06065982 -0.32651228 -0.31266904 -0.074461244 -0.10539585 -0.4474875
1.0415542 -0.38798517 0.04018287 -0.18589571 -0.16134623 0.3052311 -0.009231828 -0.18089841
-0.30082816 -0.22165965 0.1825868 0.14131252 -0.11579378 -0.16597219 0.107775874 -0.06988281
-0.044538368 0.037639722 0.1192289 -0.009127088 -0.08978895 -0.034851428 0.15273757 -0.16404076
0.008947655 -0.39294493 0.06988651 -0.09076652 -0.2923668 0.16399091 -0.13498528 -0.11585741
-0.06321708 -0.06567272 -0.0111683775 0.18149321 0.004546471 -0.036566198 0.15373519 -0.038273524
-0.25301057 0.10354302 -0.06713251 -0.2956158 0.050578 0.03295857 -0.0590103 0.15534364
-0.50875413 0.42368641 0.5141395 0.036582876 0.06646074 -0.0044802926 -0.13129157 -0.18658982
-0.07774436 -0.16973746 -0.14285725 0.34862912 -0.04554001 0.08851626 0.014524025 0.44055036
0.19149522 -0.09867285 0.030105915 0.28720152 0.58706343 0.09199303 0.031682648 0.2164514
0.010216832 -0.30089936 -0.011644988 0.1663255 0.0638315 0.1131565 -0.113187686 -0.19678026
0.20615312 -0.042769562 -0.9091818 -0.07052498 0.14357986 -0.1623151 0.081001036 0.21239874
0.08304401 0.123347275 -0.06878624 -0.13703276 -0.13644716 0.10033102 0.19130157 0.5259489
00000000: c30b ad3c 3ce2 873b 46f8 9ebd 6877 41be
00000010: 9bc7 6a3d decc 9f3c f7b9 78be 046b e0bd
00000020: fd06 19be 7233 2dbe 6a5b 0f3d 4553 dabb
00000030: 6abf 14bd 135b c83d 15ca f0bd 996f 643d
00000040: a5a0 713d 5179 803e ce35 093e 0bb6 0c3b
00000050: 2042 28be 4bb2 4bbe 4917 813e d4de f93e
00000060: 00d5 c9be 263b 52bd 17bb ce3d 7cd4 013e
00000070: a90e 04be 9ff1 65be 5455 b7bd b3e5 763d
00000080: c8c3 18be dbfd 5abe 97e5 9abd 7f30 fb3b
00000090: 4e6d 7f3e c523 303e eec3 093e 4bcf 63be
000000a0: ca0a 25bd 4b8c 93bc 8ddd b7bd 6b8b d5bc
000000b0: 1513 3ebe ba3e c73d c25d b33c 3308 d8bc
000000c0: 2d64 0ebd fb92 263e b437 2d3e 27f8 a13e
000000d0: 0e71 7abd b5df afbd 16fe 2b3e b97f d4bb
000000e0: 4d77 fd3c 97c1 5dbd ab4e 623c c013 9b3e
000000f0: 8ad8 d53e 0ef6 11be 743b 97bc c0ae 87bd
00000100: 9ec2 1c3d 597e 2a3e 8016 79be 0c49 063c
00000110: 677b 483e f104 27be 6682 86bd d620 1dbe
00000120: 53fd f1bc 47fb 293c ee2c 1dbe c012 11bd
00000130: 6a09 8cbd 4b50 f03e 0926 033f eccb af3e
00000140: a16e 8dbe a8c7 8c3e e2a9 c0be 69d6 45bc
00000150: f638 ad3d 60f6 1a3d bbb2 07bd 3e1a f33d
00000160: 23fc 7fba 0e4b 573d d8fe 4d3d f41a d7bd
00000170: 12ec 60bd 5ba7 f2bd 5110 ec3c cb6a 143e
00000180: 0848 393e 09c0 ae3a 0e20 98be 51aa ff3d
00000190: cf1f 84bd 1000 ab3e 4b0c 593d 843d 39bd
000001a0: 50f8 083e 03d2 e6bb 6932 a13d 1515 dfbc
000001b0: c08b 08be 9cc6 373e e063 503e 5e39 123e
000001c0: cf14 1cbe 9e91 dcbe 0fe5 a5be 471d 07bc
000001d0: fee0 773e 4113 e63d d778 cdbc e861 8dbd
000001e0: 267b 833d ea55 88bd 1114 453e 6949 a1be
000001f0: d6e3 fd3c 60d8 cbbd 86cd dfbc 4581 963c
00000200: ff1b f93c 14e3 82bd 6d62 dd3d cb46 f83e
00000210: e7e5 68bd 245f 2cbc 9d93 623d a994 fcbd
00000220: 8186 a7be 2bca 17be 5a50 1f3d 00ff 473a
00000230: 623a d33d 01a7 263e 35aa 91bd 1184 84bd
00000240: 3e60 a63d 6bc6 68be 404d c53c b0fc 3dbd
00000250: dbd6 123e e41f 093d 7506 b53d a2bd c0bd
00000260: 4ece 95bd 26ec 80bc 6e76 78bd 9e2c a7be
00000270: 2816 a0be 237f 98bd c8d9 d7bd 151d e5be
00000280: a651 853f fea5 c6be cb96 243d 725b 3ebe
00000290: f237 25be 4047 9c3e 1841 17bc 6f3d 39be
000002a0: 2606 9abe bffa 62be 09f8 3a3e 3bb4 103e
000002b0: 4a25 edbd 9df4 29be 99b9 dc3d b81e 8fbd
000002c0: dd6d 36bd 1c2c 1a3d 482e f43d c889 15bc
000002d0: 45e3 b7bd 5fc0 0ebd 3d67 1c3e 4dfa 27be
000002e0: 2f99 123c 1430 c9be a920 8f3d cce3 b9bd
000002f0: 1ab1 95be 3ced 273e 9539 0abe a646 edbd
00000300: f577 81bd 6b7f 86bd 92fb 36bc 5bd9 393e
00000310: 90fa 943b 70c6 15bd c26c 1d3e b3c4 1cbd
00000320: 9a8a 81be 5d0e d43d c57c 89bd f45a 97be
00000330: e02a 4f3d 91ff 063d c9b4 71bd 6712 1f3e
00000340: b63d 02bf 6ded d83e a59e 033f edd7 153d
00000350: 921c 883d 6bcf 92bb 4c71 06be 6711 3fbe
00000360: 6f38 9fbd a8cf 2dbe 2c49 12be 847f b23e
00000370: 2988 3abd 0348 b53d 2df6 6d3c d18f e13e
00000380: 5317 443e fe14 cabd aea0 f63c 140c 933e
00000390: ca49 163f d766 bc3d aac5 013d 70a5 5d3e
000003a0: 8064 273c 7b0f 9abe 9fca 3ebc 3b51 2a3e
000003b0: 17ba 823d 98be e73d f2ce e7bd c480 49be
000003c0: ce19 533e 232f 2fbd 23c0 68bf 676f 90bd
000003d0: 9906 133e ee35 26be dfe3 a53d 0e7f 593e
000003e0: fa12 aa3d 7f9d fc3d cddf 8cbd 5152 0cbe
000003f0: ceb8 0bbe 5a7a cd3d 8fe4 433e 96a4 063f

layers.0.bias f4 [128]
-0.01990166 0.014247564 -0.03557023 0.054980982 0.0017656563 0.067831926 0.024007922 0.013211222
0.045399487 -0.020096974 0.02028806 0.009613387 0.01552201 -0.033991605 0.018638942 0.058258656
0.039029438 0.03270287 0.019877072 0.011673518 -0.03912701 0.053972565 0.0069497046 -0.004263138
0.029399216 -0.018026443 0.03667909 0.019127844 0.02976909 -0.03793292 0.025355715 -0.0022552307
-0.01801642 0.017892597 -0.0016951532 0.007855038 0.027522614 -0.007246195 0.063066006 -0.030667402
-0.01387193 -0.06321175 0.026808599 0.041168284 -0.015979504 0.0082599865 -0.0010260281 0.02279015
-0.043090582 0.0414517 0.026857743 -0.06270346 0.031635456 0.0023025053 -0.005666263 0.056314494
0.038217645 -0.005525429 -0.047173556 0.060024448 0.016210064 0.013713893 -0.03335093 0.008498571
-0.043009177 -0.013332737 0.047103003 -0.025244014 -0.028496126 0.041230887 -0.010694507 0.053816915
-0.049976494 0.04630451 0.009526738 -0.016374992 -0.03789468 -0.004200995 0.027110996 0.02429305
0.0033394322 -0.014700894 0.1175203 0.032738935 -0.034635372 -0.017160553 -0.039737996 0.008289171
-0.044343222 -0.05171174 0.02248615 0.008691226 -0.008093835 -0.010395415 0.02723236 0.012871773
0.03227816 -0.005775684 0.053035185 -0.040250927 0.05010892 0.08944496 -0.023327062 0.015025461
0.018111847 0.03274031 0.0037230854 -0.034367874 0.0021966205 0.00043772248 0.008870209 0.009747201
-0.02409913 0.009178161 -0.012015281 0.055740558 -0.05043567 -0.08867605 -0.017498063 -0.046798896
0.09794565 -0.01052383 -0.026293712 -0.014540122 -0.01920031 -0.0077433065 0.03914471 -0.019607648
00000000: ce08 a3bc 9d6e 693c 17b2 11bd bd33 613d
00000010: 986d e73a 77eb 8a3d 43ac c43c e273 583c
00000020: d0f4 393d 69a2 a4bc 2533 a63c 7881 1d3c
00000030: 0750 7e3c c83a 0bbd b2b0 983c a1a0 6e3d
00000040: 55dd 1f3d 72f3 053d 3ed5 a23c 4942 3f3c
00000050: a543 20bd 5612 5d3d 59ba e33b cbb1 8bbb
00000060: a0d6 f03c 31ac 93bc d03c 163d ffb1 9c3c
00000070: 4ede f33c 8d5f 1bbd cab6 cf3c 7ecc 13bb
00000080: 2c97 93bc 7f93 923c e72f deba 6bb2 003c
00000090: 1b77 e13c 7d71 edbb c028 813d 343a fbbc
000000a0: 1747 63bc 2975 81bd b59d db3c 13a0 283d
000000b0: 73e7 82bc e554 073c ca7b 86ba 69b2 ba3c
000000c0: c07f 30bd 42c9 293d c504 dc3c ac6a 80bd
000000d0: 2e94 013d a1e5 163b 0fac b9bb 07aa 663d
000000e0: 1b8a 1c3d a80e b5bb 0f39 41bd 32dc 753d
000000f0: f8ca 843c 3cb0 603c fc9a 08bd 973d 0b3c
00000100: 642a 30bd 8d71 5abc 14ef 403d 89cc cebc
00000110: b570 e9bc b8e1 283d 0338 2fbc 206f 5c3d
00000120: 27b4 4cbd cca9 3d3d 0916 1c3c d924 86bc
00000130: 7437 1bbd 80a8 89bb e117 de3c 3802 c73c
00000140: 60da 5a3b 05dc 70bc 7cae f03d 4319 063d
00000150: d2dd 0dbd 4a94 8cbc 4fc4 22bd 4ecf 073c
00000160: 3da1 35bd b1cf 53bd e034 b83c a565 0e3c
00000170: 019c 04bc 8851 2abc 6616 df3c 21e4 523c
00000180: 1b36 043d f341 bdbb 6c3b 593d 28de 24bd
00000190: 033f 4d3d eb2e b73d 6518 bfbc 5a2d 763c
000001a0: 4c5f 943c b41a 063d 02ff 733b 54c5 0cbd
000001b0: 2df5 0f3b 1e7e e539 5a54 113c b9b2 1f3c
000001c0: 8a6b c5bc ff5f 163c bedb 44bc 3650 643d
000001d0: a295 4ebd ca9b b5bd 1958 8fbc 33b0 3fbd
000001e0: bb97 c83d 246c 2cbc e965 d7bc b139 6ebc
000001f0: f849 9dbc 90bb fdbb 3456 203d 38a0 a0bc

layers.2.weight f4 [1, 128]
-0.996597 0.7547037 0.84983236 0.09964453 0.62860316 -0.92525387 0.29488802 0.62352204
0.6396496 -0.9875282 -0.88089335 0.86942095 0.62596613 -1.1758274 0.0724934 0.11111974
0.40584555 0.36400673 0.77662903 0.20305668 -0.35728922 0.7167334 -0.38701507 0.27519172
0.07821775 -0.6492748 0.10086078 -0.8326557 0.6061454 -1.0366824 -0.42506674 0.51417947
-0.5759034 -0.4829092 -1.0987153 -0.2975701 -1.7757837 -1.5195904 0.07248592 0.093735225
1.3049679 -0.71461564 0.46316978 -0.3189635 0.70763284 1.3409275 -0.7415694 0.5371961
-1.042279 -0.74854857 -0.52004015 1.2074661 0.08683445 0.109929755 0.12318518 -0.42692822
0.58914524 0.44654003 -0.62572575 0.86245507 0.087671414 0.4038257 -0.816316 -0.64181864
0.6413869 0.8675259 0.07786803 0.66665083 -1.5212117 -0.4859238 0.50367147 0.32914984
-1.4084765 0.6380797 0.7911482 -0.026381671 1.5932881 0.10852426 0.9583467 0.0969304
0.10382542 0.109149426 0.6432014 0.77071106 0.80381507 1.7277366 -0.72297895 -0.42726532
-0.80940276 -0.3844213 0.37520838 -0.4995408 0.071933106 0.068334416 0.31144905 0.33909425
0.07085483 0.8521011 0.48752582 0.7169401 -0.27752027 0.7097355 -0.7348602 -0.45336848
-0.7325212 0.060669847 0.7362452 0.05994365 -1.0270903 0.25016916 0.24585839 0.10650333
0.6514044 0.10259966 0.066243015 0.25709912 -0.69191575 -0.9222888 -0.6776073 -0.68912184
0.17412154 -0.23233667 0.099481635 -0.72298187 -0.6121364 0.106491625 -0.39635617 -0.813108
00000000: fb20 7fbf 4334 413f 9d8e 593f 6e12 cc3d
00000010: 23ec 203f 70dd 6cbf 90fb 963e 249f 1f3f
00000020: 14c0 233f a6ce 7cbf 3a82 61bf 5f92 5e3f
00000030: 513f 203f 8381 96bf 6b77 943d bf92 e33d
00000040: fdca cf3e 175f ba3e 29d1 463f 17ee 4f3e
00000050: 9dee b6be d77b 373f d726 c6be eee5 8c3e
00000060: a130 a03d e036 26bf 1990 ce3d ed28 55bf
00000070: 582c 1b3f 02b2 84bf 59a2 d9be 44a1 033f
00000080: 686e 13bf e03f f7be b4a2 8cbf 1c5b 98be
00000090: e14c e3bf f081 c2bf 7f73 943d 41f8 bf3d
000000a0: 3009 a73f 0df1 36bf 9724 ed3e 2f4f a3be
000000b0: 6d27 353f 83a3 ab3f 7ed7 3dbf af85 093f
000000c0: 6669 85bf e1a0 3fbf 5a21 05bf 408e 9a3f
000000d0: 43d6 b13d da22 e13d 8348 fc3d 5696 dabe
000000e0: 39d2 163f e5a0 e43e 902f 20bf dbc9 5c3f
000000f0: 128d b33d 3ec2 ce3e 16fa 50bf 3a4e 24bf
00000100: ef31 243f 2d16 5e3f 4679 9f3d a1a9 2a3f
00000110: 11b7 c2bf 01cb f8be 9df0 003f 5486 a83e
00000120: f548 b4bf 3159 233f b088 4a3f 601e d8bc
00000130: ddf0 cb3f f841 de3d 3656 753f 7283 c63d
00000140: 6ca2 d43d bc89 df3d d9a8 243f 524d 453f
00000150: d3c6 4d3f 7926 dd3f 2615 39bf 85c2 dabe
00000160: 0535 4fbf ded2 c4be 501b c03e d0c3 ffbe
00000170: aa51 933d eaf2 8b3d 4076 9f3e c39d ad3e
00000180: 561c 913d 4c23 5a3f fc9c f93e 6389 373f
00000190: 2317 8ebe 3ab1 353f cc1f 3cbf ea1f e8be
000001a0: 8286 3bbf f280 783d 917a 3c3f 7987 753d
000001b0: b277 83bf 2c16 803e 4dc2 7b3e 6b1e da3d
000001c0: 70c2 263f c51f d23d 6baa 873d 7fa2 833e
000001d0: 6421 31bf 1e1b 6cbf ac77 2dbf 4a6a 30bf
000001e0: eb4c 323e aae9 6dbe 07bd cb3d 5715 39bf
000001f0: f9b4 1cbf 4818 da3d 32ef cabe d927 50bf
