scripts/tiny_heads/ptm.pt (torch, 166768 bytes, 3 tensors)

layers.0.weight f4 [128, 320]
0.011489421 -0.03520098 0.058556356 0.04733925 0.04855446 -0.017612178 0.004923129 -0.01752419
-0.058796424 0.015387614 0.038401227 0.033968166 0.03123904 0.032671925 -0.02549889 -0.008474747
-0.031090243 0.021513246 0.03199201 -0.030996395 -0.012121794 0.050388116 -0.041827098 -0.00317613
0.031552784 0.0020950388 0.04029725 -0.03181647 0.038873233 0.016010143 -0.05014806 0.030046033
0.05294719 0.043005973 0.041840717 -0.0125965495 -0.046287682 0.0008304409 0.03631939 -0.025826905
0.021373522 0.0027650679 0.0025600586 -0.045207355 -0.02824549 -0.02977807 -0.051781047 -0.012025025
-0.038910475 -0.0407852 -0.04921857 0.037112974 0.011496949 -0.0013006835 0.015837424 -0.051137358
0.043109283 -0.017199183 0.05164936 -0.060166825 -0.058578014 0.012569293 -0.05634983 -0.060080342
0.009966759 -0.055063143 0.0564083 0.016817853 0.0018597457 0.022071205 -0.031770077 0.0371093
-0.02340133 0.048586767 -0.03487742 0.044350892 0.011556307 0.010504675 -0.021776974 -0.039574005
-0.04602924 0.0074437833 0.047637437 -0.04638282 0.033909302 0.022921847 -0.036451705 0.0412711
0.00018256111 0.014861527 -0.032572616 -0.041503992 0.00069081865 0.02264851 -0.0394164 0.008565452
-0.05817477 0.04715884 0.016374322 0.002785144 0.04081086 -0.03501311 0.04690053 0.04556913
-0.023015717 -0.024937462 0.0030431617 -0.010915314 -0.00783367 -0.043472107 0.054309804 -0.0020233875
0.027205992 -0.00785116 0.033286903 0.013471402 -0.031804636 0.029645028 0.04192131 0.05593307
0.048253465 0.047285788 0.04039954 0.011971557 -0.03834975 -0.05322892 -0.026542425 -0.03041913
0.038466897 0.043073714 0.038649373 -0.048799593 -0.026586797 -0.052796103 0.022749027 0.010805708
-0.024092812 -0.052382242 0.043440826 0.024522021 -0.015156067 -0.025893087 -0.027394447 0.015773654
0.0035897917 -0.050176725 0.002622053 0.049479365 -0.010474113 -0.022372873 0.052955616 -0.057579443
0.014732688 0.019751994 -0.005088031 0.04641051 0.0134737 0.018012183 0.04605522 -0.050319012
-0.041098285 0.027785351 -0.00985743 -0.020925932 -0.02893424 -0.0069023306 0.0070988354 -0.046231322
0.039431542 0.060011715 -0.023990614 0.014879007 -0.024456935 -0.009886878 0.0013117937 -0.026887052
-0.010733415 -0.018519547 -0.019948822 -0.054087084 0.04245458 0.021216441 0.021523926 0.033933215
-0.022531074 -0.0074276426 -0.020759396 -0.04613115 0.03664844 0.046804585 0.0026967 -0.047433086
0.010438308 0.0025855678 0.004424045 0.029741323 -0.050484225 -0.01312271 0.015936628 -0.04871855
-0.013015703 -0.0013133441 -0.0076129106 0.0020950784 -0.015620523 -0.029122787 0.016315335 -0.054558255
0.017495781 -0.051161602 0.05893275 0.043286487 0.049432803 0.012730124 0.01751525 -0.0070360494
0.029517906 -8.292863e-05 -0.015523233 -0.01607257 0.031825006 0.030619012 -0.025981875 -0.037167188
0.014533195 -0.036293495 -0.037099946 -0.042721283 -0.01647631 -0.038831532 0.03630043 0.027776092
0.01399418 0.021590035 -0.0054203793 -0.029524397 0.008180427 0.0028132545 0.0019731529 0.024747677
-0.050325505 -0.0050933333 0.02000946 -0.039171625 -0.018250886 0.044053093 0.035518914 0.046535123
0.035133887 0.0026047025 -0.036724787 -0.032292355 -0.035754275 -0.008414317 -0.051082417 -0.0080038635
00000000: 203e 3c3c e72e 10bd cad8 6f3d cde6 413d
00000010: 0be1 463d 6a47 90bc 3352 a13b e48e 8fbc
00000020: 85d4 70bd 551c 7c3c 9b4a 1d3d 3422 0b3d
00000030: 04e9 ff3c ffd2 053d 0ce3 d0bc aad9 0abc
00000040: f7b0 febc 8c3c b03c 0e0a 033d 27ec fdbc
00000050: 7d9a 46bc c563 4e3d e452 2bbd 9e26 50bb
00000060: 7e3d 013d eb4c 093b bb0e 253d fd51 02bd
00000070: 8a39 1f3d b427 833c 0d68 4dbd 1923 f63c
00000080: 27df 583d 0827 303d 2c61 2b3d c261 4ebc
00000090: 2798 3dbd f2b1 593a a4c3 143d f292 d3bc
000000a0: 8617 af3c 2436 353b a8c6 273b 592b 39bd
000000b0: 1663 e7bc 24f1 f3bc 5d18 54bd 9c04 45bc
000000c0: 9760 1fbd 620e 27bd 6999 49bd c603 183d
000000d0: b35d 3c3c b27b aaba 7cbd 813c 6875 51bd
000000e0: 5c93 303d 4de5 8cbc 488e 533d 7d71 76bd
000000f0: 80ef 6fbd 70ef 4d3c 14cf 66bd ce16 76bd
00000100: 9e4b 233c e489 61bd 640c 673d 98c5 893c
00000110: b6c2 f33a acce b43c 5721 02bd ecff 173d
00000120: 25b4 bfbc eb02 473d a0db 0ebd 48a9 353d
00000130: aa56 3d3c cd1b 2c3c a065 b2bc 5a18 22bd
00000140: 2889 3cbd fbea f33b 791f 433d e9fb 3dbd
00000150: 7be4 0a3d 99c6 bb3c 624e 15bd e30b 293d
00000160: e06d 3f39 c37d 733c dd6a 05bd 1700 2abd
00000170: 0e18 353a 5e89 b93c 1773 21bd 1c56 0c3c
00000180: ab48 6ebd a129 413d 7123 863c f686 363b
00000190: 4a29 273d e869 0fbd c51a 403d b2a6 3a3d
000001a0: 758b bcbc a649 ccbc c86f 473b 25d6 32bc
000001b0: cb58 00bc cf0f 32bd f573 5e3d cf9a 04bb
000001c0: 1adf de3c 27a2 00bc d957 083d 28b7 5c3c
000001d0: 9445 02bd 21da f23c aeb5 2b3d 131a 653d
000001e0: 6da5 453d beae 413d fd79 253d 5924 443c
000001f0: a114 1dbd 9106 5abd 806f d9bc 8a31 f9bc
00000200: 778f 1d3d 106e 303d ce4e 1e3d 15e2 47bd
00000210: 8ecc d9bc ba40 58bd 2b5c ba3c 6d0a 313c
00000220: 4a5e c5bc c38e 56bd 02ef 313d 68e2 c83c
00000230: 2751 78bc bd1d d4bc 526a e0bc c037 813c
00000240: b642 6b3b 1c86 4dbd c0d6 2b3b e0aa 4a3d
00000250: 9d9b 2bbc 5147 b7bc fde7 583d 6cd8 6bbd
00000260: 5f61 713c efce a13c 7fb9 a6bb f218 3e3d
00000270: cbc0 5c3c 498e 933c 66a4 3c3d 4f1b 4ebd
00000280: ad56 28bd 1b9e e33c 0f81 21bc dc6c abbc
00000290: 8007 edbc f22c e2bb 599d e83b 0e5d 3dbd
000002a0: f882 213d d8ce 753d f787 c4bc 14c7 733c
000002b0: e959 c8bc 92fc 21bc 7ef0 ab3a 3c42 dcbc
000002c0: 35db 2fbc 4eb6 97bc b66b a3bc 6b8a 5dbd
000002d0: dbe4 2d3d 1ace ad3c f252 b03c 8efd 0a3d
000002e0: 1693 b8bc 9563 f3bb 9c0f aabc 04f4 3cbd
000002f0: ad1c 163d 2ab6 3f3d 1ebb 303b 3249 42bd
00000300: 7005 2b3c a172 293b 94f7 903b 13a4 f33c
00000310: 8cc8 4ebd a300 57bc 888d 823c 1a8d 47bd
00000320: d13f 55bc 8424 acba b975 f9bb 954d 093b
00000330: 39ed 7fbc e992 eebc bda7 853c 7a78 5fbd
00000340: 5053 8f3c d48e 51bd 7863 713d 2c4d 313d
00000350: 0d7a 4a3d 0392 503c 247c 8f3c a98e e6bb
00000360: 89cf f13c f8e9 adb8 2955 7ebc 9faa 83bc
00000370: f05a 023d b9d4 fa3c f1d7 d4bc 9f3c 18bd
00000380: a31c 6e3c 7da8 14bd 1df6 17bd 83fc 2ebd
00000390: 54f9 86bc d00d 1fbd c2af 143d b08a e33c
000003a0: d847 653c 96dd b03c 709d b1bb 26dd f1bc
000003b0: 3307 063c 945e 383b 0350 013b a4bb ca3c
000003c0: 1e22 4ebd fae5 a6bb e1ea a33c 6d72 20bd
000003d0: e282 95bc 0471 343d 487c 113d 9d9b 3e3d
000003e0: 8de8 0f3d a8b3 2a3b bb6c 16bd fd44 04bd
000003f0: 1373 12bd 34dc 09bc cc3b 51bd a322 03bc

layers.0.bias f4 [128]
-0.0038208342 0.021912765 -0.023461131 0.01933717 -0.00845361 0.04815256 -0.054025184 0.029644588
0.03556968 0.03576832 0.037119217 -0.035914745 -0.00693404 -0.03703274 0.020516472 0.008321132
-0.010410845 -0.024179213 0.01656307 -0.040320873 -0.0021567706 -0.02993456 -0.0141210975 0.02213558
0.038731337 -0.0074394275 0.011355611 0.003735681 0.03978717 -0.019442907 0.0052031544 -0.027139816
0.012120186 0.061236467 -0.026733097 -0.038443167 -0.031107735 0.0056237555 -0.03859262 -0.03372385
-0.0107836705 -0.032319944 -0.027034936 -0.034607373 -0.01316512 0.035311144 -0.029621469 -0.023631504
-0.019529084 0.019375296 -0.014644973 -0.01801573 0.03583039 -0.014135909 0.04772598 0.028717833
-0.030196248 0.043272465 -0.006874225 0.04828974 -0.045504108 0.017881757 0.03212828 0.04830441
-0.0030555278 -0.03394815 -0.04826049 -0.03980633 0.037310384 -0.011278986 0.023499344 0.022305401
0.015561986 0.0143333515 0.048143715 0.019289708 -0.031140888 -0.029084962 -0.02711939 -0.041890148
0.05988748 0.057339497 0.011789213 0.030793672 0.01810934 0.020627072 0.031566415 -0.0023355358
-0.024858354 0.0024401115 0.02874101 -0.009853851 -0.03432569 -0.03987609 0.01739056 0.023797855
0.004848952 -0.040908728 0.0363579 -0.03645621 -0.053050514 -0.05397488 0.008752378 0.020292483
0.021550186 0.0029968354 0.02559426 -0.018847583 -0.008297932 -0.0048427708 -0.02606651 -0.015539725
0.01363844 -0.021490699 -0.043965165 0.036181144 -0.010495916 0.03761312 0.0075177215 0.029366069
0.010021665 0.030135734 -0.048288487 0.047221724 -0.025609192 0.027059728 0.0051477468 0.033032253
00000000: f666 7abb 6682 b33c 8f31 c0bc fc68 9e3c
00000010: 0381 0abc 9e3b 453d 8349 5dbd 35d9 f23c
00000020: 83b1 113d cd81 123d 520a 183d 571b 13bd
00000030: f236 e3bb a4af 17bd 2912 a83c 5b55 083c
00000040: 4092 2abc 7c13 c6bc 46af 873c 8027 25bd
00000050: 9b58 0dbb 5339 f5bc 2d5c 67bc ad55 b53c
00000060: c0a4 1e3d 71c6 f3bb e20c 3a3c 54d2 743b
00000070: dff7 223d bb46 9fbc 397f aa3b 5254 debc
00000080: bf93 463c 17d3 7a3d 5eff dabc 9576 1dbd
00000090: a6d5 febc 7b47 b83b 4c13 1ebd 0522 0abd
000000a0: fead 30bc eb61 04bd 5f78 ddbc 76c0 0dbd
000000b0: 84b2 57bc 6ba2 103d b9a8 f2bc db96 c1bc
000000c0: 75fb 9fbc f1b8 9e3c 78f1 6fbc b995 93bc
000000d0: e3c2 123d 4d9a 67bc 517c 433d a941 eb3c
000000e0: 1f5e f7bc 783e 313d 2e41 e1bb 76cb 453d
000000f0: 8462 3abd c37c 923c f198 033d d8da 453d
00000100: 403f 48bb 370d 0bbd cbac 45bd f60b 23bd
00000110: c6d2 183d 7fcb 38bc b281 c03c d1b9 b63c
00000120: b3f7 7e3c 6fd6 6a3c 5832 453d 7305 9e3c
00000130: 2d1b ffbc 9643 eebc 7c29 debc 0195 2bbd
00000140: 934c 753d d2dc 6a3d 8b27 413c 0343 fc3c
00000150: 0a5a 943c 1bfa a83c c94b 013d ca0f 19bb
00000160: bfa3 cbbc 47ea 1f3b 4472 eb3c 0c72 21bc
00000170: 1899 0cbd 1c55 23bd a676 8e3c b8f3 c23c
00000180: f5e3 9e3b e98f 27bd 05ec 143d 1b53 15bd
00000190: 7f4b 59bd c414 5dbd 2266 0f3c 6c3c a63c
000001a0: 048a b03c 8e66 443b 0eab d13c 3f66 9abc
000001b0: 0df4 07bc 1bb0 9ebb 6f89 d5bc 559a 7ebc
000001c0: c373 5f3c 430d b0bc d114 34bd ae32 143d
000001d0: 10f7 2bbc 3710 1a3d 3857 f63b 1c91 f03c
000001e0: e931 243c 37df f63c 26ca 45bd 916b 413d
000001f0: 5eca d1bc 5dac dd3c 6eae a83b d44c 073d

layers.2.weight f4 [1, 128]
0.08439109 0.0023400045 0.019991472 -0.03543359 0.039394233 -0.033369683 -0.022902222 -0.0036167856
-0.018961206 0.011292764 0.016805192 0.022099858 0.007686331 0.018879479 -0.0074069626 -0.05543168
-0.0173909 -0.06277742 -0.04638817 0.04030434 -0.068628356 -0.06899149 0.030349627 -0.0059976587
0.09178181 0.052494098 0.0054883286 0.078391954 0.0706751 0.06256384 0.056552406 0.03096126
-0.027308408 0.06813824 -0.029333701 -0.011255449 0.00909909 -0.054488696 0.0903096 -0.064468026
-0.012111195 0.03456996 0.0023177492 0.089444555 0.07311676 0.008049436 -0.03609866 -0.06988995
0.09184206 0.0067198947 0.06262658 -0.043056276 0.076057814 -0.011067161 -0.076307066 0.0019340897
-0.027306946 0.06710791 0.03307822 -0.053388055 0.033092514 0.039385658 -0.058993123 0.07955095
0.05036524 -0.04089398 -0.080178805 0.040521264 0.06828463 0.08475621 0.033826858 -0.05037635
-0.072324105 0.044300426 0.051953122 0.09038464 0.06676439 -0.05182841 -0.02796398 -0.052264895
0.08636313 0.08273658 0.08079142 -0.0592546 0.062309403 -0.025430307 -0.07687678 0.056314565
0.07147163 0.037175946 -0.059448253 0.07298453 -0.013841272 0.07597111 -0.07521882 -0.064922534
-0.05258525 -0.061340023 0.04441248 0.0012396207 -0.037084308 -0.037053835 0.013899424 0.0038275158
-0.023395775 -0.018605506 0.08004734 -0.065879665 0.04863565 0.06793769 0.04054901 -0.019715773
0.08339102 -0.061028738 0.08117895 0.06734233 0.078701966 0.041118182 0.04790462 0.075317465
-0.022760717 -0.001058518 -0.038924575 0.08989555 0.06948043 -0.07706853 -0.037307486 -0.033211987
00000000: 3cd5 ac3d c35a 193b 28c5 a33c d022 11bd
00000010: d95b 213d a6ae 08bd 719d bbbc 9807 6dbb
00000020: 8854 9bbc 4905 393c 0bab 893c c30a b53c
00000030: 9edd fb3b 23a9 9a3c 1bb6 f2bb 540c 63bd
00000040: 5c77 8ebc 7391 80bd 8601 3ebd 2a16 253d
00000050: 068d 8cbd 694b 8dbd c89f f83c 0288 c4bb
00000060: 1af8 bb3d 0d04 573d 70d7 b33b f68b a03d
00000070: 1bbe 903d 7821 803d 7fa3 673d 78a2 fd3c
00000080: e2b5 dfbc 108c 8b3d 3b4d f0bc c668 38bc
00000090: 5914 153c 8a2f 5fbd 3df4 b83d d007 84bd
000000a0: 096e 46bc 3b99 0d3d 61e5 173b b52e b73d
000000b0: 3dbe 953d c8e1 033c 30dc 13bd 7622 8fbd
000000c0: b117 bc3d 9032 dc3b 5d42 803d c75b 30bd
000000d0: 33c4 9b3d 0a53 35bc e146 9cbd 4881 fd3a
000000e0: d1b2 dfbc df6f 893d 077d 073d 6fad 5abd
000000f0: 048c 073d db52 213d c6a2 71bd 9ceb a23d
00000100: c84b 4e3d 7280 27bd c934 a4bd a0f9 253d
00000110: d0d8 8b3d aa94 ad3d 088e 0a3d 6e57 4ebd
00000120: a91e 94bd 5d74 353d cccc 543d 951b b93d
00000130: c5bb 883d 074a 54bd b714 e5bc b713 56bd
00000140: 27df b03d cc71 a93d f975 a53d f4b4 72bd
00000150: 2538 7f3d 3853 d0bc 9371 9dbd 1aaa 663d
00000160: b85f 923d ce45 183d 0380 73bd ea78 953d
00000170: 81c6 62bc be96 9b3d 530c 9abd 1bf6 84bd
00000180: a263 57bd ad3f 7bbd dce9 353d c57a a23a
00000190: b7e5 17bd c3c5 17bd 69ba 633c 0fd7 7a3b
000001a0: 7fa8 bfbc 936a 98bc dcef a33d ebeb 86bd
000001b0: 2d36 473d ea22 8b3d b816 263d f982 a1bc
000001c0: e9c8 aa3d 45f9 79bd 2641 a63d c7ea 893d
000001d0: 7f2e a13d 8a6b 283d a337 443d 0b40 9a3d
000001e0: af74 babc f8bd 8aba 606f 1fbd 281b b83d
000001f0: c14b 8e3d 1bd6 9dbd bccf 18bd 4b09 08bd
