llm_plm_hybrid/tiny_heads/pe.pt (torch, 168808 bytes, 4 tensors)

layers.0.weight f4 [128, 320]
00000000: e1eb b1be 174f 9c3e 2e7a 013e c576 58bd
00000010: 31bd 2b3e eb03 6dbd 55b1 f6bc e525 44be
00000020: ea2c eb3e 4fc0 c4bd 82d3 ef3e 9cde b43d
00000030: c3ea 813d 0068 b13d 7dcf f13d 2ab9 c33c
00000040: 2a1c 243e 1e62 54bd 0289 853d 8776 74bd
00000050: 8207 7bbc f19c af3d 33d1 8e3d 680b 9cbe
00000060: f5e7 f83e c977 4ebd 1033 d7bd 231e 893e
00000070: 8b00 363d 562b a8bd d036 b93d 04a0 1cbe
00000080: ea85 2fbd dbd5 ddbd f529 0d3e 78ab 5dbd
00000090: 4f63 53be 121d be3f 7e7e 9b3b 0665 233e
000000a0: 3839 33bd f683 e63d 6679 c0be dc04 60be
000000b0: a1f5 50be d425 a8bd b5ab 7dbc 6dbd b6be
000000c0: eda3 173e 4a2d a3be d511 adbe d349 97be
000000d0: cac3 afbd a037 6cbe ecf0 dbbd 84a8 cabd
000000e0: 6cd0 a3bd d8ad b03d a6c3 3fbe f111 913e
000000f0: aae6 1d3f 1133 1d3d 848a abbd 3781 413e
00000100: a1c8 973e 5c58 4dbd 844d ce3b 3576 21be
00000110: 60b1 80be 18fe 843e 2063 a33d 4d34 7bbe
00000120: 004e 35be bb05 9ebb bf27 6c3b feb6 98bd
00000130: 221e ccbe d078 233e 38d2 8cbe 43ff 9cbb
00000140: 3f47 0b3e 8634 9ebd 88d2 713e d43c 82bf
00000150: 3c9a e43e 9344 1ebe 1d81 0b3e 0f09 393c
00000160: a4bf 4cbe 2b39 ad3d cb19 37bd a976 4cbe
00000170: e99c 83bd d4e9 86be 1583 25bd c71c ed3d
00000180: a795 82bd 7e20 6bbd 1301 9ebd 4043 663e
00000190: 87d3 383e aeef 4a3f cc16 a3bd 04a3 7cbd
000001a0: 982b b6be 2ad3 23be a1df b93e cafa 073f
000001b0: d1ce 07be 68d3 013d bf6e abbe ff0d b8be
000001c0: e647 99be 6ff1 79bd 9139 9d3d 99c0 9c3e
000001d0: 44a2 59be c58d 1ebd 9654 513e c795 f3bd
000001e0: 2b15 a1be d013 d13c 9109 783e 86b4 e6be
000001f0: 0f9c fbbe 5822 bebe 59bd 263e 4394 183c
00000200: 6b1b e7be c776 72bc a98e d3be de69 82be
00000210: fde4 253e ede6 df3e d825 0c3e 2f3a eebd
00000220: 7a86 0bbe 48ac 6b3e 860d ddbc f655 9fbc
00000230: d20f 2c3e 7079 78bd 7cb0 c63d 1280 803e
00000240: 6e46 8f3f ce18 bd3e b91c 13be e07a 0e3e
00000250: e393 d7bd 7de0 96bc 8eaa 32bd 30eb 91bd
00000260: 7129 ac3d 8937 f63d 93e9 90be 361c a13d
00000270: 6580 543d 663f 40be 424d 893d f685 f43d
00000280: 4fde ee3e 080e 353d e788 043e bbcd d53d
00000290: ea0a c43d b042 abbe 533c dcbc 15e9 25bb
000002a0: 2b7a 543e 5a02 fabd 3027 7e3e 33ca 0abc
000002b0: b9cf b93c 6b34 64be 91a8 933e 2c54 88be
000002c0: e50d edbe 7a30 743e 81e1 863c 4564 273e
000002d0: b3cc 333e 3118 213e 9c9c 44bd 3e57 c8be
000002e0: 53dc 393d 42ad 21bf faac e03c d841 e83d
000002f0: 765b 10be 0c5c 05be 3d96 49be bf8d b73e
00000300: b0fa 19bd 98af d63e 0b52 ac3e d64c 973e
00000310: 1554 aabc 5ad7 a8bd f705 b03c c03b 02be
00000320: 74c4 843e 9fab 61be 75f2 54bc aa69 6bbe
00000330: 2f4f bebe 808e 503e 8f6f fcbd 899f a13e
00000340: feec 7a3e 7d38 77be d5c8 2c3e a44d 993d
00000350: b48a 293e def2 5fbf 9e73 0abd c23f da3e
00000360: 061d e73e ba17 a6be d5ef 0bbe 7d33 133e
00000370: 1032 913d 1679 b7bd da15 7a3d a016 80be
00000380: e0ab 3fbe 2e19 be3e dc42 013e 9a68 333f
00000390: 2235 36be 5c42 1e3f 99a2 3a3e 653a 333e
000003a0: 7af5 10be 911a 4c3c d634 bc3d d79c e1bd
000003b0: 0350 92bd dcab eebe 234c aebe 44aa f43e
000003c0: c5b6 d9be 7dc6 4b3e 8244 a2be ad33 89bd
000003d0: 0563 153d c5f0 e0b9 dec2 093e d50f 2ebf
000003e0: 0c4c 0ebe 8f60 373e d836 b13e a0ca fcbe
000003f0: 7fef f6bd 7d63 d03b 264f f5bd 52dc 433e
-0.34750274 0.3052909 0.12644264 -0.052847642 0.1677139 -0.057865065 -0.030113855 -0.1915508
0.45932704 -0.096069925 0.46841055 0.08831522 0.06343605 0.086624146 0.118071534 0.023892004
0.16026369 -0.051851384 0.06520273 -0.05968335 -0.015321614 0.08574856 0.06973495 -0.30477452
0.4861447 -0.050407205 -0.10507786 0.26780805 0.04443411 -0.08211391 0.09043658 -0.15295416
-0.04285232 -0.10831805 0.13785537 -0.054118603 -0.20643352 1.4852622 0.0047453037 0.15956506
-0.04375574 0.11255638 -0.3759262 -0.21876854 -0.204062 -0.0821034 -0.015482833 -0.35691395
0.14808626 -0.3187049 -0.33802667 -0.2954851 -0.08582266 -0.23068094 -0.107393116 -0.09895423
-0.07998738 0.08626908 -0.18726978 0.28334 0.6168009 0.03837878 -0.08376029 0.18896948
0.29645255 -0.050133094 0.0062958617 -0.15767749 -0.25135326 0.25975108 0.07977891 -0.2453167
-0.17705536 -0.0048224605 0.0036034433 -0.07456778 -0.3986674 0.15964055 -0.27504134 -0.0047911718
0.13601397 -0.07724862 0.23615468 -1.0174813 0.4464892 -0.15455846 0.13623472 0.011293664
-0.1999498 0.084581695 -0.044702332 -0.1996714 -0.064264126 -0.26350272 -0.040408213 0.115777545
-0.063762 -0.057404034 -0.07715049 0.22486591 0.18049441 0.7927197 -0.079633325 -0.0616789
-0.35580134 -0.15998521 0.36303428 0.5311705 -0.13262488 0.031695753 -0.3348293 -0.35948178
-0.29937667 -0.061021265 0.076769955 0.3061569 -0.21253306 -0.03870942 0.20442423 -0.11893802
-0.31461462 0.025522143 0.242224 -0.45059603 -0.491425 -0.37135577 0.16283168 0.009312692
-0.45138106 -0.014798827 -0.4131978 -0.25471395 0.16200633 0.4373087 0.13686311 -0.116321914
-0.13625517 0.23014939 -0.026983988 -0.019450169 0.1680291 -0.060662687 0.097016305 0.2509771
1.1193368 0.36932987 -0.14366426 0.1391406 -0.10526254 -0.018417591 -0.043619685 -0.071249366
0.08406342 0.12022311 -0.28303203 0.07866709 0.05188026 -0.18774185 0.06704189 0.119396135
0.46653983 0.044202834 0.12942849 0.104396306 0.09572394 -0.33449316 -0.026884234 -0.002531593
0.20749728 -0.1220748 0.24819636 -0.00847106 0.022682058 -0.22285621 0.28839543 -0.26626718
-0.46299663 0.23846617 0.01646495 0.16346844 0.17558555 0.15731885 -0.048000917 -0.3912906
0.045376133 -0.63154995 0.027426232 0.11340684 -0.1409739 -0.13023394 -0.19686218 0.3585033
-0.03759259 0.41930842 0.33656344 0.2955081 -0.020792047 -0.082442 0.02148722 -0.12718105
0.25931132 -0.22038125 -0.012997259 -0.22989526 -0.37169787 0.2036686 -0.123259656 0.31567028
0.24504468 -0.24142642 0.16873486 0.07485512 0.16556817 -0.8747996 -0.033801667 0.42626768
0.4513933 -0.32439977 -0.13665707 0.1437511 0.07089627 -0.08958642 0.061055996 -0.25017262
-0.18717909 0.37128586 0.12623161 0.70081484 -0.17793706 0.61820006 0.18226089 0.17502744
-0.14156142 0.012457506 0.09189765 -0.11016243 -0.07144167 -0.46615493 -0.34042463 0.47786152
-0.42522255 0.19899936 -0.31692892 -0.066993095 0.036471386 -0.00042903997 0.13453242 -0.6799291
-0.13896197 0.17907928 0.34612155 -0.4937334 -0.12057399 0.006359516 -0.11977987 0.19127014

layers.0.bias f4 [128]
00000000: 9939 3a3d 56ba 81ba c01a 513b bc92 393d
00000010: 6580 9dbb d49b e43c 98af 69bd e6ff b6bc
00000020: 4a21 b23d 5f4f cc3c 7826 d3bc a9d6 ad3d
00000030: de20 543d 3362 ba3d 8ee3 bcbd 25bb 623d
00000040: 7316 ccbc 1fbf aa3d d2ca 6bbd db65 3a3d
00000050: aebf 613d c006 103c 84a6 303d d649 2538
00000060: 527a fcba be9f 00bd 258d 2f3c 15de 82bd
00000070: 5be8 82bd 7b59 0d3c 9112 043d 92c8 353d
00000080: 5469 6bbc 193a 60bd bfe5 a53d 9d39 e83d
00000090: b44a b43c d8a8 68bd 6638 143d b053 b93c
000000a0: 6ceb af3d e008 57bc aff6 813d 690c cb3d
000000b0: 72be 093d 8438 21be 300b 653b 6c34 b13d
000000c0: fae2 febc db8f b9bd f1ad 563d f727 c7ba
000000d0: 7d3e fdbb 64d7 333d 70d0 733d bbc4 abbc
000000e0: 514e db3c 93f5 13bd 1a27 d33d 4ad4 c83c
000000f0: 38af 4dbd 6aa9 5d3d f990 343d 82ed 42bc
00000100: 57d7 043d 7427 8f3d 83a7 6f3d e052 1bbd
00000110: 5456 153d 333f 003d 9022 03bd 6ac0 593d
00000120: 55b7 91bd 3657 e3ba dfa1 853d b176 5e3d
00000130: 9d3e 02bd 206b 773c ca43 e13b 6a45 dcbc
00000140: e3f1 fdbd 12d0 3abd 87c9 8f3d 25ef 913c
00000150: 5af9 683d 020c 0a3d 5aa2 51bd d5ad 8f3d
00000160: e623 8dbd 8cd3 fbbc a189 09bd 06d1 033e
00000170: 66c7 073e 862f e7bd c668 99ba e369 d8bc
00000180: 2081 4cbd d4f7 11bd 1449 0e3c 8c97 233d
00000190: 1a04 103d e2e4 1c3c 7b54 66bd afe2 5cbd
000001a0: 2d96 99bc 7e34 873d fce8 04bd d469 933d
000001b0: dc93 e5bc dcbe 823d 2a43 5cbd 6924 4abd
000001c0: d2a8 a7bd 64dd 643d ee3f 8e3d 7ce5 793d
000001d0: 1b9f a93c 49d0 ed3d 53f5 3f3d fb86 bdbc
000001e0: eded 4abc 0e99 7dbd e67d a43b e9d3 7a3c
000001f0: d33d 1bbd 47dc 893d 5d06 62bc 926f 36be
0.045465086 -0.0009897451 0.0031906813 0.045305952 -0.0048065656 0.027906336 -0.057052225 -0.022338819
0.08697756 0.02494019 -0.02577518 0.08488209 0.051789157 0.09100761 -0.0922309 0.055354256
-0.024913048 0.08337235 -0.05756647 0.045507293 0.05511444 0.008790672 0.04312755 3.940783e-05
-0.0019262529 -0.031402342 0.010714804 -0.06390015 -0.063919745 0.008627291 0.03224427 0.044380732
-0.014368374 -0.054742906 0.08100461 0.11339114 0.022008277 -0.056801647 0.0361866 0.022622913
0.08589825 -0.013124675 0.06345879 0.099144764 0.03362889 -0.15744215 0.0034949295 0.08652577
-0.03111409 -0.090606414 0.052411977 -0.0015194406 -0.0077283964 0.043906584 0.059524953 -0.020967832
0.026770743 -0.03612287 0.103101924 0.02451529 -0.05021593 0.054116644 0.04408357 -0.011897447
0.032431927 0.06989947 0.05850936 -0.037920833 0.036459282 0.03131027 -0.032015383 0.053162016
-0.07115046 -0.0017344716 0.06525015 0.05431241 -0.031797994 0.015101224 0.006874536 -0.026888568
-0.12399652 -0.045608588 0.0702086 0.017814228 0.056878425 0.033702858 -0.05118022 0.07015578
-0.06891613 -0.030740522 -0.03357852 0.12872705 0.13259658 -0.11288361 -0.0011704199 -0.026417678
-0.04992783 -0.035636738 0.008684415 0.03993945 0.03516016 0.009576054 -0.05623291 -0.05392712
-0.018748367 0.06601809 -0.032448754 0.071979195 -0.028024606 0.0638406 -0.05377499 -0.04935113
-0.08186497 0.055875197 0.06945787 0.06100987 0.02070575 0.11611993 0.04686482 -0.023135653
-0.0123858275 -0.061913542 0.005019891 0.015309312 -0.037900757 0.06731468 -0.013795462 -0.17815998

layers.2.weight f4 [5, 128]
00000000: 3b0d 0cbf c3ae 783e 5881 aabc 8af3 993f
00000010: a689 29bd 4b93 1e3e de21 36bc 2c04 693d
00000020: 7c2b 243e 070b 6f3f 7458 173f c39d e63c
00000030: 9cde 5f3d 98bd 77bf e6fa 663f 7cda c3bd
00000040: 3f17 bebc 6cea f9bd 27f3 8040 6f3a 8d3d
00000050: 127d 7a3e c94d e6bf 1f63 8dbc 12e1 453e
00000060: 0158 f2bc 5cc4 63bc be14 f9be 97d9 31c0
00000070: 70d9 3fbd 897c 55bd 81e0 9bbc b9f8 2b3d
00000080: 77fb 6fbf 2dcd 663f 21f4 14be 8b60 833f
00000090: 05d1 86bd eeee 743f 9d7a f93d 4716 913b
000000a0: 8c9d 243e a163 353f fb87 12bf 8fe2 be3e
000000b0: cf91 e83b 38c6 7a3f 3cdb d33d 4813 243e
000000c0: bf12 893c 1ce7 743f 652d 103e 660c 30be
000000d0: 5203 ffbc 2f28 2040 0d09 da3d 2027 73bf
000000e0: 6ab5 63bc 96e1 7bbb 636f 3a3e b932 27be
000000f0: 3223 8d3f 3d72 023f 4e28 65bd cab3 c5be
00000100: f17a 743f 162c f33d 95b8 12bf 9b42 753f
00000110: 2a85 953e 6e78 1e3f 6df8 80bd e78d 613f
00000120: 821a bfbf 5a96 24bf 7347 cb3d 7d7d 0a3d
00000130: df8d 563f 2b19 e9bf aad1 273d 2791 5cbf
00000140: 48be a93f e52c 03c0 d0a4 8d3d d68b cfbe
00000150: 7d53 f13b d300 b63d bcd0 d93f d855 3dbf
00000160: af36 ae3e 9a7c fb3f d409 3abf f771 7fbf
00000170: a011 8ebe 3627 063f 26f4 08c0 56c3 e2bf
00000180: b114 94bd 3097 2dc0 49f3 b33d d591 a03d
00000190: faee 203e 1cab e7be f320 873f 6196 4fbd
000001a0: 4a32 843f 7a0c a23d 9bc7 10bf d4c4 123e
000001b0: 0ee0 6fbd 105a 8c3d 8ffb 293f d5a5 b4bc
000001c0: 6d65 7e3f 247f bf3d 6493 7ebe e283 8f3d
000001d0: e7cd 10bf 8305 07bf 0c06 1740 b403 583f
000001e0: 3c88 5440 f882 93bf 0f29 2abe 85ad ccbe
000001f0: aff7 333f 2bc3 353d 8524 f5bd 1448 743f
00000200: a906 0bbe b866 b1bf c43b 0b3f ccff e03f
00000210: ac69 193d 0e04 51be f886 813d b39d 543d
00000220: da0b 9fbd a95d 1d3f 604e 393f 19eb 193e
00000230: d9b2 2abd d3ff b8bf df88 ab3f ba36 a33d
00000240: 0612 1a3e 9bbe 153c e980 2dbf 4ad5 7fbe
00000250: 88c9 82be c113 e73e 5e64 51bd a4c7 863f
00000260: 8ccf 87bd f9c3 1bbf 813e 8ebe 2ed6 aebd
00000270: 635c c5bc 6afa f43e c4f5 103e 759a 97bd
00000280: 4e22 60be c0f5 043f 416d dfbe 6c55 15bf
00000290: bb99 2f3d 4c2a b3bf f17c c0bf a3d0 4dbd
000002a0: 9f31 2a3d b2ac 9d3c 1523 73bf 9c09 a53e
000002b0: f634 3dbd 3e61 793f 253a 5dbe 15a4 09be
000002c0: cfd0 4b3d cd2c ca3f 1c98 d8bd d6d2 2c3e
000002d0: 61af 003e 500c 3a40 e04a 683d 695a 373d
000002e0: dbdd 86be 9ab6 98bf d57b 0dbf ab2b 8cbe
000002f0: 6729 99bf d7c0 abbd a597 d83d 9ab1 74bf
00000300: d89f 4f3f 3ec5 e83d cbcb 82be 5576 ee3e
00000310: 22a3 a23d 751e 3dbb 08f6 a5bd dcff 1f3f
00000320: f730 cebd daaf 7bbd 47b1 3fbe 45ef 3a3e
00000330: deaa dbbc 2174 823e 9854 d1bc ca2b 9c3f
00000340: 645c 0a3e 1ac1 273f daf4 4a3f ec6a 9dbf
00000350: c745 803e db3e 85be b33a 3fbf dfcd 24be
00000360: e339 3c3d d101 3240 58e4 87be 382d adbf
00000370: 5c20 54bf 8492 733f 9fcb 20bf 40b9 943f
00000380: 37fc b63b 8242 073f fd1c 55bf 4964 f83c
00000390: 8a5c 8bbf e0d5 0fbf 7bfb 9a3f fd9e 973d
000003a0: 815b 843f 1436 d5bd 48e0 06bf fdd5 f8bd
000003b0: 2a9f 1f3d 91b6 edbd c1ca 603f e0ff 87bd
000003c0: 7b06 823f 516e 97bd 5299 593d ff68 4abd
000003d0: b605 9abf 30b3 89bf ea78 c9bf 79c1 163f
000003e0: 987d e53f 38b8 23be 9a45 303e 1dff 5fbf
000003f0: c233 763f 8d4f fabd b446 acbf bf89 1a3f
-0.5470769 0.24285416 -0.020813629 1.2027447 -0.041391037 0.15485875 -0.011116473 0.056888744
0.16032213 0.933762 0.59119344 0.028151399 0.054655656 -0.9677367 0.9022659 -0.09563157
-0.023204444 -0.122029155 4.0296817 0.06895911 0.24461773 -1.7992488 -0.017259179 0.19324139
-0.02958298 -0.013901796 -0.48648638 -2.7789056 -0.046838224 -0.05212072 -0.01902795 0.041985247
-0.9374308 0.90156823 -0.14546253 1.0263838 -0.06582836 0.9567708 0.1218159 0.0044277045
0.16075724 0.70855147 -0.5723874 0.37282225 0.00709746 0.9795871 0.1034455 0.1602298
0.016732572 0.95665145 0.14079817 -0.1719223 -0.031129513 2.5024526 0.106462575 -0.94981575
-0.013898233 -0.003843402 0.18206553 -0.16327943 1.1026366 0.50955564 -0.05594664 -0.3861373
0.95500094 0.11873643 -0.573129 0.95804757 0.2920316 0.6190251 -0.062973835 0.8810715
-1.4929965 -0.6429192 0.09925737 0.03381108 0.8381023 -1.8210806 0.040971436 -0.86158985
1.3261194 -2.0496151 0.06916201 -0.40536374 0.007364689 0.08886876 1.7016826 -0.7395911
0.34026095 1.96474 -0.72671247 -0.9978327 -0.27747822 0.5240358 -2.1399016 -1.7715862
-0.07230509 -2.7123528 0.08786637 0.07840315 0.15716162 -0.45247734 1.055693 -0.050680522
1.0327847 0.07912536 -0.56554574 0.14332896 -0.058563285 0.068531156 0.6639947 -0.022051731
0.99373513 0.09350422 -0.24860913 0.070075765 -0.5656418 -0.52742785 2.359744 0.8438065
3.320815 -1.1524343 -0.16617225 -0.39976135 0.7029981 0.04437558 -0.11969856 0.9542248
-0.1357676 -1.3859472 0.5438807 1.7578063 0.037454292 -0.20411703 0.06324571 0.051908206
-0.077659324 0.6147104 0.72385216 0.15031089 -0.04167447 -1.4453071 1.3401145 0.07969423
0.15045938 0.009139682 -0.67774826 -0.24983707 -0.2554438 0.4513226 -0.05112111 1.0529675
-0.06631383 -0.60845906 -0.27782062 -0.08536945 -0.024091905 0.478473 0.14156252 -0.07402507
-0.21888086 0.51937485 -0.43638042 -0.5833347 0.04287122 -1.3997283 -1.5038129 -0.0502478
0.04155123 0.019247387 -0.94975406 0.32233894 -0.046193086 0.97414005 -0.21604212 -0.13441499
0.049759682 1.5794922 -0.105758876 0.16877303 0.12566902 2.9070015 0.05671203 0.044763956
-0.26341137 -1.1930726 -0.5526708 -0.27377066 -1.196576 -0.08386391 0.10575799 -0.955835
0.8110328 0.11365746 -0.25546107 0.46574655 0.07941271 -0.0028857265 -0.08103567 0.62499785
-0.10067933 -0.061447002 -0.1871997 0.18255337 -0.026814874 0.25479224 -0.025553033 1.2200863
0.13511807 0.65529025 0.79279864 -1.2298255 0.25053236 -0.26024517 -0.7469894 -0.16094159
0.045953643 2.7813609 -0.265414 -1.3529425 -0.82861876 0.9514544 -0.628107 1.1619034
0.0055842656 0.5283586 -0.8324736 0.030321257 -1.0887616 -0.5618572 1.2107996 0.074033715
1.0340425 -0.10410705 -0.52685976 -0.1215019 0.03897015 -0.116070874 0.8780938 -0.06640601
1.0158228 -0.07394088 0.053124733 -0.04941654 -1.2032993 -1.0757809 -1.5740025 0.58888966
1.7928953 -0.15988243 0.17214051 -0.87498647 0.96172726 -0.12222204 -1.3459077 0.60366434

layers.2.bias f4 [5]
00000000: 4060 063d f85b a13c 199e 9f3d cdd6 853d
00000010: 5899 10bb
0.032806635 0.019697174 0.077938266 0.065351106 -0.0022064056
