tiny_heads/pe.pt (torch, 168808 bytes, 4 tensors)

layers.0.weight f4 [128, 320]
0.0167652 -0.045491528 0.002473447 -0.0053457334 0.002741795 0.030772196 0.032191537 -0.039223768
-0.02507903 -0.020825868 0.029382756 0.008582071 -0.0114281345 0.034037665 -0.021122681 0.061374843
0.0054424163 -0.04538684 0.025857858 -0.06427878 0.0016661922 0.022241084 0.045154113 0.057192065
0.007664294 0.04578173 0.03307517 -0.014797042 -0.015497996 0.013468123 0.038715865 -0.010459012
-0.0069633857 -0.019972354 -0.011969362 0.027618896 -0.019215276 -0.013003436 -0.0048173214 0.044923246
0.0044027586 0.011962873 -0.030331204 -0.0030192218 0.01748769 0.042183567 0.03750791 -0.039505035
-0.059153106 -0.033444487 -0.03448222 -0.036767974 0.009650229 -0.04005434 -0.02503311 0.050918106
0.04248982 -0.0283765 -0.016276233 -0.05197825 0.0019556254 -0.02785488 0.06393574 0.006303295
-0.0024574348 -0.042296585 0.025047386 0.00063406804 0.0015336238 -0.009742746 -0.005698111 -0.026685385
0.061763346 0.022183971 -0.04776477 -0.047203347 0.034011688 -0.041650705 0.034653902 0.06391484
-0.036592416 -0.028817527 0.040177766 -0.005143073 -0.028709583 -0.01920647 -0.032822408 0.011527644
0.026072316 0.005276222 -0.018741062 0.03681701 -0.014350456 0.0588702 0.032285467 -0.060856763
0.016378151 -0.03960459 -0.008963897 -0.054644644 0.0029613043 0.045778226 0.033942156 -0.060489867
0.026122486 -0.029153679 -0.036333233 0.022419417 0.024853975 0.042865906 -0.06378236 0.029436331
-0.021657435 0.013496655 -0.017761663 0.04265802 0.030952299 -0.019700838 0.037056044 -0.05428626
0.04380119 -0.0017596558 0.022132117 -0.03763089 -0.039613582 0.035043757 0.06238034 -0.011492132
0.046432797 0.017070254 0.028176975 -0.034002982 0.008425369 0.032147765 0.028944353 -0.025550893
-0.045171827 0.009715587 -0.0032912483 0.020415504 -0.062348768 -0.060322635 -0.0015264488 0.023569632
0.061847277 -0.029233033 0.030357318 -0.010331532 0.049965084 -0.03497168 -0.02519774 -0.046128407
-0.0130793 -0.004410575 0.016030481 0.014441001 0.021718115 0.037942674 0.011100511 -0.044113636
-0.02238674 0.026119433 0.04073154 -0.010918517 0.0123436395 -0.05888507 0.014080043 -0.016254485
0.048381668 -0.039297007 -0.0037808158 0.0171417 0.045961782 0.03141849 0.0058655594 0.052394323
-0.024173195 0.038892537 0.01064176 -0.024027744 0.021483064 -0.035571486 -0.013617758 -0.02855414
-0.0027923447 0.0013128666 -0.009511071 0.043438945 0.017832166 0.04532833 0.042267814 0.013926058
-0.03696976 0.0387776 -0.036777213 -0.0169194 -0.040115297 -0.034177724 -0.05398536 0.043386653
-0.012419334 0.051419795 0.01052182 0.043526497 0.035510123 0.008863156 0.029161641 0.0016372948
0.01461192 -0.0056966464 -0.014339603 0.013902358 0.022388425 -0.06495545 -0.0104592405 0.032646578
-0.045873452 -0.028993508 0.056597274 -0.017632289 -0.020266956 0.055201016 0.046246577 -0.030365352
0.018553723 0.054013204 -0.043518182 -0.003580042 0.016284028 -0.045618597 -0.013276358 0.061773874
-0.007189949 -0.0324941 0.041573502 0.01916465 -0.039657444 0.04510774 0.005327593 -0.033190854
-0.04184776 -0.025218705 0.046496995 -0.023701807 -0.04177427 0.026487026 -0.011919241 0.039208695
0.00011717483 -0.04131303 0.05600508 -0.034029085 0.0441146 -0.035028577 0.047608756 -0.017141426
00000000: 2c57 893c 5355 3abd 8e19 223b 432b afbb
00000010: b0af 333b f915 fc3c 46db 033d 1aa9 20bd
00000020: 8a72 cdbc 039b aabc 1bb4 f03c d19b 0c3c
00000030: 123d 3bbc 146b 0b3d 7909 adbc 3064 7b3d
00000040: 4c56 b23b 8de7 39bd dcd3 d33c 98a4 83bd
00000050: 2264 da3a ef32 b63c 85f3 383d 3a42 6a3d
00000060: c224 fb3b a085 3b3d d479 073d 4b6f 72bc
00000070: 4eeb 7dbc 67a9 5c3c 8794 1e3d 475c 2bbc
00000080: 1d2d e4bb 109d a3bc 251b 44bc 0641 e23c
00000090: 5b69 9dbc 5d0c 55bc 9fda 9dbb 7001 383d
000000a0: 0445 903b edff 433c 2579 f8bc 23de 45bb
000000b0: 5842 8f3c adc8 2c3d e5a1 193d 08d0 21bd
000000c0: 874a 72bd 16fd 08bd 3a3d 0dbd 049a 16bd
000000d0: fe1b 1e3c 0510 24bd 3d12 cdbc 818f 503d
000000e0: ce09 2e3d d575 e8bc bc55 85bc 25e7 54bd
000000f0: f329 003b eb2f e4bc bef0 823d df8b ce3b
00000100: ea0c 21bb 2f3f 2dbd 2d30 cd3c 9637 263a
00000110: e003 c93a 0aa0 1fbc 38b7 babb 4f9b dabc
00000120: 90fb 7c3d 29bb b53c fea4 43bd 4c58 41bd
00000130: d74f 0b3d ee99 2abd 40f1 0d3d c9e5 823d
00000140: eee1 15bd bc12 ecbc 7191 243d 3987 a8bb
00000150: 5c30 ebbc e356 9dbc ca70 06bd 71de 3c3c
00000160: 9c95 d53c 28e4 ac3b db86 99bc 6fcd 163d
00000170: 2d1e 6bbc e121 713d c43d 043d f144 79bd
00000180: 792b 863c 6c38 22bd 4fdd 12bc 10d3 5fbd
00000190: 7112 423b f381 3b3d ee06 0b3d 39c4 77bd
000001a0: d3fe d53c b2d3 eebc 28d2 14bd eda8 b73c
000001b0: 909a cb3c 2994 2f3d 53a0 82bd 7624 f13c
000001c0: ef6a b1bc 1321 5d3c e880 91bc 2dba 2e3d
000001d0: ad8f fd3c a763 a1bc 14c8 173d 455b 5ebd
000001e0: e068 333d 40a4 e6ba 6a4e b53c d922 1abd
000001f0: da41 22bd 0b8a 0f3d 8782 7f3d 7f49 3cbc
00000200: 5130 3e3d ebd6 8b3c 66d3 e63c b646 0bbd
00000210: 8f0a 0a3c 60ad 033d b51c ed3c 1b50 d1bc
00000220: 1806 39bd 202e 1f3c fcb1 57bb 6a3e a73c
00000230: 6c61 7fbd de14 77bd 1f13 c8ba 1a15 c13c
00000240: 9253 7d3d 1d7a efbc e9af f83c 9645 29bc
00000250: 30a8 4c3d 773e 0fbd 7e6b cebc 24f1 3cbd
00000260: 8f4a 56bc 9686 90bb 5b52 833c f399 6c3c
00000270: 30ea b13c c769 1b3d ebde 353c 80b0 34bd
00000280: 6664 b7bc 6cf8 d53c 1ed6 263d 94e3 32bc
00000290: fa3c 4a3c 7931 71bd fbaf 663c 2028 85bc
000002a0: db2b 463d e6f5 20bd 90c7 77bb c06c 8c3c
000002b0: 6c42 3c3d adb0 003d e133 c03b 6e9b 563d
000002c0: dd06 c6bc c84d 1f3d c75a 2e3c d5d5 c4bc
000002d0: 40fd af3c 68b3 11bd 041d 5fbc 5fea e9bc
000002e0: c5ff 36bb 7e14 ac3a 53d4 1bbc 09ed 313d
000002f0: c314 923c 33aa 393d 0421 2d3d 1f2a 643c
00000300: 9a6d 17bd 43d5 1e3d b4a3 16bd 8e9a 8abc
00000310: f04f 24bd f1fd 0bbd c11f 5dbd 34b6 313d
00000320: 767a 4bbc 909d 523d b663 2c3c d748 323d
00000330: 1073 113d c536 113c 65e4 ee3c 7f9a d63a
00000340: d666 6f3c efaa babb a7f0 6abc b7c6 633c
00000350: ee67 b73c 5d07 85bd 3c5d 2bbc 6bb8 053d
00000360: cde5 3bbd cb83 edbc 8bd2 673d 9771 90bc
00000370: e306 a6bc 761a 623d 0d6d 3d3d c2c0 f8bc
00000380: fafd 973c f33c 5d3d 1f40 32bd 239f 6abb
00000390: 1566 853c 91da 3abd 1585 59bc 9a06 7d3d
000003a0: aa99 ebbb 8918 05bd fa48 2a3d 2fff 9c3c
000003b0: d86f 22bd e5c2 383d 1793 ae3b 22f3 07bd
000003c0: 8f68 2bbd 7597 cebc a273 3e3d 4b2a c2bc
000003d0: 7f1b 2bbd 52fb d83c ec48 43bc 4c99 203d
000003e0: c2bb f538 da37 29bd 9565 653d 1562 0bbd
000003f0: 83b1 343d 207a 0fbd 6601 433d 2d6c 8cbc

layers.0.bias f4 [128]
-0.057919223 0.004212189 -0.05352172 0.003033021 -0.012814463 -0.0049750097 -0.039907448 -0.05767613
0.011874922 0.063118845 0.029925859 0.083264954 -0.01934705 0.037015066 -0.061693486 0.055086266
0.06886472 -0.0016884118 0.005530349 0.036915444 -0.0022894097 -0.0041087717 0.00554236 -0.009276852
0.029357612 0.022895195 0.006374312 -0.058273576 -0.02377154 0.0013398734 0.05135123 0.0046741245
-0.010457441 0.020316893 0.008801831 0.04322671 0.023484964 -0.011873589 -0.026865095 0.084291525
-0.005111894 0.060053002 0.046415646 -0.00017894398 0.007696022 0.03164691 0.04938452 -0.01280745
-0.014811427 -0.0059217224 0.058024563 -0.025771854 0.010265073 0.07595944 -0.025328027 -0.052352693
0.06791227 0.054006856 0.058815747 -0.06746008 0.05741911 -0.0055220826 -0.04733815 -0.011596521
0.07679699 -0.018007468 0.03147744 0.1082531 0.021182608 0.04571828 -0.014254693 -0.030443938
-0.008145364 0.010603256 0.06480258 -0.051189587 -0.008084292 0.040172163 0.039417442 -0.02952632
-0.061629962 0.10326835 0.021130178 -0.020346897 0.002817528 -0.0069227796 0.071220085 -0.010233309
0.047310457 -0.042545434 -0.05761001 0.014394903 0.0693946 0.056819793 -0.019541772 -0.026867786
0.021788998 0.025324011 0.035224687 0.016999772 0.034761164 0.060209654 -0.007592643 -0.049557943
0.009216174 -0.03413278 -0.049674354 0.048642352 0.0026583439 0.05656346 0.09803974 0.0077096187
-0.016546018 -0.024287026 0.015449506 -0.008451379 -0.045310974 0.005652066 0.0011419341 0.05554929
0.009343512 0.074550316 -0.051440082 0.071414515 0.05252762 -0.014085546 0.071512505 -0.06981564
00000000: b53c 6dbd 6706 8a3b 9739 5bbd a6c5 463b
00000010: c1f3 51bc 6805 a3bb fe75 23bd ce3d 6cbd
00000020: 088f 423c 7444 813d 1327 f53c d186 aa3d
00000030: b47d 9ebc 1c9d 173d 4fb2 7cbd 23a2 613d
00000040: f208 8d3d b34d ddba ee37 b53b a634 173d
00000050: ec09 16bb e0a2 86bb af9c b53b f0fd 17bc
00000060: 607f f03c b48e bb3c 9bdf d03b 46b0 6ebd
00000070: 88bc c2bc b19e af3a ab55 523d 6629 993b
00000080: b055 2bbc 9d6f a63c 8e35 103c 7e0e 313d
00000090: 8a63 c03c 7189 42bc 3014 dcbc 09a1 ac3d
000000a0: ad81 a7bb 23fa 753d 551e 3e3d e9a2 3bb9
000000b0: e92e fc3b 31a0 013d 6c47 4a3d 57d6 51bc
000000c0: a1ab 72bc 020b c2bb 2aab 6d3d 7f1f d3bc
000000d0: d62e 283c 9f90 9b3d b97c cfbc c76f 56bd
000000e0: 9715 8b3d 4b36 5d3d c8e8 703d 8328 8abd
000000f0: 4d30 6b3d 96f2 b4bb a6e5 41bd 56ff 3dbc
00000100: be47 9d3d 6684 93bc 7dee 003d cdb3 dd3d
00000110: 2687 ad3c 1743 3b3d 848c 69bc 9165 f9bc
00000120: 2274 05bc 47b9 2d3c 37b7 843d 2cac 51bd
00000130: fa73 04bc 918b 243d 2f74 213d 2ee1 f1bc
00000140: b36f 7cbd 5b7e d33d 3219 ad3c 89ae a6bc
00000150: 47a6 383b 7cd8 e2bb d6db 913d 9ca9 27bc
00000160: 9cc8 413d 1f44 2ebd 79f8 6bbd 99d8 6b3c
00000170: c21e 8e3d dfbb 683d 1116 a0bc d519 dcbc
00000180: d77e b23c 4d74 cf3c c347 103d 1b43 8b3c
00000190: b961 0e3d 669e 763d b5cb f8bb 45fd 4abd
000001a0: 6fff 163c d0ce 0bbd 5677 4bbd 343d 473d
000001b0: 9c37 2e3b 16af 673d 0fc9 c83d f8a0 fc3b
000001c0: 848b 87bc 96f5 c6bc ed1f 7d3c a777 0abc
000001d0: 0098 39bd f734 b93b f3ac 953a a787 633d
000001e0: 8815 193c d6ad 983d d6b2 52bd c641 923d
000001f0: 3427 573d 10c7 66bc 2675 923d 81fb 8ebd

layers.2.weight f4 [5, 128]
-0.045360852 0.037436694 -0.041593924 -0.07010705 0.108524956 0.19931236 -0.025434032 -0.039092895
-0.07514694 0.083216734 0.08959696 0.08280719 0.12265073 0.111948736 -0.02648105 0.0550536
0.007596859 0.022688042 -0.073886365 -0.082907 -0.029638678 0.026146831 0.0942055 -0.06126078
-0.048329502 -0.07595418 0.034348037 -0.0470896 0.045309626 -0.037024684 0.09939791 -0.05850631
-0.03808513 0.024920525 -0.052266397 -0.039646443 0.023694336 0.11965852 -0.073982194 0.080721065
-0.037131142 0.09536241 0.07534583 -0.073416635 -0.03395067 0.07087219 0.061646238 0.07134126
-0.07534057 -0.079467334 -0.45594576 2.1930518e-05 0.17496991 0.6462216 0.065864846 0.038638268
0.059681308 0.14751221 0.7162119 -0.056545764 0.1181092 -0.0065471875 -0.07575876 0.025989668
0.07613272 0.11935133 0.0547607 0.05606729 0.08091828 -0.07260574 -0.029299933 0.096066885
0.03492535 0.026824314 0.05828932 -0.033072583 0.09308423 0.03567605 0.08749025 -0.044786192
-0.045795158 -0.048936613 0.12287464 0.1486539 -0.0018738956 0.04253351 0.06270675 0.056037232
0.10444776 -0.049116485 -0.019080203 0.7230764 0.06791497 0.10618938 0.10043664 -0.046906367
-0.04562286 0.020741018 0.029558668 0.086633675 -0.056091733 0.02020115 0.04356004 -0.059552394
0.035842065 -0.033049613 -0.0499142 0.061105177 -0.03892618 0.058487177 0.025040686 0.036552347
0.03388868 0.060405657 0.013183133 0.013531683 -0.07709316 -0.036375858 0.08372264 0.039705016
0.09649073 0.2036932 -0.043644182 0.09949037 0.093681104 -0.035321057 0.08561375 -0.06235994
-0.02025203 -0.05774787 0.023677902 0.22717339 0.015518601 -0.07383367 0.07287518 -0.019930333
-0.0024148894 -0.07186024 0.06002695 0.052216075 0.06920692 0.013769809 -0.0019754819 -0.0033078326
0.1092956 -0.010154346 0.06606012 0.25977504 -0.06485469 0.045224745 -0.019914288 -0.052323155
0.045612298 0.075067684 0.061234087 -0.043690335 -0.024882102 0.32603046 -0.03234012 0.074886255
-0.01549607 0.042618934 -0.08915434 -0.0014750744 -0.03322289 0.056476157 0.10792333 0.07567198
0.06887475 0.079160295 0.025681768 0.3194518 -0.00540499 0.05422734 -0.057224672 0.15075737
0.020664535 0.033432465 0.20155106 -0.010906284 0.0725648 -0.7309485 0.040872447 0.050790276
0.060596522 -0.07556018 -0.89128155 0.056893993 0.0041213552 0.03865637 0.04589855 -0.07563539
0.03372661 0.05563852 0.14589883 0.107166514 0.026436774 -0.049864575 -0.065021925 -0.078888744
0.19070935 0.04527233 0.01124488 0.0075754966 -0.057443988 -0.05536297 -0.041279763 -0.00894049
0.03066589 0.07156776 -0.088456154 -0.3054497 -0.0779938 -0.06198374 -0.09707133 -0.017734878
-0.0075684665 -0.01732137 0.06464418 -0.7172727 -0.021453023 0.09934923 0.109339744 0.03697798
-0.0022887627 0.019025842 -0.016345518 0.20591462 0.0071055866 -0.107554026 0.0970703 -0.10934184
-0.026188063 0.04854438 -0.08446034 -0.14143722 -0.08079151 -0.041269444 0.1165808 0.03819766
0.21221259 -0.09234299 0.08391276 0.016231524 0.014621285 -0.0013168394 -0.055776943 0.07600545
-0.05228187 -0.6522498 -0.049634688 -0.050246067 0.040014632 0.05094696 0.03273445 -0.087166496
00000000: 4dcc 39bd 3857 193d 645e 2abd 4994 8fbd
00000010: 5542 de3d 8a18 4c3e 085b d0bc df1f 20bd
00000020: a4e6 99bd 896d aa3d 9c7e b73d d196 a93d
00000030: 4e30 fb3d 6145 e53d c9ee d8bc e27f 613d
00000040: 12ef f83b 46dc b93c bc51 97bd 25cb a9bd
00000050: d0cc f2bc e131 d63c d0ee c03d 95ec 7abd
00000060: 28f5 45bd dd8d 9bbd 87b0 0c3d 06e1 40bd
00000070: 9696 393d 32a7 17bd 2291 cb3d 50a4 6fbd
00000080: 27ff 1bbd 2126 cc3c 4a15 56bd 4f64 22bd
00000090: a01a c23c 870f f53d fa83 97bd 1651 a53d
000000a0: d316 18bd 5e4d c33d ea4e 9a3d 765b 96bd
000000b0: dc0f 0bbd 7025 913d c480 7c3d 5e1b 923d
000000c0: 284c 9abd c5bf a2bd b971 e9be 6ef7 b737
000000d0: 502b 333e c76e 253f 26e4 863d 2943 1e3d
000000e0: 6374 743d 710d 173e aa59 373f 889c 67bd
000000f0: 3ce3 f13d ca89 d6bb 6927 9bbd 49e8 d43c
00000100: 79eb 9b3d 786e f43d c14c 603d d1a6 653d
00000110: 7cb8 a53d 51b2 94bd 6a06 f0bc b7be c43d
00000120: e20d 0f3d aabe db3c c8c0 6e3d 1e77 07bd
00000130: f2a2 be3d 0d21 123d 172e b33d ba71 37bd
00000140: b493 3bbd c271 48bd b3a5 fb3d ba38 183e
00000150: 819d f5ba 9e37 2e3d 666c 803d 4c87 653d
00000160: b5e8 d53d 5e2e 49bd 164e 9cbc 891b 393f
00000170: 0117 8b3d d179 d93d bab1 cd3d e420 40bd
00000180: 09df 3abd 11e9 a93c 0525 f23c ff6c b13d
00000190: 72c0 65bd e27c a53c 036c 323d 36ed 73bd
000001a0: 21cf 123d 085f 07bd d572 4cbd 6c49 7a3d
000001b0: 0f71 1fbd 4090 6f3d 2022 cd3c eab7 153d
000001c0: dbce 0a3d ec6b 773d 11fe 573c feb3 5d3c
000001d0: 05e3 9dbd dafe 14bd c776 ab3d baa1 223d
000001e0: ef9c c53d f394 503e 3ec4 32bd 9bc1 cb3d
000001f0: e1db bf3d d0ac 10bd 4356 af3d 236d 7fbd
00000200: 96e7 a5bc 0889 6cbd 29f8 c13c 24a0 683e
00000210: bb41 7e3c 1b36 97bd 953f 953d f044 a3bc
00000220: 1f43 1ebb 762b 93bd d2de 753d 86e0 553d
00000230: 5cbc 8d3d c49a 613c 1677 01bb 39c8 58bb
00000240: 5fd6 df3d 6a5e 26bc 874a 873d 3c01 853e
00000250: 89d2 84bd 953d 393d 4a23 a3bc ce50 56bd
00000260: f6d3 3a3d 16bd 993d 98d0 7a3d a3f4 32bd
00000270: 8dd5 cbbc 77ed a63e 1377 04bd f75d 993d
00000280: 3ae3 7dbc 3191 2e3d 8d96 b6bd 4957 c1ba
00000290: ba14 08bd 8b53 673d e806 dd3d e9f9 9a3d
000002a0: 340e 8d3d cb1e a23d 9262 d23c 308f a33e
000002b0: 581c b1bb 7d1d 5e3d 6b64 6abd 2460 1a3e
000002c0: ac48 a93c 7bf0 083d 6763 4e3e 45b0 32bc
000002d0: db9c 943d 711f 3bbf de69 273d 7709 503d
000002e0: 0f34 783d 4cbf 9abd 072b 64bf ad09 693d
000002f0: 6f0c 873b 2456 1e3d 1e00 3c3d bae6 9abd
00000300: ea24 0a3d 37e5 633d 8166 153e 1e7a db3d
00000310: ef91 d83c cc3e 4cbd 372a 85bd 6c90 a1bd
00000320: 5049 433e 7b6f 393d 723c 383c df3b f83b
00000330: 634a 6bbd 48c4 62bd f814 29bd 227b 12bc
00000340: 0837 fb3c 1e92 923d 8028 b5bd e763 9cbe
00000350: 37bb 9fbd aae2 7dbd 55cd c6bd bc48 91bc
00000360: e600 f8bb 8ce5 8dbc 2b64 843d 2f9f 37bf
00000370: 40be afbc 9c77 cb3d 84ed df3d 3976 173d
00000380: 11ff 15bb 15dc 9b3c 09e7 85bc 48db 523e
00000390: fbd5 e83b 4945 dcbd cbcc c63d 9dee dfbd
000003a0: 5988 d6bc 79d6 463d 8bf9 acbd ebd4 10be
000003b0: 0576 a5bd 260a 29bd eac1 ee3d 2675 1c3d
000003c0: 424e 593e 521e bdbd 74da ab3d f9f7 843c
000003d0: 1d8e 6f3c cc99 acba 5d76 64bd bfa8 9b3d
000003e0: 8425 56bd d8f9 26bf be4d 4bbd d2ce 4dbd
000003f0: 62e6 233d c2ad 503d 8f14 063d 5984 b2bd

layers.2.bias f4 [5]
-0.008728024 0.024311773 -0.02629548 -0.026744029 -0.05309848
00000000: fcff 0ebc 7c29 c73c 9e69 d7bc 4b16 dbbc
00000010: cb7d 59bd
