tiny_heads/pe.pt (torch, 168808 bytes, 4 tensors)

layers.0.weight f4 [128, 320]
00000000: 37c8 c8bc 77ac 88bc a219 2a3b 49f0 3bbc
00000010: 58c3 973d 9cf2 a8bd 5828 853b 70e2 883c
00000020: 3f64 fdbc 371e 20bd d4a8 4c3d 9a97 ba3b
00000030: e01c a8bd f82d c03c 63ce 343b a820 2ebc
00000040: 31f3 e43b 09be a6bd aab8 89bc e5e8 133d
00000050: 0541 09bd ba93 ba3c b9b2 71bc 4246 2cbd
00000060: 45fc 39bb a2f4 953d ebff de3c e375 283d
00000070: fe88 c63a 48e4 de3c 928e 2bbd 9d67 6cbc
00000080: c4db c23c 37cf 26bd 6418 4e3d 4410 1f3c
00000090: 5d20 fcbb b78c 30bc 254a 163d 4c3f 28bc
000000a0: 8796 8e3d 5901 d1bc 5063 a2bc ccba d93b
000000b0: 8291 74bc 5119 443d f7ee 7fbc 5e57 0abc
000000c0: 8ebd 013c fcb9 47bc 7077 73bd a1c3 ad3d
000000d0: 74bb 94bc 84ff 9e3d 1d91 13bd d4ac febb
000000e0: 9b48 073d 192d 143b 9286 2f3d d3b6 d5ba
000000f0: 25c6 f0bc b7e3 96bc 63a0 8cbd 5e7d 64bd
00000100: b19f 5c3d d2a1 f6bb bc98 aa3d ce90 8ebb
00000110: 3226 88bd 1206 a33d e3ab b83c e706 543d
00000120: 0991 03bd 86ca b0ba 2ca3 06bd 3502 0f3b
00000130: 9cc1 6c3d ab09 18bd 5e55 a5bd db0a 193d
00000140: 3da1 90bb ba1c 8b3d 7c09 d0bc 3469 e3bc
00000150: 208a d43c 086b 2dbd 7a74 863d fcba a2bd
00000160: 4a52 3ebc 5342 903d 4ec9 e8bc d370 93bd
00000170: 18f3 e1bc e97a 1b3c 0955 543c 8d53 7f3d
00000180: e162 0ebd bd8e abbb 01af b83d 03e6 ef3c
00000190: 1ac8 893d 4703 c93c c58b 5fbd 6ded 11ba
000001a0: d30b bbbd f004 8c3c c883 46bc 254e 4e3d
000001b0: cb74 713c a810 fdbc ce4c 823d 967d a03d
000001c0: 217a 233d 49c4 a0bc ed44 353b fdc4 2e3c
000001d0: 25da 0b3c 5709 20bc dd55 9fbc 8d7e 123d
000001e0: 58af 57bb 148f 913d 1617 923d 4793 a33d
000001f0: 4055 ab3b bdf2 7fbc d73b a6bd ee56 8abd
00000200: 5a13 723c b9b9 123c a0cb 9a3d 60bb c63a
00000210: 74a4 48bc dadb 5a3d f24f 4b3d 9d5d 17bd
00000220: bef4 4bbc 0794 11bd 1084 f3bc 4bee e93c
00000230: b721 2c3d df5e 73bd 9a44 a5bc 4429 3d3d
00000240: 67ed cc3a 51dc 2fbd d068 2dbc 837e c23c
00000250: 1586 af3c 6c3c 78bc 4d58 2e3d 9882 60bd
00000260: 6881 41bd a3ef 953b 64f9 1a3c bf85 e7bc
00000270: 0d4b 403d 7f21 d0bc 1a06 e8bc 15ab f6bc
00000280: 8678 b6bc c6f2 96bc f0f0 60bc 4fb8 573c
00000290: 02ed e43c a564 37bd 3262 723c 4c3c 95bd
000002a0: eddb c53c 0e0e 873d 07c7 a9bc 8b8b 583d
000002b0: 7df2 64bc 9049 8f3d 80c4 8cbb b34c 6b3d
000002c0: 6c96 d3bc c002 6abd e873 adbd bec4 c0bb
000002d0: 2789 953b d2f9 15bc b668 a13c b464 2c3d
000002e0: 96e5 733c 0285 e8bb d105 97bc 2873 193c
000002f0: 4efc a2bd bb04 8fbd 4294 38bd 5e11 1f3d
00000300: 113c a13d 86ce d6bc 38e6 483b 7e20 f63c
00000310: 3d8b 88bd 4605 a93d ef0c 173c 5825 413d
00000320: 96e8 6abd b05f fa3c 2913 7c3d 1e9a 35bb
00000330: 61f6 a1bd 3f2e 453d 9396 40bd e593 1ebc
00000340: 993f 80bd 3c72 a73d 9f4b 343d b124 a43c
00000350: 16c5 87bd b51b 713d e80d 403d d90b 313d
00000360: 96c1 5fbc 0aec be3c 82c0 913d c240 4ebd
00000370: 8187 9aba a461 e1bb c519 813d e7f0 ab3d
00000380: 83b1 333d 0790 69bb c25d f4bc e1c6 1c3c
00000390: 7059 8cbc c06d d73b bf86 88bd 3a91 953d
000003a0: 37b3 84bc 812b 22bd 1a2b f63c 4fef 1d3d
000003b0: 2cde fb3d d1de 623c a41d b73c 17b8 313d
000003c0: bd7b 60bd eea8 953b 2e93 823d 6201 843d
000003d0: 5e43 5bbc 233a 9bbd 0a7d 633c 29f2 89bc
000003e0: 8abb 6d3c 6b30 823b 314c 81bd 64ba 91bd
000003f0: 6b54 073d 7c97 e2bc afc1 4ebd 74d4 2dbb
-0.024509532 -0.0166838 0.002595522 -0.011470863 0.07410306 -0.08249399 0.0040636472 0.016709536
-0.03093159 -0.039091315 0.049965695 0.005694342 -0.082086325 0.02345942 0.0027588836 -0.010627903
0.0069869985 -0.08141715 -0.016811687 0.036110777 -0.033509273 0.02277552 -0.014752083 -0.04205919
-0.0028379124 0.07322051 0.02722164 0.04112805 0.0015147028 0.027208462 -0.041884013 -0.014429
0.023786433 -0.04072496 0.05031623 0.009708468 -0.0076942877 -0.0107757365 0.036691803 -0.010268997
0.069623046 -0.025513338 -0.019822747 0.0066445824 -0.01492727 0.047875706 -0.0156209385 -0.0084436815
0.0079187285 -0.012190338 -0.059440076 0.08484579 -0.01815579 0.077635795 -0.036027063 -0.0077720676
0.033028226 0.0022609888 0.042852946 -0.0016305096 -0.029391358 -0.01841913 -0.06866529 -0.055783622
0.05386323 -0.0075266147 0.08329913 -0.004350758 -0.0664791 0.07960142 0.0225429 0.051764395
-0.03212074 -0.0013488091 -0.032870457 0.0021821384 0.057801828 -0.037118595 -0.08072923 0.03736387
-0.0044137524 0.067925885 -0.025395148 -0.027760126 0.02594477 -0.0423384 0.06565185 -0.07945821
-0.011616299 0.070439 -0.028416302 -0.07199254 -0.027581736 0.009489753 0.012959727 0.06233554
-0.034762267 -0.0052355216 0.09017754 0.029284483 0.067276195 0.024537696 -0.054576654 -0.000556669
-0.09133115 0.017092198 -0.01211638 0.050367493 0.014737318 -0.030891731 0.063623056 0.078364536
0.039911393 -0.019624846 0.0027659491 0.010667083 0.008535896 -0.009767852 -0.019450122 0.03576522
-0.003291091 0.07107368 0.071333095 0.07987075 0.0052286685 -0.015621838 -0.08116882 -0.06754862
0.014775122 0.008955413 0.0755837 0.0015162043 -0.01224624 0.053432323 0.04963679 -0.03695451
-0.012448488 -0.03554156 -0.029726058 0.02855601 0.04202434 -0.059416648 -0.020174313 0.046181932
0.0015634716 -0.04293472 -0.010584071 0.023741966 0.02142624 -0.015151124 0.04256468 -0.054812044
-0.047242552 0.004575686 0.009458873 -0.028262017 0.046946574 -0.025406597 -0.028323222 -0.030110875
-0.022274267 -0.01842631 -0.013729319 0.013166501 0.027945045 -0.044773716 0.014793919 -0.07286891
0.02415272 0.065944776 -0.020724786 0.052867454 -0.013973829 0.06996453 -0.0042958856 0.057446193
-0.025828563 -0.05713153 -0.08469373 -0.0058828285 0.004563469 -0.0091538 0.01970325 0.042088225
0.0148862805 -0.007095934 -0.01843539 0.009365834 -0.079582796 -0.06983324 -0.045063265 0.038834922
0.07872785 -0.026221525 0.00306548 0.03004479 -0.066671826 0.08252959 0.009219392 0.047154754
-0.057350717 0.030563205 0.06154171 -0.002771027 -0.07908321 0.048139807 -0.0470186 -0.0096788155
-0.0626213 0.08176085 0.04401743 0.020037027 -0.06629388 0.058864314 0.046888262 0.04322419
-0.013656994 0.023305912 0.07116796 -0.050354727 -0.0011789651 -0.0068780947 0.06303743 0.08395558
0.04387046 -0.0035638826 -0.029829863 0.009568901 -0.01713249 0.0065743625 -0.06666326 0.073030904
-0.016198738 -0.03959227 0.03004985 0.0385583 0.12298235 0.013847069 0.022353001 0.043388452
-0.054805506 0.004567257 0.063757285 0.06445576 -0.013382761 -0.07579448 0.013884792 -0.016839104
0.014510045 0.003973057 -0.063133605 -0.07115629 0.03303949 -0.027660124 -0.05047768 -0.0026524337

layers.0.bias f4 [128]
00000000: a85b 4a3c 00e4 333d 36e4 4d3e bcfb a9bc
00000010: b42f 38bc ad49 8ebc c615 973b 2d99 8bba
00000020: 7c7b 9a3d 8c17 80bc 53c2 14bd dba1 ad3d
00000030: d0f7 693d fc2a c83c 5578 bf3c 33b3 163d
00000040: 638d c1bc 8d15 753c e539 7abd 3c5c f5bb
00000050: 11af 963b c563 94bc f4dc a13d 5db7 ac3d
00000060: 7e52 5b3d c39e 3d3d 55bd 073c eb50 f5bc
00000070: b286 4a3d 2f57 063d 59b3 84bd c4ef 0a3d
00000080: 4b95 1a3c 5876 ce3c 7bca 253d 0f6c dabc
00000090: 9aa3 6fbc 5b95 e73b 0aff 90bc 7591 6e3c
000000a0: 61bd 9eb9 eb6c 333c 6dde 953d dae6 22bc
000000b0: 9348 71ba d27a 613d df80 c13c 983e 79bb
000000c0: 3944 753d 8512 bfbc 622e dc3a e00f 1e3d
000000d0: 4364 0fbc 486e 6dbb 4c4e 96bc ee72 2bbd
000000e0: 42eb 7c3d 434d 0ebc d37d 4dbd 3b3d 573d
000000f0: 3f2a 583d 90ee 3b3d e73d 2bbc 5e1a 7dbd
00000100: 4e2b 823d 2bbb 9c3d 83c3 31bb 7603 893d
00000110: 1a38 933d 2f5b e33c c208 243b faaa e93c
00000120: 35cb 1c3d f792 0d3d b905 d23c d111 67bb
00000130: 32db 903d 491d 0b3d 22c5 3e3d 4d6a 33bc
00000140: 63fd 913a f75b 87bc 925d c43a 8603 abbc
00000150: 8ecd 44bd f043 b73c 2a99 6ebd 8471 95bc
00000160: 9a94 a93d 8d87 9a3d d4ee 65bc 1062 cd3c
00000170: c6ef a43d d18c 08bd d6a0 033d c6a2 963c
00000180: 2ce7 fc3d abb7 5cbd 00ae 4cbd 02f6 bc3c
00000190: 8180 b53b df96 81bd 1cf2 93bc f597 783d
000001a0: 2a28 60bc 640c 173d c002 8a3d 454f ca3c
000001b0: 6145 2bbc ff99 80bc 90b7 923d d3c1 3b3d
000001c0: 4651 9cbc 161f 5fbd 0290 cdbc 1477 723c
000001d0: 2ea6 e9bc 4120 073d e715 2f3c 6cd9 0cbc
000001e0: 3ab0 b53b 46e7 edbb 032c 803d 9e7b 12bd
000001f0: e236 9c3d 3ad8 cd3b 7e8d 7ebd 491f 523d
0.012350954 0.04391861 0.20106587 -0.02074992 -0.011241842 -0.017369116 0.00461075 -0.0010650508
0.07543084 -0.015636228 -0.036318135 0.08478137 0.057121098 0.024434559 0.023372808 0.03679199
-0.023626989 0.014958751 -0.06109037 -0.007487802 0.0045985063 -0.01811398 0.079034716 0.08433411
0.053545468 0.046293985 0.008284886 -0.029945811 0.04944486 0.03279799 -0.0647952 0.033920065
0.009435008 0.025202915 0.040476304 -0.026662854 -0.014626408 0.007067365 -0.017699737 0.014561047
-0.00030277207 0.010951261 0.07317815 -0.009942735 -0.0009204235 0.05504877 0.02362102 -0.0038031694
0.059879515 -0.02332426 0.0016798491 0.03858936 -0.008751932 -0.0036229063 -0.018347882 -0.041857652
0.061747797 -0.008685413 -0.050168823 0.05254863 0.052774664 0.045881808 -0.01045177 -0.061792724
0.06355916 0.07652887 -0.002712459 0.06690113 0.07188435 0.02775344 0.0025029634 0.02852391
0.03827973 0.034563985 0.025637494 -0.0035258422 0.07073058 0.033963475 0.04657472 -0.010950637
0.0011138137 -0.016523344 0.0014981499 -0.020875704 -0.048047595 0.022371262 -0.058251537 -0.018242605
0.082802966 0.075453855 -0.014033992 0.025071174 0.08053546 -0.033337418 0.032135807 0.018388163
0.1234878 -0.053886097 -0.049970627 0.023066524 0.0055390005 -0.063276045 -0.018059783 0.060691793
-0.013681451 0.03687705 0.06738806 0.024696002 -0.010453553 -0.015698431 0.07163918 0.045839142
-0.019081723 -0.054473005 -0.025093082 0.014798898 -0.028521623 0.032989744 0.010686374 -0.008596759
0.0055446895 -0.007260236 0.062583946 -0.03576242 0.076276556 0.0062818797 -0.062146656 0.051299367

layers.2.weight f4 [5, 128]
00000000: d6cc be3d bc38 323e d5b5 833e 5715 68bd
00000010: 9518 c93d 673b e03c e10f 8dbb d427 8bbd
00000020: 29c3 643d dd32 903d c2b6 c2bc e4cf c03d
00000030: 41be b63d 3e37 013d acec 46bd f1a4 c7bc
00000040: 9d7f a53d d5cd a03d 027a 96bd 14aa f2bc
00000050: 2b0e b33d 4554 18bd eff4 aa3d b6b2 5a3d
00000060: 9ef4 4e3d 0fb8 ce3d 182b 453d b8da 8abd
00000070: 7eec e03c d5cd d23d d500 49bd 2093 d93d
00000080: 3b36 453c 6c0f 9e3d b941 753d 64b9 a0bc
00000090: b510 babc 3c9d 8c3d 1a7e 6e3d 9614 39bd
000000a0: 3441 e33d f788 3cbd 2c1c c63d 1748 cb3d
000000b0: d4eb 9fbc f2ca 563d 66f7 04bd 0dba b0bc
000000c0: aaf9 e03d b647 0d3c c22f ca3c e11b aa3d
000000d0: 66e9 c73d 7ab7 583b 81f9 08bc 6d7b 91bd
000000e0: cc5b 863d 0394 a03d 922b 87bd b3cd ef3d
000000f0: 66a3 053e e3d5 53bd 22a5 bf3d c7dd 81bd
00000100: 2a0a 913d f460 b23d db43 993c 8955 d83d
00000110: a9f4 be3d 25bc 90bd 7f10 4f3d 82ca bb3d
00000120: a248 e23d 0aed e23d 0b69 7b3d fdc0 54bc
00000130: a9f3 373d c70a 0e3c a29e da3d efd8 64bd
00000140: bb9b 5cbd 186c eb3d b5cd 8d3c b801 d33d
00000150: 9b72 72bc cbec bf3d 9062 933c e9d2 0cbb
00000160: 9061 563c 37ab ee3d 9a93 793d 6ae0 723d
00000170: 8864 533d 7c35 b8b9 338e af3d 6b03 09bc
00000180: 0b25 27be a0d8 a3bd a221 b53c 6d36 bf3d
00000190: eac0 9abd b39b 85bd e581 143d 11cd ae3d
000001a0: 5fb3 9b3d 0466 a93d 2a0a 8c3d 0d64 a73d
000001b0: de98 54bd a4bb 673b a893 a53d de94 f43d
000001c0: 02c6 69bd 6a7f 97bc 5948 bcba 22ba 9d3c
000001d0: 9e45 bb3d 3168 d43d 1127 a63d d5ef 773d
000001e0: 6cf2 ef3d 02dd 75bd 3e34 5a3d 3b19 5fbc
000001f0: 0d30 d33d 1921 0a3d 86fc 7ebd 3325 cd3d
00000200: 1c17 19bd 9407 313d 7382 bdbe bc2f f8bc
00000210: 1e20 eabd 4a45 cabd 5017 753d 6ede a9bd
00000220: 6166 debd ed7b b6bd 40c9 013d 0745 603d
00000230: 6cd7 c9bd ba5b 93bd 3adc 3a3c 0750 93bd
00000240: 6fbb e0bc 6eff bb3b 250f cd3c 19f3 9dbd
00000250: 2025 ccbd 288f dabb 1d0e 4bbd c6b8 0d3d
00000260: 1ba1 bfbd 17be 8aba effe 3abd a392 c0bd
00000270: 3c16 4c3c 4715 b13c e723 80bd 8136 0ebe
00000280: 030e 19bd f342 cdbd 1f66 b6bc de7a 8a3c
00000290: 2fa8 583d 9cac 603c 6643 d53c fe70 1e3d
000002a0: 85bb 65bc 18ed 1d3d 8f04 32bc 1069 99b9
000002b0: f407 69bd 5c22 edbc 8370 98bc 4d40 70bd
000002c0: 4cc2 bcbc 234e 9abd f4fe 65bd 0ffa 64bd
000002d0: f6ce f8bc 8042 513d a36e e2bc 6516 293d
000002e0: bd65 c0bd 0049 d53c 0a93 b3bd ea9c 5a3a
000002f0: 0f06 b63c 4e31 48bd 2b5e f5bc 4b28 eabc
00000300: 1a85 b1bc 6df2 54bd 1dca d9bd c875 8dbd
00000310: dd0c 323d fc02 153d 3099 8c3d 6e1c cdbd
00000320: 8338 333d 211a d9bc 3ecc 9a3c efb4 973d
00000330: 1988 9dbd c060 78bd d94e b9bd 328a c3bd
00000340: d2dd 65bd 59aa a3ba f982 183d 5fcd 5c3d
00000350: 375b 70bc 2d6c 56ba cb82 3f3c 58fd 133c
00000360: 9207 c7bd e67a aabd bb76 773d 13a5 053b
00000370: b571 643d 7440 903d e02c b7bd 7805 e23d
00000380: 426f b83e 677f 15bc 73d4 72bd 4dad 5d3d
00000390: bac2 1fbd f269 9fbd 8604 75bd 6761 283d
000003a0: b455 9dbd a4d1 043b 56ea aebd 5bdb 723d
000003b0: 3af2 973d a24c b33c a9ad 593d 9527 bcbd
000003c0: 3d91 713d 22bb b4bd cff9 35bd 407e db3c
000003d0: 409e b9bd 4c9f bdbd 70a2 03bd bdeb 55bc
000003e0: e867 4bbd 6d8e cdbc 7dbb 1c3d a606 9a3d
000003f0: eb82 af3d 900c 63bd 9d80 02bd ef81 39bd
0.09316413 0.17404455 0.25724664 -0.056660976 0.09819142 0.027372075 -0.0043048714 -0.06794706
0.05585018 0.070409514 -0.023768786 0.09414652 0.08923007 0.031546824 -0.04856555 -0.024370642
0.08080981 0.07851759 -0.0734749 -0.029622115 0.08742937 -0.03718974 0.083474986 0.05339309
0.050526254 0.100937 0.0481368 -0.067799985 0.027456518 0.102931656 -0.04907306 0.10623765
0.012036855 0.07717785 0.05987713 -0.019619651 -0.022713045 0.068659276 0.05822573 -0.045185648
0.11096421 -0.046029057 0.09673342 0.099258594 -0.019521631 0.052439637 -0.0324625 -0.02157309
0.1098512 0.008623054 0.024680976 0.08306099 0.09761314 0.0033068345 -0.008360268 -0.0710362
0.065604776 0.07840731 -0.06600107 0.11709156 0.13050613 -0.05171765 0.093576685 -0.06341129
0.07082017 0.087098986 0.018709114 0.105631895 0.09324009 -0.07067136 0.05055284 0.09169485
0.1104901 0.11080368 0.061379474 -0.012985465 0.044910107 0.008669562 0.10674788 -0.055870946
-0.053859454 0.114952266 0.017310003 0.10303062 -0.014797832 0.093713365 0.017991334 -0.0021488017
0.013084784 0.116537504 0.06093178 0.05929605 0.051609546 -0.00035135064 0.08572044 -0.008362631
-0.16322725 -0.08000302 0.022110764 0.09336553 -0.07556327 -0.06523838 0.03625669 0.08535207
0.07602572 0.08271411 0.06837876 0.0817338 -0.051903598 0.0035359645 0.08084804 0.11942457
-0.0570736 -0.018493373 -0.0014364823 0.019253794 0.09144138 0.103714354 0.0811292 0.060531456
0.1171616 -0.060025223 0.05327248 -0.013616855 0.10311899 0.03372297 -0.062252544 0.10016861
-0.037375554 0.043220118 -0.37013587 -0.030296199 -0.11431907 -0.09876497 0.059836686 -0.08294378
-0.10859371 -0.08910356 0.031686068 0.05475333 -0.098555416 -0.0719523 0.011405045 -0.071929984
-0.027433125 0.0057372367 0.025031636 -0.07712383 -0.099680185 -0.0066698976 -0.049574006 0.03460004
-0.093569 -0.0010585216 -0.04565328 -0.09402969 0.012456473 0.021616591 -0.06256848 -0.13887979
-0.03736688 -0.10022535 -0.022265492 0.01690429 0.052894767 0.013713028 0.026033115 0.038681976
-0.014021759 0.03855619 -0.010865345 -0.00029260712 -0.05689235 -0.028947048 -0.018608337 -0.058655072
-0.023041867 -0.07534435 -0.056151345 -0.055902537 -0.030372124 0.05108881 -0.027640646 0.041281123
-0.09394405 0.026035786 -0.0876828 0.0008339422 0.022219686 -0.048875146 -0.02995213 -0.028583666
-0.021669913 -0.051989008 -0.10634253 -0.069072306 0.0434693 0.0363798 0.06865156 -0.10015188
0.043755066 -0.026501717 0.018896218 0.07407557 -0.07691974 -0.060639143 -0.09048242 -0.09547843
-0.056119747 -0.0012486681 0.03723428 0.053906795 -0.014670185 -0.00081795716 0.011688898 0.00903257
-0.09718241 -0.08324222 0.060415965 0.0020392581 0.055772502 0.070435435 -0.08944106 0.11036199
0.36022383 -0.009124613 -0.05928464 0.05412035 -0.039004065 -0.07783879 -0.059818767 0.041108515
-0.07682362 0.0020266557 -0.0854079 0.059291225 0.07419248 0.021887127 0.05314413 -0.09187237
0.0589764 -0.08824755 -0.04442769 0.0267936 -0.09063387 -0.09258899 -0.032137334 -0.013056693
-0.04965964 -0.025092328 0.03826474 0.07520799 0.085698925 -0.055431902 -0.031860936 -0.04528993

layers.2.bias f4 [5]
00000000: 836f 003d 6ae1 aebd 8019 49bd 246c a0bd
00000010: 632c 52bc
0.031356346 -0.08539088 -0.049096584 -0.07833126 -0.012827965
