tiny_heads/pe.pt (torch, 168808 bytes, 4 tensors)

layers.0.weight f4 [128, 320]
0	0xbeb22648	-0.3479483
1	0xbe0260df	-0.12732266
2	0x3df99704	0.12187007
3	0xbe203224	-0.15644127
4	0xbc40936c	-0.011753898
5	0x3e237e78	0.15966213
6	0xbe043ec5	-0.1291457
7	0x3da4e13f	0.08050775
8	0x3dab676d	0.08369336
9	0x3e999aa5	0.30000797
10	0x3cb9450d	0.022615934
11	0xbd9a7073	-0.07540979
12	0x3da56ada	0.08077021
13	0x3ec33412	0.38125664
14	0xbcf84bb5	-0.030309537
15	0x3e4901b1	0.19629551
16	0xbdb8cc37	-0.09023326
17	0xbf219e03	-0.6313173
18	0x3e982e49	0.29722813
19	0xbd41903b	-0.04725669
20	0x3e837329	0.25673798
21	0xbeb0ee1a	-0.34556657
22	0xbe61cfd2	-0.22051933
23	0x3e3b6c9e	0.18303153
24	0xbeb4e31b	-0.35329518
25	0x3db47b76	0.08812611
26	0x3d4671e3	0.048448455
27	0x3e81c8ad	0.25348416
28	0xbe557746	-0.2084628
29	0xbd46d4a6	-0.04854264
30	0xbe5e26cd	-0.21694489
31	0xbd9cbbf8	-0.0765304
32	0x3e18218d	0.14856549
33	0xbd93ee70	-0.07223213
34	0x3d1dc6d2	0.038519688
35	0x3da468cd	0.08027802
36	0x3d93ec0c	0.07222757
37	0xbd08dc17	-0.03341302
38	0x3e2da1cd	0.16956253
39	0xbe0ae5ad	-0.13564177
40	0x3d32dc1d	0.043666948
41	0x3e02236b	0.12708823
42	0xbd46e661	-0.04855955
43	0xbe34dfad	-0.1766345
44	0x3e8b7c6f	0.27243373
45	0xbe8d57eb	-0.2760614
46	0x3d051f44	0.03250052
47	0xbd819368	-0.06326944
48	0x3dd562ad	0.104192115
49	0x3d817be0	0.063224554
50	0x3cceeff2	0.0252609
51	0x3d508c4e	0.050915055
52	0xbdafca78	-0.0858354
53	0xbc57b56e	-0.013165815
54	0x3c637723	0.013883385
55	0x3d6f804f	0.058471974
56	0xbe2366b0	-0.15957141
57	0xbe3a9014	-0.18219024
58	0xbe7bc997	-0.24588619
59	0x3e4bbb18	0.1989559
60	0xbcf0b453	-0.02938286
61	0x3cdb9171	0.02680275
62	0xbd8056fe	-0.062665924
63	0x3d81f652	0.0634581
64	0x3df673a0	0.120337725
65	0xbe55a146	-0.20862302
66	0x3d9456d8	0.07243127
67	0xbd911a21	-0.07085062
68	0xbe2c87dd	-0.16848703
69	0xbe252dc2	-0.16130736
70	0x3d98299c	0.07429811
71	0xbb0470db	-0.0020208869
72	0x3dc0eb4e	0.09419881
73	0x3d834209	0.064090796
74	0xbe7e582b	-0.24838321
75	0xbbef0f6d	-0.00729554
76	0xbe537ab4	-0.20652276
77	0x3e34c8bf	0.17654704
78	0xbe8b3716	-0.27190465
79	0xbd69c1f9	-0.057069752
80	0xbcaf9838	-0.021434888
81	0xbb3bb149	-0.0028639606
82	0x3e4b4b38	0.19852912
83	0xbf04a758	-0.51817846
84	0xbda3265c	-0.07966301
85	0xbe0352e9	-0.12824596
86	0xbe13a24a	-0.14417377
87	0xbdb4e313	-0.088323735
88	0xbe2efb3a	-0.17088023
89	0xbe380d24	-0.17973763
90	0x3e8df8e9	0.27728966
91	0x3e1dfd34	0.1542862
92	0x3cc1ab0b	0.02364113
93	0x3edad650	0.42741632
94	0x3d85afbd	0.0652766
95	0x3daecdcb	0.08535346
96	0xbe37e714	-0.17959243
97	0x3eb615c2	0.35563475
98	0x3e39ecf2	0.18156794
99	0x3e84c89a	0.25934297
100	0x3d4b748e	0.049671702
101	0x3e4718aa	0.19443002
102	0xbc69ff52	-0.0142820645
103	0xbd6ff604	-0.05858423
104	0xbca0eba7	-0.019643618
105	0x3db81280	0.089879036
106	0xbe1c9e53	-0.15294771
107	0xbc675c88	-0.014121182
108	0xbdf4a4d0	-0.11945498
109	0xbe344ef5	-0.17608245
110	0xbe50d8ee	-0.20395252
111	0x3e3917a3	0.18075423
112	0xbdf136bf	-0.1177802
113	0x3dac5f87	0.08416658
114	0xbf3b62c1	-0.7319756
115	0xbdf905e2	-0.12159325
116	0xbc8ecbde	-0.017431196
117	0x3d269de2	0.040677913
118	0xbdb355b4	-0.08756581
119	0xbcce0ff1	-0.025154086
120	0x3d65921c	0.056047544
121	0x3e6586e6	0.22414741
122	0xbe864e40	-0.26231575
123	0xbe873723	-0.26409253
124	0xbe212bdd	-0.15739389
125	0xbee90df4	-0.45518458
126	0x3d8e684c	0.06953487
127	0xbd9e3a20	-0.0772593
128	0xbe50f25e	-0.20404956
129	0x3e284420	0.16432238
130	0x3d8f7eca	0.07006605
131	0x3f0a899f	0.54116243
132	0x3e863c28	0.2621777
133	0xbe51e45c	-0.20497268
134	0xbe4e1129	-0.20123734
135	0x3c3de49e	0.011590151
136	0xbd81863e	-0.06324433
137	0xbe3a9acb	-0.18223111
138	0x3e745c22	0.23863271
139	0xbcffb226	-0.031212877
140	0xbe9797c0	-0.29607964
141	0xbe368416	-0.17823824
142	0xbe8829a8	-0.2659428
143	0xbcc70eee	-0.024299111
144	0x3ea17b3a	0.31539327
145	0xbd037e16	-0.032102667
146	0xbdabaf58	-0.083830535
147	0xbdf608ce	-0.12013398
148	0x3cd24d7f	0.025671719
149	0xbddb34d9	-0.10703439
150	0x3bbc3964	0.005744146
151	0xbd1f7a69	-0.0389351
152	0x3baaf7de	0.0052175364
153	0x3d061b0c	0.032740638
154	0x3cc5f017	0.024162335
155	0xbe5cc311	-0.21558787
156	0xbdc76db3	-0.0973772
157	0x3d863c14	0.06554428
158	0xbe41bb06	-0.18919
159	0xbdb2da0d	-0.08732996
160	0x3ef5958f	0.47965667
161	0x3e9d5da2	0.307355
162	0x3e11bb5a	0.14231625
163	0x3e64e713	0.22353773
164	0x3d749a44	0.05971743
165	0xbd1ecee3	-0.03877152
166	0xbd0a44f6	-0.033757173
167	0xbdf0b3b1	-0.117530234
168	0xbda7e1e3	-0.08197381
169	0xbd66e75f	-0.056372996
170	0x3bb1b8d5	0.005423645
171	0x3d2e731d	0.04259025
172	0xbaafbb31	-0.0013407228
173	0xbd81a3f6	-0.06330101
174	0x3e23afa5	0.15984972
175	0xbdf0e2ff	-0.11762046
176	0xbe900419	-0.28128126
177	0x3df4b2aa	0.1194814
178	0xbd0f0f15	-0.034926493
179	0xbcb1359d	-0.02163201
180	0xbe34dca0	-0.17662287
181	0x3e4d3b36	0.20042118
182	0x3e468463	0.19386439
183	0x3eb3dd36	0.35129708
184	0x3dece050	0.11566222
185	0xbe8252cc	-0.25453794
186	0x3e91b42b	0.2845777
187	0xbe22f90a	-0.15915313
188	0xbe344616	-0.1760486
189	0x3cb668fb	0.022266855
190	0xbd469e7d	-0.04849099
191	0x3e3d5440	0.1848917
192	0x3dca2983	0.09871199
193	0x3e807e80	0.25096512
194	0xbe11a364	-0.14222485
195	0x3e9188a6	0.28424567
196	0x3dbdd012	0.09268202
197	0xbbb36fef	-0.00547599
198	0xbd29096e	-0.04126876
199	0xbd914efb	-0.070951425
200	0x3f221738	0.6331668
201	0xbe1960ff	-0.14978407
202	0xbdb721e7	-0.08942013
203	0x3eaedeac	0.3415426
204	0x3dfc00b2	0.1230482
205	0xbe7da71c	-0.24770778
206	0xbb86876c	-0.004105499
207	0x3e929ed8	0.28636813
208	0xbee5350d	-0.44767037
209	0x3d7a7a88	0.06115201
210	0x3e959c98	0.29221034
211	0x3d0a7e3d	0.033811796
212	0x3e9a9184	0.30189145
213	0x3d12c825	0.035835404
214	0xbde359e8	-0.11101133
215	0x3d34227a	0.043978192
216	0xbe8325b3	-0.256147
217	0xbcfcef0a	-0.030875701
218	0x3e102dcb	0.14079969
219	0xbb7f6c31	-0.00389744
220	0x3e8a7331	0.2704101
221	0x3e2da2cf	0.16956638
222	0x3d9db0aa	0.076997116
223	0x3d822b3a	0.06355901
224	0xbd88eb2f	-0.06685483
225	0x3d35c19d	0.044374097
226	0xbc498d1d	-0.01230171
227	0xbe9dbc1b	-0.30807576
228	0x3e984fd6	0.2974841
229	0x3d2e11a0	0.042497277
230	0x3e8cdaad	0.27510586
231	0x3e8e3ae4	0.27779305
232	0xbdf01472	-0.1172265
233	0x3e1e41d1	0.15454794
234	0xbe2e50f2	-0.17023066
235	0xbc9acdce	-0.018896963
236	0xbf1995e4	-0.5999434
237	0xbeb3255b	-0.34989437
238	0x3eb5e60a	0.35527068
239	0xbd2ef2e5	-0.04271211
240	0x3e7fe9a7	0.24991475
241	0xbc40dfde	-0.011772124
242	0x3eb61ad0	0.3556733
243	0x3e2598c1	0.16171552
244	0xbf19a2eb	-0.6001422
245	0xbe418e1e	-0.1890187
246	0xbd7a3254	-0.061083153
247	0x3e8a4459	0.2700527
248	0x3df9b388	0.12192446
249	0x3aa93b0f	0.0012911278
250	0xbbae9f7a	-0.0053290697
251	0xbd587350	-0.052844346
252	0xbc096c0a	-0.008387575
253	0xbd15f247	-0.036608007
254	0xbd37d2e9	-0.044878874
255	0x3e597302	0.21235278

layers.0.bias f4 [128]
0	0x3c034c59	0.008013808
1	0x3d2eeb0c	0.042704627
2	0x3ddd9023	0.108185075
3	0x3da4dd0a	0.08049972
4	0xbd14d26a	-0.03633348
5	0x3bc4cb50	0.006005682
6	0x3da07b73	0.07836046
7	0x3bb447a0	0.0055017024
8	0xbd5de53c	-0.054173693
9	0xbd6e3e66	-0.058164977
10	0x3d35d3f0	0.044391572
11	0x3cad7ff5	0.021179179
12	0xbd3a50f5	-0.045487363
13	0x3dc136f9	0.09434313
14	0x3c653b00	0.0139911175
15	0xbd06a255	-0.032869656
16	0xbd028655	-0.03186639
17	0x3d83d7b5	0.06437627
18	0x3d5b5c3e	0.053554766
19	0xbd5294ad	-0.05141132
20	0x3d80009c	0.06250116
21	0xbe237b0d	-0.15964909
22	0xbe8d827f	-0.27638623
23	0x3aefa38b	0.0018282993
24	0x3ca3b8c7	0.01998557
25	0xbd251b37	-0.040309157
26	0xbd449b98	-0.04799995
27	0x3d0329eb	0.032022398
28	0x3cad6aec	0.021169148
29	0x3d3df459	0.046375606
30	0x3c2455d8	0.010030232
31	0x3bedb344	0.007254036
32	0x3c8e84cb	0.017397305
33	0xbd71c466	-0.05902519
34	0x3d2824da	0.04105077
35	0x3d52e2c1	0.05148578
36	0x3b5efb91	0.0034024457
37	0x3d841fe2	0.06451394
38	0xbd8b9383	-0.06815245
39	0x3cabef49	0.020988123
40	0xbc521647	-0.012822694
41	0x3c892c27	0.016744686
42	0x3ceac1c2	0.028656844
43	0xbe86a6eb	-0.26299223
44	0xbd9f9b5b	-0.077933036
45	0x3d7fad61	0.062421206
46	0xbd9ca7f3	-0.07649221
47	0x3d835503	0.06412699
48	0x3c7db9ae	0.015486164
49	0x3db04de8	0.086086094
50	0x3d91eb1f	0.07124924
51	0x3d5a73df	0.05333316
52	0xbc14c38a	-0.009079823
53	0x3c442e48	0.011973925
54	0x3da925a4	0.082591325
55	0xbd08b407	-0.033374812
56	0xbe089b8e	-0.1334059
57	0xbd8bab5d	-0.06819794
58	0x3daef408	0.08542639
59	0x3d9015de	0.07035421
60	0x3d2bb31f	0.04191887
61	0x3b8212e8	0.003969539
62	0x3dabe479	0.08393187
63	0x3da0bf4c	0.07848987
64	0x3ddf7168	0.109103024
65	0xbdf83c16	-0.121208355
66	0xbca6ac3f	-0.020345805
67	0x3dc36dd7	0.09542435
68	0xbc3a4517	-0.011369011
69	0x3d8a5594	0.06754604
70	0x3c344b48	0.011004277
71	0x3cd5ca89	0.026097553
72	0x3d7d8032	0.061889835
73	0x3cb35ce7	0.021894885
74	0x3c2e864c	0.010652136
75	0xbcc00969	-0.023441987
76	0x3d2f1964	0.042748824
77	0x3d7afa00	0.061273575
78	0x3d9de085	0.07708839
79	0xbb9b0f95	-0.004732082
80	0x3c49ffaa	0.0123290215
81	0x3b85d00c	0.004083639
82	0x3d7ac371	0.061221544
83	0xbd86cc8c	-0.06581983
84	0x3d84e958	0.06489819
85	0x3b8adada	0.004237515
86	0x3d106977	0.03525683
87	0x3d9b2220	0.07574868
88	0xbe1ff650	-0.15621305
89	0x3d604547	0.054753568
90	0x3d10d7a9	0.03536192
91	0x3cc40973	0.023930287
92	0x3cc8bcb0	0.024504036
93	0x3cfdba69	0.030972676
94	0x3d5741d6	0.05255302
95	0x3d3e9da2	0.04653705
96	0xbc671cfd	-0.014106032
97	0xbbe443f2	-0.0069661075
98	0xbd1c96f7	-0.03822991
99	0x3d8f15d2	0.06986584
100	0xbcdb123e	-0.026742097
101	0x3caef58e	0.021357324
102	0xbc01c8b8	-0.00792139
103	0xbc8cdbc1	-0.01719463
104	0xbc802615	-0.015643159
105	0xbced1c59	-0.028944181
106	0x3cc0c293	0.02353028
107	0x3d8388d8	0.06422585
108	0xbc73632e	-0.014855189
109	0xb93687b1	-0.00017407422
110	0x3c2b7fd6	0.01046749
111	0xbc5fd33f	-0.013661205
112	0xbc71c801	-0.014757157
113	0x3c978afc	0.01849889
114	0xbb85e1a5	-0.004085737
115	0x3d222da9	0.039594326
116	0xbd172783	-0.036902916
117	0xbd97ba49	-0.07408578
118	0x3d3603dc	0.044437274
119	0x3d3b56ce	0.04573708
120	0xbcfacbb0	-0.030614704
121	0x3d006974	0.031350568
122	0xbd497711	-0.049185816
123	0x3cf48523	0.02984864
124	0x3cd6d48a	0.026224393
125	0x3dc72a77	0.097248964
126	0x3c512fe5	0.012767767
127	0x3cac9b33	0.021070099

layers.2.weight f4 [5, 128]
0	0xbeccbc85	-0.3998758
1	0x3e01c92c	0.12674397
2	0xbe69941f	-0.2281041
3	0x3daf7621	0.08567453
4	0xbf5ffa09	-0.874909
5	0x3f4dbe55	0.8036855
6	0xbb3759bb	-0.0027977068
7	0xbefe46a4	-0.4966327
8	0x3fc085f7	1.5040883
9	0xbfd1820e	-1.6367815
10	0x3e31ee0e	0.17375967
11	0xbf0a1f9a	-0.5395447
12	0x3f0f1648	0.55893373
13	0x3f1570a1	0.58374983
14	0x3d9d0594	0.076670796
15	0xc01aaab3	-2.4166687
16	0xbf10d8f2	-0.5658103
17	0x3c58760e	0.01321174
18	0xbf454dcd	-0.7707184
19	0x3fe85c20	1.8153114
20	0x3d3735ad	0.044728924
21	0x3d66c7b4	0.056342795
22	0x3f16d150	0.58913136
23	0xbd83815e	-0.06421159
24	0x3cc2b164	0.023766227
25	0xbfeb3f5f	-1.8378714
26	0xbd04c9b7	-0.032418933
27	0xbdc276c0	-0.09495306
28	0xbca78887	-0.020450843
29	0xbd3d93e7	-0.04628363
30	0x3d6675b8	0.05626461
31	0x3dbe53af	0.09293305
32	0x3f2852ab	0.6575114
33	0xbd01ff54	-0.03173764
34	0xc008f1cc	-2.139758
35	0x3e6b3d55	0.22972615
36	0x3f2f0053	0.6835987
37	0x3f0d2c57	0.5514578
38	0x3f29b68e	0.6629418
39	0xb9a9e969	-0.00032408096
40	0x400c34a5	2.1907132
41	0x3f9ee02e	1.2412164
42	0x3e7b7d64	0.24559551
43	0x3f5db6d5	0.86607105
44	0x3fa15b95	1.2606074
45	0x3f6aa9c9	0.9166532
46	0x3f617321	0.880663
47	0x3c8925aa	0.016741592
48	0x400bbe8e	2.1835055
49	0xbf10e8a7	-0.56605
50	0xbcd0e0fe	-0.02549791
51	0xbf17318b	-0.5905997
52	0x3dcb550a	0.09928329
53	0xbe87264e	-0.26396412
54	0x3de83523	0.1133826
55	0x3f3f511d	0.74733144
56	0x3f53ef9a	0.8278748
57	0x3f6c552a	0.9231745
58	0x3e2d061d	0.16896863
59	0xbebf5371	-0.37368348
60	0x3e096596	0.13417658
61	0x3e81b0b6	0.25330132
62	0x3dccf278	0.10007185
63	0x3e06637f	0.13123892
64	0xbf019277	-0.5061411
65	0x3f36b671	0.71372133
66	0x3e1d5192	0.15363148
67	0xbee46692	-0.44609505
68	0x3db33b9d	0.08751605
69	0x3da052a2	0.07828261
70	0x3dc9cfa9	0.09854061
71	0xbf9f0ea1	-1.2426339
72	0x3d076a79	0.033060525
73	0xbe394801	-0.18093874
74	0xbf060062	-0.52344334
75	0x3e1eec9c	0.15519947
76	0xbf29209a	-0.6606537
77	0x3db2c012	0.08728041
78	0x3e5c17ad	0.21493407
79	0xc01b4580	-2.426117
80	0x3d219e98	0.039457887
81	0x3f206862	0.62659276
82	0x3d5ec4f0	0.054387033
83	0x3f7e1d10	0.99263096
84	0x3e4f556c	0.2024743
85	0x3d8c1a3d	0.06840942
86	0x3e5ef98d	0.21774884
87	0x3e1ab7d7	0.15109192
88	0x3f198f83	0.59984607
89	0x4012c71b	2.2934024
90	0x3e9dbc43	0.30807695
91	0xbcbb716b	-0.02288123
92	0x3e4a47d5	0.19753964
93	0xbe517a6a	-0.20456854
94	0x3e44f3f6	0.19233689
95	0xbdbfc1a3	-0.09363105
96	0x3e8e494e	0.27790302
97	0xc0277a35	-2.616834
98	0x3dce57a4	0.1007531
99	0xbc98c577	-0.018648846
100	0xbee71d7d	-0.45139685
101	0xbdaf6551	-0.085642464
102	0xbf04f4d0	-0.51936054
103	0x3ef2fef1	0.4746013
104	0xbf0b849d	-0.54499227
105	0x3f352d3b	0.7077214
106	0x3d9b762d	0.075908996
107	0xbd7e5a6f	-0.062097963
108	0xbd29d31b	-0.04146109
109	0xbc670935	-0.014101316
110	0x3dbda2ef	0.09259593
111	0x3e043277	0.12909876
112	0x3d8b1842	0.06791736
113	0x3e3ab4bf	0.18233012
114	0xc00916a0	-2.142006
115	0xbcb19011	-0.021675142
116	0x3ee116d4	0.4396273
117	0xbfc64e0a	-1.5492566
118	0x3d80a491	0.062813886
119	0x3e0c710c	0.13714999
120	0x3f75c936	0.9601015
121	0xbd9bd967	-0.076098256
122	0x4006b41d	2.1047432
123	0x3fbf3a0c	1.493959
124	0xbd07f8a0	-0.03319609
125	0xbf0b35ad	-0.5437878
126	0x3cc15ab9	0.02360283
127	0xbf3d03e0	-0.7383404
128	0xbf07699a	-0.5289551
129	0x3da77173	0.081759356
130	0x3eb702d3	0.35744342
131	0x3e6080b8	0.21924102
132	0xbef24f57	-0.47326156
133	0x3d2c744b	0.042103093
134	0x3d99a954	0.07503
135	0xbf2b687a	-0.66956294
136	0xbf4609be	-0.77358615
137	0xbf33dbe1	-0.70257384
138	0xbce45586	-0.027872812
139	0x3d0973e5	0.03355779
140	0x3e89607c	0.26831424
141	0xbf75e18c	-0.9604728
142	0x3ea152f0	0.3150859
143	0x3d937c28	0.07201415
144	0x3f18db3b	0.5970952
145	0x3d9bde66	0.076107785
146	0xbe862e18	-0.26207042
147	0x3f0059b5	0.5013688
148	0x3d8acea5	0.067776956
149	0x3f23989a	0.63904727
150	0x3f521560	0.82063866
151	0xbc136cf5	-0.008998145
152	0xbcffbaa0	-0.03121692
153	0xbe4fba49	-0.20285906
154	0x3d0fd650	0.035116494
155	0x3e1b48d2	0.15164497
156	0xbda83d12	-0.08214773
157	0xbd5c11ca	-0.053727902
158	0x3e757027	0.23968564
159	0xbd4a0146	-0.04931762
160	0xbf0a4e79	-0.5402599
161	0xbd55af64	-0.05216922
162	0xbf86fba3	-1.0545543
163	0x3db215f4	0.086955935
164	0x3f0d67be	0.55236423
165	0xbf079233	-0.5295746
166	0x3df7b162	0.1209438
167	0x3d3d608d	0.046234656
168	0x3ea30bb8	0.31844878
169	0xbc883679	-0.016627537
170	0xbe84640d	-0.25857583
171	0x3ef98093	0.48730907
172	0xbf148f72	-0.5803138
173	0x3f1e4669	0.6182619
174	0x3f8a4cfd	1.0804745
175	0xbdcc75c3	-0.09983399
176	0xbf39d07b	-0.7258374
177	0xbf890db5	-1.0707308
178	0x3ca4bce7	0.020109607
179	0xbf08e456	-0.53473413
180	0x3c4d3cb3	0.012526679
181	0x3f724ece	0.94651496
182	0x3e2db3b0	0.16963077
183	0xbf4be656	-0.7964834
184	0x3fbf140d	1.4927994
185	0x3fd92b37	1.6966313
186	0x3caeec68	0.021352962
187	0x3d0c14fb	0.034199696
188	0x3e293abf	0.16526316
189	0xbe37baa1	-0.17942287
190	0x3daa0846	0.08302359
191	0xbe2fc89a	-0.17166367
192	0xbec65472	-0.38736302
193	0x3f76f7f8	0.9647212
194	0xbdcd9741	-0.10038615
195	0xbf2aaf19	-0.6667343
196	0xbd8b93bd	-0.06815288
197	0x3d026b5c	0.031840667
198	0x3cf32402	0.029680256
199	0x3f9a0448	1.2032557
200	0xbc863a6c	-0.01638528
201	0x3d987cef	0.07445704
202	0xbee26f14	-0.4422537
203	0x3d25ca27	0.04047599
204	0xbe990dec	-0.29893434
205	0xbb5afb34	-0.003341389
206	0xbd7de20e	-0.06198316
207	0xbe6a08bd	-0.22854896
208	0xbdad80a2	-0.084718004
209	0x3d1b9847	0.03798702
210	0x3cc95a43	0.024579173
211	0x3faf8d9c	1.3715091
212	0xbdb05204	-0.08609393
213	0xbd8e6b88	-0.06954104
214	0xbe342f83	-0.1759625
215	0x3c6ea75f	0.014566272
216	0x3e99241b	0.2991036
217	0xbd91c7b0	-0.071181655
218	0x3e0611af	0.13092683
219	0x3da09838	0.078415334
220	0x3e097550	0.13423657
221	0x3b6422d0	0.003481079
222	0x3d61289b	0.054970365
223	0xbf114a8f	-0.5675439
224	0xbe9fc0f0	-0.31201887
225	0x3f1fe823	0.6246359
226	0x3ac20690	0.0014802981
227	0x3da398cf	0.0798813
228	0xbea73f60	-0.3266554
229	0x3da3701f	0.0798037
230	0xbefc07bd	-0.49224654
231	0xbf201b32	-0.62541497
232	0xbe7d7f65	-0.24755628
233	0x3de53655	0.11192004
234	0x3dcf572c	0.101240486
235	0x3c8feb75	0.01756833
236	0x3d40ad91	0.047040526
237	0x3d2af93e	0.041741602
238	0x3d7783c6	0.060428403
239	0x3db9ed29	0.09078438
240	0x3dd0d023	0.10195949
241	0xbf31876a	-0.6934725
242	0xbe94b0c0	-0.290411
243	0x3b0d3049	0.0021543673
244	0x3ea29562	0.31754595
245	0x3f84a5ba	1.0363076
246	0x3ce9df50	0.028548867
247	0x3d066512	0.032811232
248	0xbe94ffde	-0.2910146
249	0xbc28598a	-0.010275254
250	0x3fd88b44	1.69175
251	0xbfcc18c0	-1.5945053
252	0x3dadd6cf	0.08488237
253	0x3d9e72ab	0.07736715
254	0x3cb5afc8	0.022178546
255	0xbe618fae	-0.22027466

layers.2.bias f4 [5]
0	0x3dac73cb	0.08420523
1	0xbd728443	-0.059208166
2	0xbc13441d	-0.008988407
3	0xbd25bdde	-0.040464275
4	0xbb0b5874	-0.002126244
