tiny_heads/ptm.pt (torch, 166768 bytes, 3 tensors)

layers.0.weight f4 [128, 320]
0	0xbe6af19b	-0.22943728
1	0xbd54d72f	-0.051963028
2	0x3d8d5087	0.06900125
3	0xbd55feef	-0.052245077
4	0x3e04eb6d	0.12980433
5	0xbe4f8e7e	-0.202692
6	0x3eac3b2d	0.33638898
7	0x3c8bf304	0.017083652
8	0xbeb3d63d	-0.35124388
9	0xbe3228ee	-0.17398426
10	0xbdce2974	-0.100665
11	0xbd125103	-0.03572179
12	0x3e9a9ca6	0.30197638
13	0xbda14f7b	-0.07876488
14	0xbe9af446	-0.3026449
15	0x3bcaa44e	0.0061841374
16	0xbda9502b	-0.08267244
17	0xbe397440	-0.18110752
18	0xbe989d2c	-0.29807413
19	0xbe40e7ea	-0.18838468
20	0xbcb36be5	-0.021902034
21	0x3e9152e6	0.2838356
22	0x3e90310a	0.28162414
23	0x3e4806d7	0.19533859
24	0x3e06c7bb	0.13162129
25	0x3c34c235	0.011032631
26	0xbe1c0bed	-0.15238924
27	0x3e25ed0e	0.1620371
28	0xbd80e677	-0.06293958
29	0x3db89639	0.09013028
30	0xbd7dd611	-0.061971728
31	0xbe106306	-0.14100274
32	0xbb93e891	-0.004513808
33	0xbd311487	-0.043232467
34	0xbe029229	-0.12751068
35	0x3d8181bd	0.06323574
36	0x3e8c131a	0.27358323
37	0xbab15040	-0.0013527945
38	0x3e4921c2	0.19641784
39	0xbe40d8dd	-0.18832727
40	0xbe8dc553	-0.2768961
41	0xbee309a3	-0.4434329
42	0xbe0b7907	-0.13620387
43	0xbd9cbd86	-0.07653336
44	0x3ee5ef85	0.449093
45	0xbe424d8c	-0.18974894
46	0x3d5e93fa	0.05434034
47	0xbeb14d01	-0.34629062
48	0xbd0f5406	-0.03499224
49	0x3ee0c450	0.43899775
50	0xbe976ef7	-0.29576847
51	0x3eaae4c9	0.33377674
52	0xbe88c42d	-0.2671217
53	0xbde76d81	-0.11300183
54	0xbe85a8e1	-0.26105407
55	0x3e2722dc	0.16321892
56	0x3e2c92a7	0.16852818
57	0x3e24fd51	0.16112258
58	0x3b46757e	0.0030282433
59	0x3d836a1c	0.06416723
60	0x3ee96458	0.4558437
61	0xbe11f6bc	-0.14254278
62	0x3d1ef08e	0.03880363
63	0x3da16f1b	0.0788252
64	0xbd830da4	-0.06399086
65	0xbdc6192a	-0.096727684
66	0x3e683bc7	0.22679053
67	0xbe88464e	-0.26616138
68	0x3e8dfd8e	0.2773251
69	0xbeb4aabf	-0.3528652
70	0xbe1bf5ea	-0.15230528
71	0x3e484767	0.19558488
72	0xbec1e956	-0.37873334
73	0xbe03d206	-0.12873086
74	0x3eeb4ed3	0.45958576
75	0xbdc1f2f7	-0.0947017
76	0xbe6f44a8	-0.23366034
77	0xbe91d6db	-0.28484234
78	0xbe808d89	-0.25107983
79	0x3e5e56ee	0.21712849
80	0xbe0cd43c	-0.13752836
81	0xbe3927e1	-0.18081619
82	0x3e9a1847	0.30096647
83	0x3d5d916c	0.054093763
84	0xbd91a088	-0.07110697
85	0x3db89b19	0.090139575
86	0x3d2ea970	0.042642057
87	0xbe336ee0	-0.17522764
88	0x3db399e4	0.08769587
89	0xbe42702b	-0.18988101
90	0x3e9a2805	0.30108657
91	0xbdc9103c	-0.098175496
92	0xbe8aec5f	-0.27133462
93	0xbf0ee984	-0.55825067
94	0x3cfa60c9	0.030563729
95	0xbd4a82f2	-0.049441285
96	0xbe45387b	-0.19259827
97	0x3e4dea1e	0.2010884
98	0xbd988075	-0.07446376
99	0x3d6427c4	0.055701986
100	0xbd731af9	-0.059351895
101	0xbe43bbca	-0.19114605
102	0x3e149e35	0.14513476
103	0xbda2b0ae	-0.07943855
104	0x3dc7be39	0.09753079
105	0xbd80fe63	-0.062985204
106	0xbe80bcbd	-0.25143996
107	0x3e5045fb	0.20339195
108	0x3e1f40a2	0.15551999
109	0x3e5acbf8	0.2136687
110	0x3e8f2732	0.2795959
111	0xbdf5a27d	-0.11993883
112	0x3e0ef02b	0.13958804
113	0x3c8e9672	0.017405722
114	0xbeaac5e9	-0.33354118
115	0x3f08ce27	0.53439564
116	0x3e94706d	0.28992024
117	0xbe0fddea	-0.14049497
118	0xbac0c28a	-0.0014706415
119	0x3d6b0f0c	0.057387397
120	0x3e7b92e3	0.24567752
121	0x3d9d6196	0.07684629
122	0x3dab2a17	0.083576374
123	0xbdb53404	-0.08847812
124	0x3d2fea38	0.042947978
125	0x3cd07f56	0.025451344
126	0x3e426f33	0.18987732
127	0x3d521f44	0.05129935
128	0x3e4a4465	0.19752653
129	0xbe7836ff	-0.2423973
130	0xbebafc0c	-0.36520422
131	0x3e3b183f	0.18270968
132	0xbd31f5e4	-0.04344739
133	0xbb338250	-0.0027390905
134	0x3caeb0fa	0.021324623
135	0xbe120dc7	-0.14263068
136	0x3df0a6f6	0.11750595
137	0xbd367568	-0.04454556
138	0x3e6809ee	0.22660038
139	0xbddeac95	-0.10872761
140	0x3df5ce0b	0.1200219
141	0x3e38beab	0.18041484
142	0x3ca3119c	0.019905858
143	0xbcf77587	-0.030207409
144	0xbd18fc4d	-0.037349988
145	0x3e724c7b	0.23661987
146	0x3dcfd511	0.10148061
147	0x3cdc7810	0.026912719
148	0x3e2847b7	0.16433607
149	0xbdcc01df	-0.099612944
150	0xbe026389	-0.12733282
151	0x3dea1304	0.11429408
152	0x3dc2cf55	0.09512202
153	0xbdd0c8a3	-0.101945184
154	0x3e2864d4	0.16444713
155	0x3e34007b	0.17578308
156	0x3e03e2fc	0.12879556
157	0xbd5d0ead	-0.053969074
158	0x3ca81925	0.020519802
159	0xbe8fc0fd	-0.28076926
160	0xbec08bb4	-0.37606585
161	0xbd9effa6	-0.07763605
162	0xbe7c0c24	-0.24614006
163	0xbe0134de	-0.12617823
164	0xbc9608d4	-0.018314756
165	0xbe26a003	-0.16271977
166	0x3e0f9406	0.1402131
167	0x3d59926c	0.053118154
168	0x3e4f9148	0.20270264
169	0x3e6b0c05	0.22953804
170	0xbdc1a43a	-0.09455152
171	0xbcdc8ae4	-0.026921697
172	0xbec2ea37	-0.38069317
173	0x3d93f9f5	0.0722541
174	0xbda12f6d	-0.07870374
175	0xbe227643	-0.15865426
176	0xbc313cdd	-0.010817734
177	0x3e73c9fa	0.23807517
178	0x3e26cffd	0.16290279
179	0xbdc97b52	-0.098379746
180	0x3da43229	0.0801738
181	0x3d8b1eda	0.06792994
182	0x3ec365b3	0.38163528
183	0xbf22f531	-0.6365538
184	0x3e2b3de9	0.16722836
185	0x3e5b999f	0.2144532
186	0xbd971bf9	-0.07378382
187	0xbddfd833	-0.109299086
188	0x3e1cbaca	0.1530563
189	0xbdf8444d	-0.12122402
190	0x3e59618e	0.2122862
191	0xbe163ad3	-0.14670877
192	0x3d1af520	0.037831426
193	0xbe21f5a2	-0.15816358
194	0xbced1fbd	-0.028945798
195	0x3d4abcfa	0.04949663
196	0x3d0b4c5a	0.03400836
197	0x3e3e32b7	0.18574034
198	0xbe9e94c0	-0.30972862
199	0x3dfbf811	0.12303174
200	0x3dcecb8c	0.10097417
201	0xbe7b6cf2	-0.24553278
202	0xbd5cca5d	-0.053903926
203	0x3f0490d1	0.5178347
204	0x3daaa70f	0.08332645
205	0xbe74418a	-0.23853126
206	0x3c3f28a3	0.011667403
207	0x3e7b71eb	0.24555175
208	0x3d757da2	0.059934266
209	0x3ea21c1e	0.31662077
210	0x3e08409a	0.13305894
211	0x3e4fe583	0.20302396
212	0xbdaa08d2	-0.083024636
213	0x3e1621ad	0.14661284
214	0x3cfb7696	0.030696195
215	0x3eb608f3	0.35553703
216	0xbdfa3aba	-0.122182325
217	0x3c1ba92b	0.009500782
218	0x3c85ccc3	0.01633299
219	0x3e5dcbba	0.21659747
220	0xbda3a44f	-0.07990324
221	0xbe278ce3	-0.16362338
222	0xbe3b9198	-0.18317258
223	0x3eda47a3	0.4263278
224	0x3dc6fb05	0.09715847
225	0xbe34afc5	-0.17645176
226	0x3dbad63b	0.091228925
227	0xbe074dbd	-0.13213249
228	0x3deb9b79	0.115042634
229	0xbcf783eb	-0.03021427
230	0xbe13d705	-0.14437492
231	0x3e805cdc	0.25070846
232	0xbd833bca	-0.06407888
233	0x3cb6e981	0.02232814
234	0x3ba3cd50	0.0049988404
235	0xbf17daea	-0.5931841
236	0x3e808703	0.25103006
237	0x3f3d8f9f	0.74047273
238	0xbcabb208	-0.020958915
239	0xbd19fe6d	-0.037596155
240	0x3e922b24	0.2854854
241	0x3e17df04	0.14831167
242	0xbdc62934	-0.096758276
243	0xbcd3a676	-0.02583621
244	0xbc7f3cdc	-0.015578475
245	0x3ec92edb	0.3929356
246	0x3e1c2d77	0.15251718
247	0x3daa0cc5	0.08303217
248	0xbccc5979	-0.024945008
249	0xbe8ee017	-0.27905342
250	0xbe5eda08	-0.2176286
251	0xbe1c03ab	-0.15235774
252	0xbdb74fbc	-0.08950755
253	0xbe1be522	-0.15224126
254	0x3e137db6	0.14403424
255	0xbedf5deb	-0.4362634

layers.0.bias f4 [128]
0	0x3d06f6fa	0.03295038
1	0x3d37b869	0.0448536
2	0xbd16e104	-0.036835685
3	0xbd03caee	-0.03217595
4	0xbb2867b0	-0.0025696568
5	0x3d1444fb	0.036198597
6	0x3becaa9c	0.0072224867
7	0x3d97dd7d	0.074152924
8	0xbd166aee	-0.03672307
9	0x3d957151	0.07297004
10	0x3d2fd138	0.042924136
11	0x3c9530f9	0.018211829
12	0xbd0fafa3	-0.03507961
13	0x3d19e329	0.037570152
14	0xbd453a98	-0.048151582
15	0x3c9584f0	0.018251866
16	0xbc71849f	-0.014741092
17	0xbd03c2e9	-0.032168303
18	0x3c19b564	0.009381626
19	0x3d611430	0.054950893
20	0xb652a745	-3.1389802e-06
21	0xbdb5ba6d	-0.088734485
22	0x3b90ef3f	0.0044230516
23	0x3d048e81	0.032362465
24	0xb90cd109	-0.00013429312
25	0x3d020880	0.031746387
26	0xbcde2f45	-0.02712215
27	0x3d73121e	0.05934345
28	0xbd86a4b4	-0.065743834
29	0xbafd2aac	-0.0019315085
30	0x3d813cd4	0.0631043
31	0xbc9e0fa4	-0.019294567
32	0xbd23aee7	-0.03996172
33	0x3c493ae9	0.012282112
34	0xbb8da22e	-0.004322312
35	0x3334cb9a	4.209469e-08
36	0x3d83280f	0.06404125
37	0xbdf3d46e	-0.11905752
38	0xbc15a251	-0.0091329375
39	0x3d8565a8	0.0651353
40	0xbd004e30	-0.031324565
41	0xbce581fd	-0.028016085
42	0xbd73995f	-0.059472438
43	0xbc6aa9ef	-0.014322742
44	0x3d21b7f0	0.039482057
45	0x3c34a5b7	0.011025838
46	0xbc59b380	-0.013287425
47	0xbde704b2	-0.112801924
48	0xb6e12d60	-6.710805e-06
49	0xbd0b4587	-0.034001853
50	0xbc2c5129	-0.010517397
51	0xbb8134ac	-0.0039430466
52	0xbd8b98f6	-0.06816284
53	0xbd480932	-0.048836894
54	0x3d70998f	0.058740195
55	0x3cc12ebe	0.023581859
56	0xbdddd40a	-0.10831459
57	0xba570ea8	-0.0008203783
58	0x3c165461	0.009175391
59	0x3c8c08a1	0.017093958
60	0x3c28772c	0.010282319
61	0x3d69ba37	0.057062354
62	0xba15b654	-0.0005711068
63	0xbccbceda	-0.024878908
64	0xbcaf5a71	-0.02140543
65	0xbd09bc80	-0.033627033
66	0x3c16bff8	0.009201042
67	0xbca2ed5f	-0.019888578
68	0xbc6025c1	-0.013680876
69	0x3cdbe6d7	0.026843471
70	0x3c6404f2	0.013917195
71	0x3d810170	0.06299102
72	0xbdb3c8a0	-0.087785006
73	0x3c6adcc3	0.01433486
74	0x3c33e698	0.010980271
75	0xbc3d5854	-0.011556704
76	0x3c417263	0.011807057
77	0x3d069a64	0.032862082
78	0x3cadcd02	0.02121592
79	0xbd61fb3c	-0.055171236
80	0xbc9a2c24	-0.018819876
81	0x3d16bf1c	0.03680335
82	0x3d6f3ead	0.05840938
83	0x3a6d44e8	0.00090511004
84	0xbd72c364	-0.05926837
85	0x3d1498b5	0.036278445
86	0x3b9881be	0.0046541383
87	0x3c7b2e1a	0.015330816
88	0x3c5dc55c	0.013535824
89	0x3d31e307	0.0434294
90	0xbcc9dd16	-0.024641555
91	0x3d922a39	0.071369596
92	0x3d4b4a9f	0.04963171
93	0xbd91c922	-0.07118441
94	0x3b7a77e7	0.003821844
95	0xbc3f6b69	-0.011683323
96	0xbd24e33e	-0.040255778
97	0x3d8b9a3d	0.06816528
98	0x3c9d5029	0.019203262
99	0xbd15d8f1	-0.036583845
100	0x3c911cc4	0.017713912
101	0xbc08a44e	-0.008339955
102	0x39a38f06	0.00031196343
103	0x3d27d5ce	0.040975384
104	0xbc8ae047	-0.016952647
105	0x3d325cd5	0.043545563
106	0x3d680518	0.056645483
107	0xbc89c451	-0.016817244
108	0xbc9db4e5	-0.019251296
109	0xbca8596d	-0.020550454
110	0x3b59167a	0.003312497
111	0xbd1c2bd6	-0.038127743
112	0xbd5b26d9	-0.053503845
113	0xbd035214	-0.032060698
114	0x3d6c7e26	0.057737492
115	0x3b81ff5c	0.003967209
116	0x3d31f03b	0.043441992
117	0xbbfa1272	-0.0076315934
118	0xbd24cb53	-0.040232968
119	0x3d9c78aa	0.07640202
120	0xbd3d9ad2	-0.046290226
121	0x3ba6b9d5	0.005088071
122	0x3c93e1c8	0.018051997
123	0x3afb8388	0.001918898
124	0x3d45d304	0.048296943
125	0x3c9b6009	0.018966692
126	0xbd05a4d9	-0.032627914
127	0x3b9ebff9	0.0048446623

layers.2.weight f4 [1, 128]
0	0xbfc9713d	-1.5737683
1	0x3dce326e	0.100682124
2	0xbed9a212	-0.42506462
3	0x3fb03d2a	1.3768666
4	0xbf2d414f	-0.6767778
5	0x3dd3562b	0.103191696
6	0x3db3eff8	0.08786005
7	0x3e7527e5	0.23941
8	0xbd83b571	-0.064310916
9	0xbf62c3a4	-0.88579774
10	0xbd023711	-0.031790797
11	0xbd756869	-0.059914026
12	0xc0106e56	-2.2567344
13	0xbf773904	-0.96571374
14	0xbfc56b25	-1.5423323
15	0xbdd2c21e	-0.10290931
16	0xbb4fb4f8	-0.003169356
17	0xbf09c007	-0.53808635
18	0x3ebdc8af	0.37067172
19	0x3d9993d0	0.07498896
20	0x39c1ca2a	0.00036962453
21	0xbfe1a7b1	-1.76293
22	0xbd7f98e6	-0.062401675
23	0x3d9e842b	0.07740053
24	0x3e84c783	0.25933465
25	0xbea06d37	-0.31333324
26	0xbd8ca531	-0.06867445
27	0x3eef41bc	0.4672984
28	0xbdde0b7d	-0.10842035
29	0xbf44d98e	-0.7689446
30	0x3f0d9f85	0.5532153
31	0xbef7bcd8	-0.48386264
32	0x3f864e54	1.0492654
33	0x3db4de54	0.08831468
34	0xbf60fc91	-0.87885386
35	0x37194211	9.134893e-06
36	0x3d880963	0.066424154
37	0xbfcadd15	-1.5848719
38	0xbeb5982b	-0.35467657
39	0x3da9ca83	0.08290579
40	0x3f92e296	1.1475399
41	0x3f2a7f69	0.6660066
42	0xbfa0a6a7	-1.2550858
43	0xbfab4b18	-1.3382292
44	0xbf5c365a	-0.86020434
45	0xbe6e2ff9	-0.23260488
46	0x3da9c6bc	0.08289859
47	0xbf526173	-0.82179946
48	0xb9d4c737	-0.00040584218
49	0xbf5d57c8	-0.8646207
50	0xbcc07c29	-0.023496704
51	0xba43f69c	-0.00074754073
52	0xbf44be30	-0.76852703
53	0xbf0f79a6	-0.56044996
54	0x3d84561f	0.06461739
55	0x3f2c4a4e	0.6730088
56	0xbf619185	-0.8811267
57	0x3a93b765	0.0011269866
58	0x3f592ee7	0.8483719
59	0x3f322b78	0.6959758
60	0x3dcde847	0.10054069
61	0x3f7fd6cc	0.9993713
62	0x3ce62b15	0.028096715
63	0x3da8081c	0.08204672
64	0x3f7be527	0.98396534
65	0xbf45f36f	-0.77324575
66	0xbedf947b	-0.4366797
67	0xbea58999	-0.3233154
68	0xbef190cd	-0.47180787
69	0xbe730442	-0.23732093
70	0xbec9371d	-0.3929986
71	0x3da60028	0.081054986
72	0x3f9c07c5	1.2189871
73	0x3d659e39	0.056059096
74	0x3edff515	0.4374167
75	0xbbbebc3e	-0.00582078
76	0xbd21dc53	-0.03951676
77	0x3d9ba858	0.076004684
78	0xbb24e2fb	-0.0025159705
79	0x3f198913	0.59974784
80	0x3db195f9	0.08671183
81	0x3f6163eb	0.8804309
82	0x3f03874d	0.5137833
83	0xbcbd2385	-0.023088226
84	0xbef98b7b	-0.48739228
85	0xbe0381b2	-0.12842444
86	0xbf427e70	-0.7597418
87	0x3f27e262	0.6557981
88	0xbef80804	-0.48443615
89	0x3f1ca977	0.6119608
90	0xbed7b245	-0.42128196
91	0x3ec97cc8	0.39353013
92	0xbf1aa743	-0.6041147
93	0x3f30b9c6	0.6903347
94	0xbf049fdb	-0.5180642
95	0x3e44e4b2	0.19227865
96	0x3f833407	1.0250252
97	0x3d595968	0.05306378
98	0x3d90f9de	0.070789084
99	0xbfcaccf6	-1.5843799
100	0x3eee48d7	0.46539947
101	0x3f3d7fa8	0.7402291
102	0xba6443d4	-0.0008707617
103	0xbeaec02a	-0.34130985
104	0x3e1270a5	0.14300783
105	0x3d7ddc05	0.061977405
106	0x3e09caa3	0.13456206
107	0x3f2120f8	0.6294093
108	0xbd8403b9	-0.064460225
109	0x3f8b0175	1.085982
110	0xbc5a87a7	-0.013338006
111	0xbf2ceb19	-0.6754623
112	0x3f19c82d	0.6007107
113	0xbfbc02bc	-1.4688334
114	0x3f09a8e0	0.5377331
115	0xbeb05c2a	-0.34445316
116	0x3e47584f	0.19467281
117	0x3edddcc1	0.43332484
118	0x3f867752	1.0505164
119	0x3f605fb9	0.8764606
120	0xbd834d96	-0.06411283
121	0xbf23f8f6	-0.6405176
122	0xbed3c84c	-0.41363752
123	0x3f0084ac	0.5020244
124	0x3dedd3cf	0.11612665
125	0xbeb66149	-0.35621098
126	0x3dc7f649	0.09763772
127	0xbea989c6	-0.33112925
