tiny_heads/ptm.pt (torch, 166768 bytes, 3 tensors)

layers.0.weight f4 [128, 320]
0.06991865 -0.00076051336 0.063193575 -0.05912537 0.03651465 -0.015415653 0.18355264 -0.05146332
-0.067603 0.013288933 0.00011811319 0.04961748 -0.09007755 -0.022967506 -0.017032305 -0.006122863
-0.0034556945 -0.02428883 -0.03322712 -0.006895398 0.0071882554 -0.031206423 -0.001270983 -0.012844172
-0.028135957 -0.035223108 0.025449075 0.065935895 0.0062580295 -0.053062752 0.025015613 0.079833604
0.021947276 0.030877292 -0.07617506 0.046928555 -0.056339476 0.0940916 0.0132243745 -0.06763829
0.08419971 0.01817236 0.060408752 0.023754431 0.060790777 0.05942069 -0.049190667 0.06373305
-0.035790715 0.02630403 0.00045537812 0.08686876 0.07977049 0.047014344 0.06766866 0.014504261
-0.017228467 0.10167046 0.063383766 0.054606564 0.018439535 0.058265712 0.015608839 0.018946348
0.03184573 0.006304386 0.0708846 0.08418552 0.067583874 0.1495051 0.02986009 0.10581845
0.0027139895 -0.060327258 -0.014373803 0.003348305 0.017337147 0.018438477 -0.019542513 0.06884905
-0.025258008 0.15350038 0.0656803 -0.027006188 0.022883775 0.025892094 0.086483434 -0.105122
-0.0077263075 -0.014201117 0.059027713 -0.14288384 0.01587072 -0.08566957 -0.018942542 0.030350262
-0.0014877943 -0.05164973 -0.004157756 0.021494396 -0.038681358 -0.032588635 0.08434036 -0.08957473
-0.086076 0.017545713 -0.035281662 0.032569684 -0.11661243 -0.09237839 -0.056414336 0.054562744
0.044258673 -0.12883931 -0.03476326 0.020859506 -0.070565864 -0.013021065 0.032976434 -0.07408875
0.05025325 -0.0052697617 -0.034042954 0.081182085 0.015361341 -0.057834946 -0.01585167 -0.03505478
0.0258202 -0.05599807 -0.13038415 0.002764004 -0.009582596 0.034407943 0.10395952 -0.08595474
0.0036490113 -0.09907589 -0.064296775 -0.0867252 -0.04891732 -0.0011409567 0.027449854 -0.041188795
0.004350772 0.056949753 -0.028690925 0.08212412 -0.044165403 0.041928746 0.06126113 -0.0066646147
-0.07304187 0.051162463 -0.09497091 -0.070751555 -0.010912294 0.07910442 -0.0236341 -0.03503246
0.09865991 -0.09460135 -0.043470856 0.0472956 0.096932925 -0.018161781 0.15850362 -0.07766628
0.057572223 -0.13211937 -0.059772547 -0.10836075 0.017946497 0.020216549 0.12838106 0.04262002
0.020832023 0.08569066 -0.044511914 0.020110356 -0.027187187 -0.03233063 -0.01706001 0.1297025
0.0035359943 -0.04398449 -0.026069108 -0.07134729 0.014324096 -0.04194194 0.010393477 -0.086332425
-0.029671704 -0.0028703057 0.018572075 0.013113717 0.017429912 0.064760394 -0.023845065 -0.0031557477
-0.15177 0.0792439 -0.09616025 -0.014337597 0.021611389 0.08789614 0.03632652 0.0003977387
-0.09514865 -0.089681946 -0.06281669 -0.05679441 0.0008285005 0.033832643 -0.012064539 -0.07422991
-0.074643195 -0.04394504 0.058136452 0.025116097 -0.0137236165 -0.040514972 -0.008085758 0.06643988
0.052566517 -0.04639201 -0.046637204 0.06676015 0.06304212 -0.11525431 0.031532828 -0.04246412
-0.06503748 -0.046077855 -0.004472589 -0.07393116 0.11186309 0.109327376 0.1216314 -0.04965985
0.0786459 -0.0010151668 -0.054299332 0.058877304 0.023106353 0.031227708 -0.04325035 -0.13863423
-0.06889672 -0.020150151 -0.012921779 -0.028210124 -0.040793896 -0.04209253 -0.10706004 0.03497649
00000000: 8231 8f3d 305d 47ba a26b 813d 722d 72bd
00000010: 6390 153d ef91 7cbc 39f5 3b3e 34cb 52bd
00000020: 7173 8abd d3b9 593c 89b3 f738 b33b 4b3d
00000030: 947a b8bd 5a26 bcbc 5587 8bbc 4ca2 c8bb
00000040: ef78 62bb 5ef9 c6bc 2919 08bd caf2 e1bb
00000050: 758b eb3b 9da4 ffbc 1d97 a6ba 5d70 52bc
00000060: 617d e6bc 1b46 10bd 947a d03c 6609 873d
00000070: 2810 cd3b 5458 59bd 8bed cc3c cd7f a33d
00000080: c6ca b33c 60f2 fc3c ab01 9cbd 2838 403d
00000090: 39c4 66bd 19b3 c03d 0cab 583c f285 8abd
000000a0: e670 ac3d 33de 943c 2b6f 773d a798 c23c
000000b0: c0ff 783d 1c63 733d 277c 49bd 7986 823d
000000c0: 4999 12bd 8d7b d73c d1bf ee39 40e8 b13d
000000d0: b65e a33d 1d92 403d de95 8a3d 48a3 6d3c
000000e0: b722 8dbc 9a38 d03d 59cf 813d 22ab 5f3d
000000f0: 820e 973c 07a8 6e3d 37bc 7f3c 5f35 9b3c
00000100: ab70 023d 0695 ce3b f22b 913d 7569 ac3d
00000110: 6a69 8a3d dd17 193e 269d f43c 58b7 d83d
00000120: 30dd 313b b719 77bd 1980 6bbc 3c6f 5b3b
00000130: a206 8e3c 4a0c 973c 9f17 a0bc bb00 8d3d
00000140: e2e9 cebc 342f 1d3e 6583 863d 153c ddbc
00000150: c176 bb3c a81b d43c 3a1e b13d 344a d7bd
00000160: f72c fdbb cdab 68bc 0bc7 713d 2450 12be
00000170: 5003 823c 8773 afbd 642d 9bbc 1da1 f83c
00000180: 1802 c3ba ab8e 53bd c93d 88bb 0415 b03c
00000190: 5870 1ebd a97b 05bd a3ba ac3d f572 b7bd
000001a0: 9d48 b0bd 07bc 8f3c 8183 10bd ca67 053d
000001b0: 7fd2 eebd e230 bdbd b812 67bd 2f7d 5f3d
000001c0: 9548 353d 74ee 03be ec63 0ebd 8ee1 aa3c
000001d0: d684 90bd 4e56 55bc 4c12 073d d8bb 97bd
000001e0: 5ad6 4d3d f7ad acbb a070 0bbd cb42 a63d
000001f0: 22ae 7b3c 56e4 6cbd 5ddb 81bc 9a95 0fbd
00000200: e284 d33c 3b5e 65bd 6c83 05be 4b24 353b
00000210: 5200 1dbc 58ef 0c3d bbe8 d43d 0a09 b0bd
00000220: 4024 6f3b 4de8 cabd 07ae 83bd fb9c b1bd
00000230: 875d 48bd 278c 95ba 84de e03c 95b5 28bd
00000240: ec90 8e3b 2544 693d 3b09 ebbc b130 a83d
00000250: c8e6 34bd 7abd 2b3d f3ec 7a3d d762 dabb
00000260: fa96 95bd bb8f 513d 1c80 c2bd 31e6 90bd
00000270: 7ac9 32bc 8001 a23d 4d9c c1bc 327e 0fbd
00000280: 350e ca3d 5abe c1bd 7f0e 32bd 08b9 413d
00000290: c584 c63d 04c8 94bc c64e 223e 800f 9fbd
000002a0: dad0 6b3d 4d4a 07be 0fd4 74bd 3eec ddbd
000002b0: 8804 933c 2d9d a53c 5376 033e 5592 2e3d
000002c0: eba7 aa3c 967e af3d 2052 36bd 79be a43c
000002d0: aab7 debc 1f6d 04bd 6fc1 8bbc bbd0 043e
000002e0: 24bc 673b 1529 34bd e28e d5bc 871e 92bd
000002f0: 9daf 6a3c 50cb 2bbd 6749 2a3c 0ecf b0bd
00000300: 1312 f3bc bd1b 3cbb 7724 983c eada 563c
00000310: 2dc9 8e3c 19a1 843d ba56 c3bc a9d0 4ebb
00000320: 9869 1bbe a04a a23d aaef c4bd 3ee8 6abc
00000330: 5e0a b13c e402 b43d 1ecb 143d 9687 d039
00000340: 4cdd c2bd 2bab b7bd 09a6 80bd 41a1 68bd
00000350: ba2f 593a 1994 0a3d 58aa 45bc da05 98bd
00000360: 88de 98bd b7ff 33bd 7d20 6e3d 46c0 cd3c
00000370: 05d9 60bc 07f3 25bd 217a 04bc a211 883d
00000380: fd4f 573d 8c05 3ebd a706 3fbd 8cb9 883d
00000390: 3a1c 813d 740a ecbd 9128 013d dbee 2dbd
000003a0: 5f32 85bd 22bc 3cbd cc8e 92bb 3869 97bd
000003b0: 7a18 e53d 08e7 df3d e219 f93d 2068 4bbd
000003c0: 1a11 a13d 580f 85ba fa68 5ebd 5429 713d
000003d0: 8949 bd3c 40d1 ff3c 4727 31bd 22f6 0dbe
000003e0: b919 8dbd ee11 a5bc dfb5 53bc eb18 e7bc
000003f0: 8017 27bd 3769 2cbd 4b42 dbbd 8243 0f3d

layers.0.bias f4 [128]
-0.00088832504 -0.018963195 0.028423075 -0.040070187 0.0083721075 0.025297247 0.015625086 0.054304857
0.009250252 0.0008235915 -0.01844349 0.0006838091 0.05119481 0.023679888 -0.003969012 -0.025409328
0.045944862 0.00047351842 -0.008129089 0.0133267855 -0.06311413 0.03634014 -0.016866775 -0.005116929
0.039605442 2.8121078e-05 0.033934087 0.059380755 -0.031089298 0.022554107 0.017366871 0.04059471
-0.028015178 -0.03603121 -0.04712056 -0.0024632057 0.014899616 -0.047658823 0.022688339 -0.0114736315
0.05258635 -2.9067527e-05 -0.01367953 -0.009426543 0.06890826 0.049421858 -0.031496476 0.005677601
0.050118975 -0.008620175 0.01496113 -0.00014993122 -0.002556078 -0.06196274 0.034282953 0.033938833
-0.0102325985 0.029102335 -0.03523431 0.021721119 -0.010969685 -0.0012538397 0.033075325 0.02855639
-0.02684291 -0.010254439 0.050660092 -0.009641001 -0.016050564 -0.060597632 -0.034771897 0.0030800514
0.013342732 0.031773042 0.044855602 -0.0014873146 -0.0219256 -0.0063570994 0.040839408 -0.0006566202
-0.015755327 -0.0020816822 0.017715538 0.021999002 -0.042971354 -0.018503262 0.030521316 0.018097246
0.051458355 -0.017336078 -0.03774896 0.020433204 -0.045993507 -0.018533077 0.038788907 0.060916405
-0.02515875 -0.07644693 -0.010582163 0.0037681311 0.016958714 -0.014231621 -0.053683404 -0.035989862
0.036108676 -0.008835747 -0.03302921 -0.00014014618 0.01995469 0.011654118 0.0672682 -0.02756261
-0.042705726 -0.057166815 0.036398802 -0.04243783 0.0030753962 0.015566207 -0.030999014 0.0010815201
-0.041169427 0.045849293 0.028913641 0.03864333 -0.0062019657 0.0015182982 0.013336721 0.02480603
00000000: 7cde 68ba b458 9bbc 82d7 e83c a320 24bd
00000010: 2a2b 093c 2c3c cf3c 2e00 803c c56e 5e3d
00000020: 5e8e 173c 4ae6 573a cd16 97bc a741 333a
00000030: a6b1 513d 53fc c13c 7c0e 82bb 3927 d0bc
00000040: ae30 3c3d 9142 f839 df2f 05bc 9758 5a3c
00000050: fb41 81bd 66d9 143d 312c 8abc e9ab a7bb
00000060: 5139 223d 8ee5 eb37 78fe 0a3d 3c39 733d
00000070: fcae febc 64c3 b83c f844 8e3c a346 263d
00000080: 1680 e5bc 7695 13bd 7d01 41bd bc6d 21bb
00000090: 851d 743c e635 43bd e5dc b93c e6fb 3bbc
000000a0: c964 573d 0ad6 f3b7 1b20 60bc c971 1abc
000000b0: c61f 8d3d 936e 4a3d 7302 01bd 2b0b ba3b
000000c0: 8e49 4d3d a23b 0dbc 871f 753c db36 1db9
000000d0: df83 27bb a4cc 7dbd 486c 0c3d 7203 0b3d
000000e0: a1a6 27bc 0568 ee3c da51 10bd 7df0 b13c
000000f0: 32ba 33bc e157 a4ba fe79 073d 17ef e93c
00000100: aae5 dbbc 3c02 28bc f580 4f3d 4af5 1dbc
00000110: 797c 83bc 3935 78bd fa6c 0ebd b0da 493b
00000120: 799b 5a3c 7324 023d 82ba 373d fff1 c2ba
00000130: 519d b3bc 374f d0bb 3947 273d 0921 2cba
00000140: 5111 81bc d56c 08bb 2d20 913c 4037 b43c
00000150: bb02 30bd 2794 97bc d707 fa3c ad40 943c
00000160: ffc5 523d 6404 8ebc a79e 1abd 8963 a73c
00000170: b063 3cbd aed2 97bc 1ee1 1e3d 7b83 793d
00000180: b919 cebc 3590 9cbd cf60 2dbc c0f2 763b
00000190: 00ed 8a3c bf2b 69bc 21e3 5bbd 1b6a 13bd
000001a0: b1e6 133d cfc3 10bc a349 07bd 34f4 12b9
000001b0: 0578 a33c eaf0 3e3c e9c3 893d fcca e1bc
000001c0: 33ec 2ebd c027 6abd e916 153d 4ad3 2dbd
000001d0: 968c 493b 6709 7f3c a5f1 fdbc cbc1 8d3a
000001e0: 46a1 28bd 78cc 3b3d 4ddc ec3c 7848 1e3d
000001f0: dc39 cbbb a201 c73a 4382 5a3c 0436 cb3c

layers.2.weight f4 [1, 128]
0.07025707 0.09628144 0.12929814 0.068416536 -0.03897806 0.18920101 0.029916441 0.20466821
-0.063370645 0.04989317 0.072312415 0.15950046 0.15528043 0.0757647 0.01128589 0.1287761
-0.036791675 0.13059273 0.17686205 0.06949757 0.15729779 -0.016812736 -0.036669083 -0.02523361
0.22807665 0.0020159998 0.060730424 0.06924444 -0.0337129 -0.05788783 -0.059420507 0.06405739
-0.030473495 0.1825018 0.09717715 -0.00043793835 -0.053746723 0.08027544 -0.0650248 0.037827443
0.035718802 0.0013040737 -0.057189412 -0.007103951 -0.26589397 0.07778659 -0.07291982 -0.0274701
0.08406338 -0.06780851 -0.042948615 -2.7244803e-06 -0.07117639 0.002402236 -0.055021837 0.034566816
0.051696125 -0.0071814256 0.048653536 0.022044327 0.08476747 -0.24470294 -0.070536844 0.05763223
-0.060772106 0.19605398 0.050438598 -0.29294556 -0.06875935 0.0037948554 0.10366414 -0.27421346
-0.02090398 0.10165857 0.06310683 0.0020956865 -0.05985389 -0.33239326 -0.0659181 0.18573266
0.1272936 -0.014440194 0.02940828 0.09624774 0.052864164 -0.040304534 0.25754943 -0.05083588
0.24781726 0.06306566 0.037661713 0.060355 0.005382795 -0.24827749 -0.12591928 0.049078725
0.0042221337 -0.31704253 0.10091605 0.16106272 -0.07193611 0.049645722 -0.05464721 -0.3789666
0.08206801 0.07256017 0.07541396 0.08659915 -0.104533195 -0.03224033 0.056170274 0.040736914
-0.06395035 -0.023641836 -0.05090828 0.049238417 0.03951734 0.002081448 -0.008170886 -0.058883417
0.06354253 0.14530958 -0.005416694 0.08352916 -0.00067885447 -0.31747043 -0.06695902 -0.04973841
00000000: f0e2 8f3d 342f c53d bb66 043e f81d 8c3d
00000010: 75a7 1fbd e9bd 413e 5313 f53c 8b94 513e
00000020: 78c8 81bd c85c 4c3d 8818 943d 1754 233e
00000030: d501 1f3e 862a 9b3d 74e8 383c e2dd 033e
00000040: deb2 16bd 1aba 053e 531b 353e be54 8e3d
00000050: ac12 213e ddba 89bc 5232 16bd b7b6 cebc
00000060: ed8c 693e dd1e 043b 77c0 783d 07d0 8d3d
00000070: 8a16 0abd ca1b 6dbd eb62 73bd 8530 833d
00000080: 8da3 f9bc c0e1 3a3e d004 c73d 179b e5b9
00000090: 8625 5cbd 7367 a43d b92b 85bd f3f0 1a3d
000000a0: e14d 123d 74ed aa3a 723f 6abd 43c8 e8bb
000000b0: 4123 88be 934e 9f3d fd56 95bd fa08 e1bc
000000c0: 6c29 ac3d 30df 8abd e3ea 2fbd 37d6 36b6
000000d0: edc4 91bd d56e 1d3b 945e 61bd ef95 0d3d
000000e0: 51bf 533d 2a52 ebbb ee48 473d 4e96 b43c
000000f0: 919a ad3d 6893 7abe 9f75 90bd c60f 6c3d
00000100: 2cec 78bd 60c2 483e b498 4e3d f6fc 95be
00000110: b4d1 8cbd 1cb3 783b dd4d d43d b565 8cbe
00000120: d33e abbc 5e32 d03d 273e 813d c957 093b
00000130: 5a29 75bd 732f aabe 1200 87bd b430 3e3e
00000140: 4159 023e 9096 6cbc a2e9 f03c 891d c53d
00000150: 1888 583d 5e16 25bd 85dd 833e 4939 50bd
00000160: cfc3 7d3e 9228 813d 2b43 1a3d ce36 773d
00000170: 2862 b03b 743c 7ebe fcf0 00be c606 493d
00000180: d359 8a3b 6653 a2be 13ad ce3d a0ed 243e
00000190: 3d53 93bd 5059 4b3d c1d5 5fbd e907 c2be
000001a0: 4613 a83d 6d9a 943d a272 9a3d e55a b13d
000001b0: 8015 d6bd 700e 04bd cd12 663d c0db 263d
000001c0: 67f8 82bd 86ac c1bc 3385 50bd 39ae 493d
000001d0: efdc 213d e768 083b 2edf 05bc bd2f 71bd
000001e0: 9622 823d 09cc 143e 867e b1bb 5611 ab3d
000001f0: 27f5 31ba 7c8b a2be d021 89bd 81ba 4bbd
