tiny_heads/ptm.pt (torch, 166768 bytes, 3 tensors)

layers.0.weight f4 [128, 320]
000000 54 91 21 bc b5 b6 ac 3b 5e 42 78 3d f1 2b ad bb
       -0.009861309 0.005270804 0.060610168 -0.0052847792
000010 e2 3e 25 3d a9 65 82 3c 9a 92 96 3b 85 e4 46 3a
       0.040343173 0.015917616 0.004595113 0.00075871526
000020 49 7c 3d bd 9b 1c 1f bd 3d 9d 33 3b 2f aa 60 3c
       -0.046261106 -0.03884564 0.0027406954 0.01371245
000030 15 d7 e4 3c 35 57 ef 3b 85 70 95 3c 36 7e 06 bd
       0.02793459 0.007304097 0.01824213 -0.032835208
000040 69 8b 16 bd bf 64 01 3d 1b 0e 4b 3d 4c f8 4e 3d
       -0.036754046 0.03159022 0.049574 0.050529763
000050 2a 15 92 3d 12 55 eb bb 32 1c 31 3d c8 8c 8c bc
       0.07132943 -0.007181772 0.04323978 -0.017156973
000060 c0 da 54 3d f6 cb 8f bb 82 17 94 bd 15 e6 36 bc
       0.05196643 -0.0043883277 -0.07231046 -0.011163254
000070 f4 00 11 3d b4 d3 c6 3c b8 de 1a bd 7a 2f 3f bc
       0.0354013 0.02427087 -0.037810057 -0.011669034
000080 4e 30 df 3c 3d 16 2e bd e2 cf 1d 3d 97 98 33 bd
       0.027244713 -0.042501677 0.03852833 -0.043846693
000090 6a 33 a0 3b 02 37 9e bd 8b cb 81 3d d0 33 fe b8
       0.0048889415 -0.07725336 0.06337651 -0.00012121315
0000a0 90 21 c3 3c b1 55 35 3d 8e 4e d1 bc e3 c0 9a bc
       0.023819715 0.044271175 -0.025550153 -0.018890804
0000b0 48 36 82 3c b9 5b 39 bc 67 76 ed 3c 3d c1 32 3d
       0.015895024 -0.011313372 0.028987123 0.043641318
0000c0 7a 57 17 bb c3 3a be bc 84 e5 6a bc c5 50 0d bc
       -0.0023092912 -0.02322138 -0.014336947 -0.008625214
0000d0 e0 91 18 3d 29 55 fe bc ec 4f e4 bc 08 a8 fa ba
       0.037248492 -0.031046467 -0.027870141 -0.0019123564
0000e0 14 35 c8 bc be a2 26 3c b1 9a 56 bc 7f c9 66 3d
       -0.024439372 0.010170637 -0.013098405 0.056344505
0000f0 84 37 01 bb 49 fe 8a bc 66 e9 86 bd 1e 59 10 bc
       -0.0019716928 -0.016966956 -0.06587486 -0.00881031
000100 c0 19 35 3c bc 4e a5 b9 e7 af d7 bb e2 94 ca 3c
       0.011053503 -0.00031529914 -0.0065822485 0.024729196
000110 74 d0 27 bd 81 b9 18 3d 3a c4 5a 3d 0c 7f a2 3c
       -0.04097028 0.037286285 0.053409792 0.019835971
000120 6a e7 dd 3c 52 63 3b 3d 87 0b 96 3c 1c 72 35 3c
       0.027087886 0.045749016 0.018316044 0.011074569
000130 11 f5 3c bd e7 14 87 3d b4 f1 22 bd a7 3f 55 bd
       -0.04613215 0.06595784 -0.039781287 -0.052062657
000140 16 a1 eb bc 47 ae bb 3c 18 14 0e bd 5b 11 2d 3c
       -0.028763335 0.02291025 -0.03468713 0.01056322
000150 04 11 12 3d bf d8 54 3c a6 6b ef bc fa b7 19 bd
       0.03566076 0.012991129 -0.029226135 -0.03752897
000160 62 a9 db 3d e1 f3 72 bc ec 09 2e bc 5c 2a cb 3b
       0.107256666 -0.014828653 -0.010622483 0.006200118
000170 f5 93 a2 3c 5e 5c 8c 3d 6f 2c cf 3c 4e dd c6 ba
       0.019845942 0.06853555 0.025289742 -0.0015172155
000180 5f d4 5e bc 65 20 e1 bc 8d 1f 9c bc 35 d7 cd bc
       -0.013600438 -0.027481267 -0.019058013 -0.025127033
000190 12 92 9d bc 29 50 df bb dc 67 35 bc a1 0d 13 3d
       -0.01923469 -0.0068149758 -0.011072125 0.03590167
0001a0 8f 76 87 3c d5 46 23 3d 75 66 86 3d e5 08 c4 bc
       0.016536025 0.039862473 0.06562511 -0.023930022
0001b0 6e 9c a2 bc 19 28 47 bc c3 54 db bb 5f 87 1a bd
       -0.019849982 -0.012155556 -0.006693454 -0.037726756
0001c0 8e 41 85 bd ba ce 15 bc b6 4f 3b bc 38 e1 82 bc
       -0.06506644 -0.009143526 -0.011432579 -0.015976533
0001d0 5e 80 1a bd 69 1a 39 3d 05 95 46 bb 40 63 22 bd
       -0.037720077 0.045191202 -0.0030301225 -0.039645433
0001e0 6f 8f ce 3a d8 87 ad 3c ec 0e 80 3c 0d d5 1c bd
       0.0015759299 0.02118294 0.015632115 -0.03828912
0001f0 a0 50 26 bc 57 83 f4 bc 21 26 42 3d 91 88 17 3d
       -0.010151058 -0.029847784 0.047399644 0.036995474
000200 b1 d5 87 3a f8 63 1d bc 93 b4 01 bb 44 92 7b bd
       0.0010363368 -0.009606354 -0.0019791469 -0.061418787
000210 b6 f6 f9 3c 99 65 b6 3a 90 a0 57 bc 1d 9f 16 bd
       0.030513149 0.0013915777 -0.01316084 -0.036772836
000220 e1 b5 8e bc f8 ab c6 bc 3a bf 1f 3c c6 38 0b bd
       -0.017420711 -0.024251923 0.009750182 -0.03398969
000230 c4 15 2e bd 9c 4d 06 bd b2 4f 08 bd 3f d9 55 3d
       -0.042501226 -0.032788858 -0.03327913 0.052209135
000240 c7 f3 99 3d ef d2 60 3d 13 0e fb 3c 3c 21 cb bc
       0.075172 0.054888662 0.03064636 -0.02479612
000250 c2 16 37 bd 6a 5c d9 bc aa e7 56 3a 82 d1 1b bd
       -0.044699438 -0.026533324 0.0008197973 -0.0380416
000260 a1 fd 9f bb 01 ec 27 3c 48 ba 46 3b bc 85 30 bd
       -0.00488253 0.010249139 0.0030323435 -0.04309629
000270 f3 7f b7 3c df 26 8b bc 1d d7 c9 bb ff 85 b2 3c
       0.022399878 -0.016986309 -0.0061596767 0.02179241
000280 7d 7a 4b 3c 74 06 09 3d c0 90 c4 3b d1 d2 89 3d
       0.01241934 0.03345342 0.005998701 0.06729663
000290 39 a9 bd bc b9 6e a9 bd 9e 82 99 3c 20 10 ce bb
       -0.02315198 -0.08273072 0.018739041 -0.0062885433
0002a0 77 42 a7 bb c9 84 b8 3c ee ad 24 3d 21 56 97 3a
       -0.005104359 0.022524254 0.040204935 0.0011546054
0002b0 c9 28 b7 3a 00 ea 32 bd 7d 8f 5c 3d 9f 51 1e 3c
       0.0013973947 -0.04368019 0.05384778 0.009663015
0002c0 86 ed 3d bd 15 1f ad bc 8c 15 c1 3b 10 9c be 3c
       -0.046369098 -0.021132985 0.005892461 0.023267776
0002d0 ea fa 7d 3c 72 d0 9e 3b bf a3 a4 3c 35 34 2e bc
       0.015501717 0.004846626 0.020097611 -0.010632564
0002e0 0e b0 92 bd 28 4d 06 bd 56 b0 9c bb a5 08 77 3c
       -0.07162486 -0.032788426 -0.004781763 0.015077745
0002f0 45 12 ad 3d 0b bf 90 bb fe b8 c1 bc 78 d6 57 3c
       0.0845075 -0.0044173053 -0.023647781 0.013173692
000300 0e c5 55 3b 8c a4 27 bc 82 94 3d bb f9 75 68 3d
       0.0032618674 -0.010232102 -0.002892763 0.056753132
000310 5f 56 da 3c 46 e9 dc bc 45 9b 6c bb 66 dd 45 bc
       0.026652513 -0.026966702 -0.003610329 -0.012076711
000320 90 b4 58 3d 89 4c c6 3c ea b6 23 3c 02 d5 43 3d
       0.052906573 0.024206417 0.009992341 0.047810562
000330 13 a7 33 bc 21 8c 9d bc 37 b2 03 bd 69 40 15 bc
       -0.010965127 -0.019231858 -0.03215238 -0.009109595
000340 57 21 eb 3d 68 c4 57 bb 2e cb 12 3d 9b f3 ff 3c
       0.114809684 -0.0032923464 0.0358383 0.03124409
000350 af a3 35 bc 6e 2d d1 3a 5c 14 e1 bb 1d 79 28 3c
       -0.0110863885 0.0015958974 -0.006868882 0.010282782
000360 78 21 d2 39 90 31 6c 3d 18 d1 b0 bc 5a 0e a6 3d
       0.00040079257 0.057664454 -0.021584079 0.08108206
000370 fc 58 85 bd 18 ec 96 3c c7 f5 9b 3b b6 75 4a b9
       -0.06511113 0.018423125 0.0047595236 -0.00019308072
000380 78 ca 1b 3d a2 3c bb 3d a5 c1 40 bd f1 d0 00 bd
       0.038034886 0.09142424 -0.047059674 -0.031449262
000390 79 08 2d bd 90 56 eb 3c a9 98 f8 3c db 37 77 bc
       -0.04224441 0.0287278 0.030346232 -0.015089001
0003a0 29 55 13 3d 45 2b d5 3d a2 c3 2a 3c 4f e9 75 3c
       0.035969887 0.10408644 0.010422619 0.015009238
0003b0 c1 6f 7c 3d 79 c9 86 3c c5 04 df ba 78 07 e7 bb
       0.061630014 0.016453492 -0.0017014971 -0.007050451
0003c0 56 37 80 bd 02 46 39 bc 77 1f 77 3b 8d 85 64 bd
       -0.062605545 -0.011308195 0.0037707963 -0.055791426
0003d0 1b 7a 36 bd 55 7a bd bb 12 de b9 3c 88 4c a2 3c
       -0.044550043 -0.0057824054 0.0226889 0.019811884
0003e0 ea 32 b0 bb 05 45 01 bc b8 7f 27 3d 70 bd d9 3c
       -0.005377163 -0.007889991 0.040893286 0.026579589
0003f0 ac 61 13 bc af 35 a7 3d a6 ec 4c 3d 9a 88 3d 3d
       -0.008995455 0.08164536 0.050030373 0.04627285

layers.0.bias f4 [128]
000000 1c 3c 9a 3d 8d fd b5 bc 14 09 08 bd 8c be f5 3c
       0.07530996 -0.022215629 -0.033211783 0.029998086
000010 12 e8 26 38 d2 d1 94 bd 94 e8 8f bc 45 59 d5 bd
       3.9793616e-05 -0.072665825 -0.017566957 -0.104174174
000020 0c b8 2d bd ad c1 37 3c 34 9f 8a 3d b7 61 3d 3b
       -0.04241185 0.0112156095 0.06768647 0.0028897354
000030 70 40 18 bd 6f 4c 1e bd 7a 84 fa 3c 21 95 09 bd
       -0.037170827 -0.03864711 0.030580748 -0.033589486
000040 7a a4 8b bb 48 4e 00 3d 32 1f 8a 3b 0d 09 25 3c
       -0.0042615505 0.031324655 0.0042151446 0.010072959
000050 d0 b4 44 bd ab 00 81 ba 27 e7 ba bb f7 64 d0 bc
       -0.048024 -0.0009842118 -0.005703825 -0.025438769
000060 d5 c0 54 3c 41 6b 66 3c e0 5c 23 3c f7 02 69 3d
       0.012985428 0.014063657 0.009970874 0.056887593
000070 c4 9a 1c bd ef 7d 8f bd 63 78 4b bd dd 92 f0 bc
       -0.038233534 -0.07006442 -0.049675357 -0.029366905
000080 47 1c f1 bc 18 70 e1 bb fa 10 d0 3c 0f 33 16 bc
       -0.029432429 -0.0068798177 0.02539872 -0.009167447
000090 08 b9 87 3c cc c0 65 bc ed d4 90 3c d7 dc 8f 3d
       0.016567722 -0.014023017 0.017679656 0.07024544
0000a0 f2 3e 5b bd fa f9 19 bd 0b 4a a2 bc b0 67 4e 3d
       -0.053526826 -0.03759191 -0.019810697 0.050391853
0000b0 95 97 5f bd c2 e9 7c bd 74 cb b7 bc 48 86 e5 bc
       -0.05458792 -0.061746366 -0.022435881 -0.028018132
0000c0 d5 96 37 3d 82 f0 85 bc 1a 94 93 bb 64 c9 48 3d
       0.04482158 -0.016350035 -0.004503739 0.049020186
0000d0 99 21 b4 bd 55 21 0e 3d 43 0f 22 bd 16 df 48 3d
       -0.08795471 0.034699757 -0.039565336 0.049040876
0000e0 c1 fc fa 3c 63 0b ce 3c 95 64 fb bc 9b 1a 46 bd
       0.0306381 0.025151914 -0.03068761 -0.048365217
0000f0 99 07 03 bd 72 71 93 3b 77 2b 10 bd af 4b 51 3d
       -0.031989668 0.0044996077 -0.0351977 0.051097568
000100 93 c5 20 bd d2 2e 1f 3c 2c 1d 63 3c 92 ec 90 3d
       -0.03925092 0.009715753 0.013861936 0.07076372
000110 5d d1 db 3c 06 fc b8 3c c2 4e be ba 30 2b a8 3c
       0.02683323 0.022581112 -0.0014519321 0.020528406
000120 24 50 b8 3c 79 7a d9 bc ba cc b3 3c 00 11 3f bc
       0.022499152 -0.026547657 0.021948207 -0.011661768
000130 c0 c7 14 3d e4 38 7d 3c fc 6c 5f 3c f1 e5 85 3c
       0.03632331 0.015455458 0.013636824 0.016344996
000140 e4 f8 4d 3d e2 ae 13 bc 2d 43 5c bc fb dc 52 bc
       0.05028619 -0.009013863 -0.01344375 -0.012870069
000150 86 67 67 3d cf 98 12 3d 16 e7 82 bd 60 0b 17 3d
       0.056495212 0.03579026 -0.063917324 0.036876082
000160 e1 7c 79 3d 90 38 1a bd 08 1d 54 3c 25 61 10 bd
       0.06091011 -0.0376516 0.012946375 -0.035248894
000170 c3 d7 08 bd 92 6a 6b bd ed 86 2c 3d 35 99 d0 3b
       -0.03340889 -0.05747468 0.042120863 0.00636592
000180 24 b0 7c 3d bf 12 7f bd 18 11 46 3c 29 13 44 3a
       0.06169142 -0.062273737 0.012089036 0.0007479662
000190 c9 7c 4d bd a8 06 b9 3c 24 0d b2 bc c2 7c 2f bd
       -0.050167833 0.022586182 -0.021734782 -0.042843588
0001a0 cb 0f fa bc 8c 41 da 3b de 93 07 3c 23 d8 a2 3c
       -0.030525109 0.006660646 0.008275 0.019878453
0001b0 fd 86 0d bc 0c 78 9e 3c 71 25 d8 bc b7 e0 82 bc
       -0.008638141 0.019344352 -0.026385041 -0.015976293
0001c0 24 a3 3a 3d b7 31 8d bd 1c 00 6d 3c fd 5e 18 3c
       0.04556574 -0.06894248 0.014465358 0.009299991
0001d0 b3 6b fa bc 00 55 ac bc 5c 3b 17 bd 89 d8 af bc
       -0.030568933 -0.021036625 -0.036921844 -0.021465557
0001e0 78 71 c1 3c b4 98 62 bc 03 14 d2 bb 1d d9 3f bd
       0.023613676 -0.013830353 -0.006411077 -0.046837915
0001f0 a1 6a 94 3b 35 05 22 bc 8b 1c 27 bd ba e1 43 bd
       0.0045293127 -0.009888937 -0.040798705 -0.04782269

layers.2.weight f4 [1, 128]
000000 bc 8d da 3d c6 8e 09 c0 76 33 b2 3e a8 08 45 3d
       0.10671565 -2.1493392 0.34804887 0.04810396
000010 0b 36 b7 3f 75 e6 45 bf 7a 55 46 bf d9 3d b8 3f
       1.4313368 -0.77304775 -0.77474177 1.4393874
000020 49 2d 93 be 81 6a f2 be f9 24 91 3d f3 0c 69 bf
       -0.28745487 -0.4734688 0.0708713 -0.91035384
000030 7b ef f2 be b5 0b de be 61 fd 28 3f a0 5e 0c bf
       -0.47448334 -0.43368307 0.66011626 -0.54831886
000040 2c 08 67 3f 45 e2 32 bf 9c 5a 1d bf b0 57 f4 be
       0.90246844 -0.6987651 -0.61466384 -0.4772315
000050 a0 38 85 bf 4a 9a 56 bf d0 9d 88 be 38 fe 92 bf
       -1.0407906 -0.83829176 -0.266829 -1.1483831
000060 e2 5c 0a 3f 53 8a 73 be a1 d6 b0 3e d3 45 6a 3f
       0.5404798 -0.23783235 0.3453875 0.91512793
000070 de e0 fe 3f 5f 43 b6 3f 6e 96 a4 be 32 bf ef bf
       1.9912374 1.423931 -0.3214602 -1.8730223
000080 c4 4e 07 bf 3a 7c 61 3f ca 4c 27 be 9f 4d ad be
       -0.5285456 0.8808018 -0.16337886 -0.33848283
000090 09 a8 c6 be 86 84 65 3d dc 25 7e bf ed 0a c9 3d
       -0.38800076 0.056034587 -0.9927652 0.09816537
0000a0 90 b8 6f bf c5 b9 a0 bf af 31 85 3f 02 aa 42 3f
       -0.93640995 -1.2556692 1.0405787 0.7604066
0000b0 b6 1d 11 c0 d9 1f 50 be 11 f5 08 bf 80 b2 9a be
       -2.2674384 -0.20324649 -0.5349894 -0.3021431
0000c0 b5 09 91 3d db 5e d3 3d 3e 4a 38 3f ca 34 f6 3e
       0.070819296 0.103208266 0.71988285 0.4808715
0000d0 fe 93 11 40 84 a9 d3 3e f1 70 fc 3e 33 39 c3 be
       2.2746577 0.41340268 0.49304917 -0.38129577
0000e0 b0 e7 ce 3d d8 7b 1b 3f 1f 2a 7b 3f 7f db a6 be
       0.10102785 0.60735846 0.98111147 -0.32589337
0000f0 9c 94 f3 be 93 13 1f bf 46 2a da be db be 20 bf
       -0.47574317 -0.6213924 -0.42610377 -0.6279122
000100 7a 1a ca be da e8 43 3e e7 98 b4 3e f9 ad 3b 3e
       -0.39473325 0.19131795 0.35272905 0.18328084
000110 b9 9e 1d bf fb f9 d0 be db d3 12 bf 66 3b 97 3f
       -0.61570317 -0.4081572 -0.57354516 1.1815002
000120 32 23 29 3f a3 b1 12 bf 4d 49 09 3e fa e1 5f bf
       0.6606933 -0.573023 0.13406868 -0.8745419
000130 98 14 a9 be c8 73 3e bf 6d 48 24 3f 24 b3 ad be
       -0.33023524 -0.7439542 0.6417301 -0.33925736
000140 26 33 b8 3d 59 ef b0 3f 7b 8e 04 3e ad a3 26 bf
       0.08994131 1.3823043 0.12944977 -0.650935
000150 7e 57 5d 3d 6d ad 32 3f 7a 3c af be c5 7e 36 bf
       0.054038517 0.69795877 -0.34225827 -0.71287185
000160 3e cd 1c 3d 1d ef b6 3f 8d 01 3a 3f 03 6b a4 be
       0.03828167 1.4291722 0.72658616 -0.32112893
000170 c5 06 88 3f ab 40 1f bf 75 78 5b 3f e5 d0 26 3f
       1.0627066 -0.6220805 0.8573068 0.651625
000180 e8 b1 d2 3e 67 da fc be 82 ba 9b 3e 79 fd 16 3e
       0.41151357 -0.49385378 0.30415732 0.1474513
000190 08 ec f9 be 98 18 75 be 4b 2f d1 3f 42 65 ab 3f
       -0.4881289 -0.23935163 1.6342558 1.3390276
0001a0 e0 e0 c0 3f 76 e7 c0 3e c2 d3 ec be 93 9e eb be
       1.5068626 0.3767659 -0.46255308 -0.4601942
0001b0 b9 14 48 bf b4 5e 54 3d 7d 28 f4 3f 5e 63 04 bf
       -0.7815662 0.05184813 1.9074856 -0.5171412
0001c0 fa 54 7f 3e da 3d 69 bf 77 b0 56 bf 4e e5 98 3f
       0.2493476 -0.91110003 -0.83863014 1.1944978
0001d0 4f fd ec 3d 36 79 28 bf 96 0c 92 bf b8 94 ea be
       0.11571752 -0.65809953 -1.1410091 -0.45816588
0001e0 dc 8c 5e be 7f 8b 81 be 08 fe 7a 3e 1f 90 1d 3f
       -0.21733421 -0.2530174 0.24510968 0.61548036
0001f0 c7 f7 5c 3f fa 63 c8 be 77 a0 0f bf d2 d8 34 bf
       0.8631558 -0.39138776 -0.56104225 -0.7064334
