tiny_heads/ptm.pt (torch, 166768 bytes, 3 tensors)

layers.0.weight f4 [128, 320]
0	0xbe00c19e	-0.12573859
1	0xbd065c60	-0.03280294
2	0xbd7c43d5	-0.061588127
3	0xbcbf8b68	-0.023381904
4	0xbe0a2ca1	-0.13493587
5	0x3bf45163	0.007455991
6	0xbdc51cb8	-0.09624618
7	0xbd9392aa	-0.07205708
8	0xbccb3356	-0.024804752
9	0xbc0dc915	-0.008653899
10	0xbd600859	-0.05469546
11	0x3e347847	0.17624007
12	0x3d911ca1	0.07085539
13	0xbc16e5ed	-0.009210092
14	0xbdd9724b	-0.10617503
15	0x3c856ec3	0.016288167
16	0x3d2d0f37	0.042250838
17	0x3e5e5fac	0.21716183
18	0xbe19e9b7	-0.15030561
19	0x3cae6f97	0.021293445
20	0xbdde76a7	-0.10862475
21	0x3d0480cf	0.032349404
22	0x3e0110c5	0.12604053
23	0xbcf03d80	-0.0293262
24	0x3cec4c16	0.028844874
25	0x3db31459	0.087441154
26	0xbc830075	-0.015991429
27	0xba70bfa4	-0.000918383
28	0x3d827e45	0.0637174
29	0x3d3f0d09	0.04664329
30	0x3c89acf0	0.016806096
31	0xbddeff37	-0.10888522
32	0x3d38f719	0.045157526
33	0xbc045eac	-0.008079212
34	0x3dc80da2	0.09768225
35	0x3d22804b	0.03967313
36	0xbd067158	-0.032822937
37	0xbd29384a	-0.041313447
38	0xbd596cca	-0.053082265
39	0x3cf64f7d	0.0300672
40	0xbdcc7376	-0.0998296
41	0x3dfe5b56	0.12419765
42	0x3cb635c5	0.022242436
43	0x3d17bda9	0.03704611
44	0xbcf35646	-0.029704224
45	0xbcc70293	-0.02429322
46	0xbc882f2a	-0.016624052
47	0x3d0195c6	0.031636976
48	0xbd9c0d4c	-0.07619724
49	0xbc5d67ca	-0.013513515
50	0x3e0d9496	0.13826212
51	0x3de49e0a	0.11162956
52	0x3e45af67	0.19305192
53	0x3ba96733	0.005169773
54	0x3dc1c361	0.09461094
55	0xbd3e4edf	-0.046461936
56	0x3d93c58e	0.07215415
57	0x3d9b50e1	0.07583786
58	0xbdaf41d5	-0.08557478
59	0xbd1569ff	-0.03647804
60	0x3d5e1437	0.054218497
61	0x3de5c222	0.112186685
62	0x3cfe9a80	0.03107953
63	0xbda97c5f	-0.08275675
64	0xbd0ccec7	-0.034376886
65	0xbe2366f6	-0.15957245
66	0xbc6168f0	-0.013757929
67	0x3cc3331c	0.023828082
68	0xbcec6f27	-0.028861595
69	0x3adfcb94	0.0017074221
70	0xbcf7c1e8	-0.030243829
71	0xbdbc3c55	-0.09191195
72	0x3d2da6cb	0.042395394
73	0xbda6ba8f	-0.08141052
74	0xbda4a595	-0.08039395
75	0x3d926c8c	0.0714961
76	0x3cd4dcf0	0.025984257
77	0xbe5cbc13	-0.2155612
78	0x3dec4db6	0.1153826
79	0x3ddfb2aa	0.10922749
80	0x3d0abf5d	0.033873904
81	0xbe1baba6	-0.15202197
82	0x3e191c87	0.14952289
83	0x3d829f02	0.063779846
84	0xbdbcaec7	-0.09213024
85	0xbdc528fc	-0.09626958
86	0x3cbb70b5	0.022880891
87	0x3e1e40d5	0.15454419
88	0xbdd06001	-0.10174561
89	0xbc08bd0c	-0.008345854
90	0xbc2a2f45	-0.0103872465
91	0x3d8e379e	0.06944202
92	0xbda940cd	-0.08264313
93	0x3d9140af	0.070924155
94	0x3cdf5429	0.02726181
95	0x3d6e878f	0.058234747
96	0x3d4baeb9	0.049727175
97	0x3dc0d981	0.094164856
98	0x3d8f5185	0.069979705
99	0xbe1ba49b	-0.15199511
100	0x3d89a472	0.067208186
101	0x3da680ae	0.081300125
102	0xbbf06cba	-0.00733718
103	0xbce76080	-0.028244257
104	0xbd8b6b5d	-0.06807587
105	0x3d8f689b	0.07002374
106	0xb9c2d8c5	-0.0003716407
107	0x3da05f5d	0.07830689
108	0x3d2c4ad3	0.042063545
109	0x3d6668b7	0.056252208
110	0xbd98d11c	-0.074617594
111	0x3cd9f91f	0.026608048
112	0x3da8e3dc	0.08246586
113	0x3ea982de	0.33107656
114	0x3d295fc8	0.04135111
115	0x3cd6a41c	0.0262013
116	0x3e297324	0.16547829
117	0xbd661c76	-0.056179486
118	0xbcaf4007	-0.021392835
119	0x3d782d1c	0.060589895
120	0xbd1e30cf	-0.038620766
121	0x3d7a3bf7	0.061092343
122	0x3d450147	0.04809692
123	0x3cc7fa72	0.024411414
124	0xbdcd904f	-0.1003729
125	0xbdfa2a29	-0.12215073
126	0xbcfbc8ad	-0.030735338
127	0x3ce1084b	0.027469775
128	0x3d4ebec1	0.050474886
129	0xbd68a409	-0.05679706
130	0x3d712a3a	0.05887816
131	0xbddd41d8	-0.10803574
132	0xbdb1d600	-0.086833954
133	0x3e23ff98	0.1601547
134	0xbd113c78	-0.035458058
135	0xbb41328a	-0.0029479587
136	0x3d18cc18	0.037304014
137	0x3d1085b2	0.03528375
138	0xbcf4e9b0	-0.029896587
139	0xbdc12ae9	-0.094320126
140	0x3da66788	0.08125216
141	0xbc81b4cb	-0.01583328
142	0x3e0708e1	0.13186981
143	0x3dc5a116	0.09649865
144	0xb9c178b4	-0.0003690176
145	0xbdbfac4c	-0.09359035
146	0x3d46359f	0.04839098
147	0xbced40b0	-0.02896151
148	0x3d9b2793	0.075759076
149	0x3bd272e9	0.0064223898
150	0x3bd35bd3	0.0064501553
151	0x3d82d157	0.06387585
152	0xbca14817	-0.019687695
153	0x3c83e733	0.016101455
154	0xbbb4a692	-0.005513021
155	0x3dfdad1c	0.123865336
156	0x3c89003e	0.016723748
157	0xbd32ef44	-0.043685213
158	0x3c9b9474	0.018991686
159	0x3d85ffef	0.06542956
160	0x3d3fc37e	0.046817295
161	0xbd4c7b30	-0.04992217
162	0x3e774f54	0.24151355
163	0xbd5e7bee	-0.054317407
164	0xbe333a59	-0.17502727
165	0xbd35017e	-0.044190876
166	0xbd18f01d	-0.037338365
167	0xbd1a0619	-0.03760347
168	0xbd9935dc	-0.07480976
169	0xbe210a0b	-0.15726487
170	0x3e59a5bd	0.2125463
171	0x3df2a5b4	0.118480116
172	0xbc9fd7a9	-0.019512014
173	0xbe5248ad	-0.20535536
174	0x3db7a196	0.08966367
175	0xbd2eedff	-0.04270744
176	0x3d24b15b	0.0402082
177	0xbd0272b0	-0.031847656
178	0x3d182699	0.037146185
179	0xbdcd0f96	-0.100127384
180	0x3d9b1efd	0.0757427
181	0xbd365125	-0.04451098
182	0xbdb63503	-0.0889683
183	0x3d1dda3b	0.0385382
184	0x3d95aed6	0.07308738
185	0xbd8317bb	-0.064010106
186	0xbdbb1fd8	-0.09136933
187	0x3c85c0f2	0.016327355
188	0xbdf51433	-0.11966743
189	0x3d80aed3	0.06283345
190	0x3e23fb72	0.16013888
191	0xbc5e46b4	-0.013566662
192	0x3d401266	0.046892546
193	0xbd6ce1da	-0.057832576
194	0xbce7f492	-0.028314862
195	0xbc2e16a5	-0.010625516
196	0xbcefeb80	-0.0292871
197	0x3c12f24f	0.008968904
198	0x3e2673f7	0.16255175
199	0x3d24f1a3	0.040269505
200	0xbd89c8f7	-0.06727784
201	0xbd0d9fd4	-0.034576252
202	0xbb067317	-0.0020515376
203	0x3d18e58c	0.037328288
204	0x3df5d531	0.12003554
205	0x3d33befe	0.043883316
206	0x3daf62a1	0.08563734
207	0x3d8f736b	0.07004436
208	0xbd558e23	-0.052137505
209	0x3b8967e2	0.004193292
210	0xbc9893d8	-0.018625185
211	0x3d7134ac	0.058888122
212	0xbdadcb20	-0.08486009
213	0xbd60d6a8	-0.054892212
214	0x3e335e6e	0.17516491
215	0x3d88bcfc	0.06676671
216	0x3d930c35	0.07180063
217	0xbe4528a8	-0.1925379
218	0xbe1fd711	-0.15609385
219	0xbd954ae1	-0.07289673
220	0xbd4d6946	-0.050149225
221	0xbc68d255	-0.014210303
222	0x3e1a9419	0.15095557
223	0xbe26d5ad	-0.16292448
224	0x3cc6210f	0.024185685
225	0x3dcd4b1e	0.10024093
226	0xbd219323	-0.03944696
227	0x3de3d165	0.11123923
228	0x3d87b706	0.06626706
229	0x3db0b1c7	0.08627658
230	0xbcbce644	-0.023059018
231	0x3eab83c8	0.3349898
232	0x3e05b2d3	0.13056497
233	0xbdc27a00	-0.09495926
234	0x3dd6a478	0.10480589
235	0x3daa3a42	0.08311893
236	0xbe3466b5	-0.17617305
237	0xbd83cf4a	-0.064360216
238	0x3e21291f	0.15738343
239	0x3d6cceaa	0.057814278
240	0x3cbaa708	0.022784725
241	0xbdb7eef0	-0.089811206
242	0x3d516d24	0.051129475
243	0xbc6919f7	-0.014227382
244	0x3d44a367	0.048007395
245	0xbe00ce42	-0.12578681
246	0x3ce9782b	0.028499683
247	0xbd0a9866	-0.033836745
248	0x3d10c660	0.035345435
249	0x3d70077d	0.05860089
250	0xbd55e5bf	-0.052221056
251	0x3d10323d	0.03520416
252	0xbc8d51c0	-0.017250896
253	0x3d7766d7	0.06040081
254	0xbbc06b6f	-0.005872182
255	0xbe0a5776	-0.13509926

layers.0.bias f4 [128]
0	0x3c502fbc	0.012706693
1	0xbd530c5c	-0.05152546
2	0x3d284151	0.041077916
3	0x3bdf284b	0.006810223
4	0xbd78275e	-0.06058442
5	0xbcf2d2bc	-0.029641502
6	0xbb8c0089	-0.0042725247
7	0xbd4c2d76	-0.049848042
8	0x3c29c127	0.0103609925
9	0x3d087701	0.033316616
10	0x3d542b59	0.051799152
11	0xbbd57b45	-0.006514939
12	0xbcb2622e	-0.021775331
13	0xbcd6583e	-0.026165124
14	0x3d5f75fa	0.05455587
15	0x3d3b38d9	0.04570851
16	0x3cd1cefb	0.025611391
17	0xbd035114	-0.032059744
18	0x3c35b9f3	0.011091697
19	0x3d049520	0.03236878
20	0xbc039f07	-0.008033521
21	0xbd56048e	-0.052250437
22	0x3cc9f7cf	0.024654297
23	0x3d3ce00f	0.046112116
24	0xbd7975b6	-0.060903274
25	0xbd937209	-0.07199485
26	0xbc0a7a7a	-0.008452052
27	0x3d237741	0.03990865
28	0xbccb567c	-0.024821512
29	0x38533b4b	5.036154e-05
30	0x3d7494ee	0.059712343
31	0x3d957444	0.072975665
32	0x3cd648c2	0.02615774
33	0x3d30cb2c	0.04316251
34	0xbcf3a6dd	-0.029742653
35	0xbd5a2650	-0.053259194
36	0x3cb3ac1e	0.021932658
37	0xbd53098e	-0.051522784
38	0x3d7b33f3	0.06132884
39	0x3da0ad2a	0.078455284
40	0xbba0c9ef	-0.004906885
41	0xbd2a5f1a	-0.041594602
42	0xbd2fc68c	-0.04291396
43	0x3d1db00d	0.038497973
44	0x3d1b9f40	0.03799367
45	0x3cb62fca	0.022239584
46	0x3d2c1982	0.042016514
47	0x3c266bd9	0.010157549
48	0xbd4b7dd1	-0.049680535
49	0xbd64de73	-0.055876207
50	0xbcd50c5c	-0.02600687
51	0xbcbb94ce	-0.022898104
52	0x3d4f5703	0.05062009
53	0xbc866da2	-0.016409699
54	0x3a918476	0.0011102099
55	0x3d196e01	0.037458424
56	0xbbffe606	-0.0078094034
57	0xbd7eaf2d	-0.06217878
58	0x3d1aa829	0.037758026
59	0x3b439509	0.002984347
60	0xbd108cd6	-0.03529056
61	0xbd4d320c	-0.050096557
62	0x3ca312f8	0.019906506
63	0x3d0f7f43	0.035033476
64	0x3d561530	0.0522663
65	0xbb9f7a80	-0.004866898
66	0xbd5b1055	-0.053482372
67	0x3bc809b5	0.006104673
68	0x3cd24d52	0.025671635
69	0x3d879d1f	0.06621765
70	0xbcf29046	-0.02960981
71	0xbbd4fd5a	-0.0064999284
72	0xbd1bb8a0	-0.03801787
73	0xbc9a9359	-0.018869089
74	0x3cafe35c	0.021470718
75	0x3cfc5215	0.030800859
76	0xbc57fb93	-0.013182539
77	0x3c9435f4	0.018092133
78	0x3ccb4267	0.024811937
79	0x3cc207e4	0.023685403
80	0xbd668087	-0.056274917
81	0x3ba882e5	0.005142557
82	0xbd38e3e5	-0.045139212
83	0xbd153710	-0.036429465
84	0xbc5a7576	-0.013333669
85	0xbb68e734	-0.0035538198
86	0x3b7d721b	0.0038672748
87	0xbd547bdd	-0.051875938
88	0xbb71920f	-0.003686074
89	0x3d5cf0ff	0.05394077
90	0x3c42e1fc	0.011894699
91	0xbc1a0618	-0.009400867
92	0xbd54c4c2	-0.051945455
93	0xbd13b9b6	-0.03606578
94	0xb9907cd5	-0.00027558827
95	0x3d835e9d	0.064145304
96	0xbd323d27	-0.04351535
97	0xbcd43af2	-0.025907014
98	0x3d5a7c95	0.053341467
99	0x3d40c549	0.047063146
100	0xbb0345a2	-0.0020030518
101	0xbc87e702	-0.016589645
102	0x3cf92fcc	0.0304183
103	0x3d27ecbc	0.040997252
104	0xbc800b36	-0.015630346
105	0x3ceda623	0.029009884
106	0x3d13475d	0.03595673
107	0xbc6cf252	-0.014462071
108	0xbc3c4489	-0.011490949
109	0xbd82e52a	-0.06391366
110	0x3d26cb9d	0.040721525
111	0xbd518b32	-0.051158138
112	0xbc2cc4b6	-0.010544946
113	0x3bfece20	0.007776037
114	0x3c836b93	0.016042506
115	0xbd676d01	-0.05650044
116	0x3c2dcfe0	0.010608643
117	0xbbcbce40	-0.0062196553
118	0xbbc46717	-0.0059937346
119	0xbcce4916	-0.025181334
120	0xbc4cf39d	-0.012509254
121	0xbd0276eb	-0.03185169
122	0x3c6eb27e	0.014568923
123	0xb9a614ae	-0.00031677395
124	0xbcde2562	-0.027117435
125	0xbd31bb4e	-0.04339152
126	0xbcd65d55	-0.026167551
127	0xbbc89b2f	-0.006122015

layers.2.weight f4 [1, 128]
0	0xbebb0491	-0.3652692
1	0x3f269dd4	0.65084577
2	0xbf0f96e7	-0.56089634
3	0x3ecff970	0.40619993
4	0xbe1a0b81	-0.15043451
5	0xbe5caceb	-0.21550338
6	0x3dd231d6	0.10263412
7	0x3f0c1511	0.54719645
8	0xbe8c54c5	-0.27408424
9	0xbed22458	-0.41043353
10	0xbef0ea96	-0.47053975
11	0xbe9c8fc9	-0.3057845
12	0xbec816d9	-0.3907993
13	0x3f2cd111	0.6750651
14	0xbeccc26c	-0.39992082
15	0x3d972966	0.07380943
16	0xbe0eb8e6	-0.1393772
17	0xbec49852	-0.3839746
18	0x3dd26c8e	0.102746114
19	0xbee6f25d	-0.45106784
20	0x3f37d6b2	0.71811974
21	0xbe8bb907	-0.27289602
22	0xbe40e0dd	-0.18835779
23	0x3cd9361a	0.026515055
24	0xbf2cd9e3	-0.6751997
25	0x3f519f4e	0.81883705
26	0xbf08c772	-0.5342933
27	0xbe30a9db	-0.17252295
28	0xbf44a1f2	-0.7680961
29	0xbee3d6c2	-0.44499785
30	0x3db4b14c	0.08822879
31	0x3da8da4e	0.08244763
32	0xbee50dfc	-0.44737232
33	0xbe851445	-0.25992027
34	0x3ece70c9	0.40320423
35	0xbeb06dfa	-0.34458905
36	0xbe12b065	-0.14325102
37	0x3ee94332	0.45559078
38	0x3f1c2680	0.60996246
39	0x3dd413fc	0.10355374
40	0xbf034768	-0.5128083
41	0xbf191286	-0.5979389
42	0xbf09fe36	-0.5390352
43	0xbe2e13a3	-0.16999678
44	0xbeb8558d	-0.3600277
45	0xbf619470	-0.8811712
46	0xbe6078c2	-0.21921065
47	0x3e9bce35	0.3043076
48	0xbf1bb15e	-0.60817516
49	0xbecd92ce	-0.40151066
50	0x3e857a7f	0.2607002
51	0xbeeda6d8	-0.46416354
52	0xbec884f1	-0.39163926
53	0x3e5d522e	0.2161338
54	0x3e0a23ed	0.13490267
55	0xbdbb9aff	-0.091604225
56	0xbf20413e	-0.6259955
57	0x3f35498b	0.7081534
58	0xbf12fccb	-0.5741698
59	0xbe085b95	-0.13316186
60	0x3f37dfc0	0.7182579
61	0xbf051a7c	-0.51993537
62	0x3f086dba	0.5329243
63	0x3df9049b	0.121590815
64	0x3ed82653	0.4221674
65	0xbe5656b7	-0.20931517
66	0xbdf8c94b	-0.121477686
67	0x3f07134f	0.5276384
68	0x3ed3eb56	0.41390485
69	0x3db4eb9c	0.088340014
70	0x3f018440	0.5059242
71	0x3ea08956	0.3135478
72	0x3ebb3ab9	0.3656824
73	0x3edaac5d	0.42709628
74	0xbe431b35	-0.19053347
75	0x3cfb28e5	0.030659148
76	0xbe8f81fb	-0.28028855
77	0xbeadd1b7	-0.33949062
78	0xbe993e07	-0.29930136
79	0xbe6775a9	-0.22603478
80	0xbe5faabe	-0.21842477
81	0x3da1f0dd	0.07907269
82	0x3f2253a9	0.63408905
83	0x3f2bfd2d	0.6718319
84	0xbe91216d	-0.28345814
85	0x3eeeb4a0	0.4662218
86	0x3da0a963	0.07844808
87	0x3f97fee4	1.1874661
88	0x3ecf9a81	0.40547565
89	0x3e28aea0	0.16472864
90	0xbe97ddff	-0.29661557
91	0x3d426286	0.04745724
92	0xbf4ecd19	-0.80781704
93	0xbf111af5	-0.5668176
94	0xbf358bf8	-0.709167
95	0x3e0402ff	0.12891768
96	0xbf47c1d8	-0.7803016
97	0x3e64ff02	0.22362903
98	0xbe137094	-0.14398414
99	0x3d8a8e30	0.06765401
100	0xbf16a2ca	-0.58842146
101	0xbebb5c95	-0.36594072
102	0x3f8b15bc	1.0866008
103	0xbeb14a40	-0.3462696
104	0x3e842eb7	0.2581689
105	0xbed75774	-0.4205891
106	0x3e971d30	0.29514456
107	0x3e94541b	0.28970417
108	0x3f1d2bde	0.6139506
109	0xbf139098	-0.5764251
110	0x3f66c337	0.90141624
111	0xbea157b1	-0.31512216
112	0x3eb13480	0.34610367
113	0x3ef8ae7b	0.48570618
114	0xbeda12f7	-0.42592594
115	0xbd9cf42b	-0.07663759
116	0xbe9039be	-0.28169054
117	0x3f91aed0	1.1381474
118	0x3f9665a0	1.1749763
119	0x3f3732d6	0.71561944
120	0xbf0ed9de	-0.5580119
121	0xbe84ded7	-0.25951263
122	0x3d949d48	0.072565615
123	0x3d458e2c	0.04823129
124	0x3f877366	1.0582092
125	0x3eb4747c	0.3524512
126	0xbef1c723	-0.47222242
127	0x3f90c545	1.1310202
